{"weightsManifest": [{"paths": ["group1-shard1of57.lbin", "group1-shard2of57.lbin", "group1-shard3of57.lbin", "group1-shard4of57.lbin", "group1-shard5of57.lbin", "group1-shard6of57.lbin", "group1-shard7of57.lbin", "group1-shard8of57.lbin", "group1-shard9of57.lbin", "group1-shard10of57.lbin", "group1-shard11of57.lbin", "group1-shard12of57.lbin", "group1-shard13of57.lbin", "group1-shard14of57.lbin", "group1-shard15of57.lbin", "group1-shard16of57.lbin", "group1-shard17of57.lbin", "group1-shard18of57.lbin", "group1-shard19of57.lbin", "group1-shard20of57.lbin", "group1-shard21of57.lbin", "group1-shard22of57.lbin", "group1-shard23of57.lbin", "group1-shard24of57.lbin", "group1-shard25of57.lbin", "group1-shard26of57.lbin", "group1-shard27of57.lbin", "group1-shard28of57.lbin", "group1-shard29of57.lbin", "group1-shard30of57.lbin", "group1-shard31of57.lbin", "group1-shard32of57.lbin", "group1-shard33of57.lbin", "group1-shard34of57.lbin", "group1-shard35of57.lbin", "group1-shard36of57.lbin", "group1-shard37of57.lbin", "group1-shard38of57.lbin", "group1-shard39of57.lbin", "group1-shard40of57.lbin", "group1-shard41of57.lbin", "group1-shard42of57.lbin", "group1-shard43of57.lbin", "group1-shard44of57.lbin", "group1-shard45of57.lbin", "group1-shard46of57.lbin", "group1-shard47of57.lbin", "group1-shard48of57.lbin", "group1-shard49of57.lbin", "group1-shard50of57.lbin", "group1-shard51of57.lbin", "group1-shard52of57.lbin", "group1-shard53of57.lbin", "group1-shard54of57.lbin", "group1-shard55of57.lbin", "group1-shard56of57.lbin", "group1-shard57of57.lbin"], "weights": [{"dtype": "float32", "shape": [365], "name": "dense/bias"}, {"dtype": "float32", "shape": [2048, 365], "name": "dense/kernel"}, {"dtype": "int32", "shape": [], "name": "Flatten/flatten/Reshape/shape/1"}, {"dtype": "int32", "shape": [1], "name": "Flatten/flatten/strided_slice/stack_1"}, {"dtype": "int32", "shape": [1], "name": "Flatten/flatten/strided_slice/stack"}, {"dtype": "float32", "shape": [1, 1, 1, 2048], "name": "bn5a_branch2c/sub"}, {"dtype": "float32", "shape": [1, 1, 512, 2048], "name": "res5a_branch2c/merged_input"}, {"dtype": "float32", "shape": [1, 1, 1, 512], "name": "bn5a_branch2b/sub"}, {"dtype": "float32", "shape": [3, 3, 512, 512], "name": "res5a_branch2b/merged_input"}, {"dtype": "int32", "shape": [4, 2], "name": "Pad_1/paddings"}, {"dtype": "float32", "shape": [1, 1, 1, 512], "name": "bn5a_branch2a/sub"}, {"dtype": "float32", "shape": [1, 1, 1024, 512], "name": "res5a_branch2a/merged_input"}, {"dtype": "float32", "shape": [1, 1, 1, 1024], "name": "bn4a_branch2c/sub"}, {"dtype": "float32", "shape": [1, 1, 256, 1024], "name": "res4a_branch2c/merged_input"}, {"dtype": "float32", "shape": [1, 1, 1, 256], "name": "bn4a_branch2b/sub"}, {"dtype": "float32", "shape": [3, 3, 256, 256], "name": "res4a_branch2b/merged_input"}, {"dtype": "float32", "shape": [1, 1, 1, 256], "name": "bn4a_branch2a/sub"}, {"dtype": "float32", "shape": [1, 1, 512, 256], "name": "res4a_branch2a/merged_input"}, {"dtype": "float32", "shape": [1, 1, 1, 512], "name": "bn3a_branch2c/sub"}, {"dtype": "float32", "shape": [1, 1, 128, 512], "name": "res3a_branch2c/merged_input"}, {"dtype": "float32", "shape": [1, 1, 1, 128], "name": "bn3a_branch2b/sub"}, {"dtype": "float32", "shape": [3, 3, 128, 128], "name": "res3a_branch2b/merged_input"}, {"dtype": "float32", "shape": [1, 1, 1, 128], "name": "bn3a_branch2a/sub"}, {"dtype": "float32", "shape": [1, 1, 256, 128], "name": "res3a_branch2a/merged_input"}, {"dtype": "float32", "shape": [1, 1, 1, 256], "name": "bn2a_branch2c/sub"}, {"dtype": "float32", "shape": [1, 1, 64, 256], "name": "res2a_branch2c/merged_input"}, {"dtype": "float32", "shape": [1, 1, 1, 64], "name": "bn2a_branch2b/sub"}, {"dtype": "float32", "shape": [3, 3, 64, 64], "name": "res2a_branch2b/merged_input"}, {"dtype": "float32", "shape": [1, 1, 1, 64], "name": "bn2a_branch2a/sub"}, {"dtype": "float32", "shape": [1, 1, 64, 64], "name": "res2a_branch2a/merged_input"}, {"dtype": "float32", "shape": [], "name": "PadV2/constant_values"}, {"dtype": "int32", "shape": [4, 2], "name": "PadV2/paddings"}, {"dtype": "float32", "shape": [1, 1, 1, 64], "name": "bn_conv1/sub"}, {"dtype": "float32", "shape": [7, 7, 3, 64], "name": "conv1/merged_input"}, {"dtype": "int32", "shape": [4, 2], "name": "Pad/paddings"}, {"dtype": "float32", "shape": [1, 1, 1, 256], "name": "bn2a_branch1/sub"}, {"dtype": "float32", "shape": [1, 1, 64, 256], "name": "res2a_branch1/merged_input"}, {"dtype": "float32", "shape": [1, 1, 1, 256], "name": "bn2b_branch2c/sub"}, {"dtype": "float32", "shape": [1, 1, 64, 256], "name": "res2b_branch2c/merged_input"}, {"dtype": "float32", "shape": [1, 1, 1, 64], "name": "bn2b_branch2b/sub"}, {"dtype": "float32", "shape": [3, 3, 64, 64], "name": "res2b_branch2b/merged_input"}, {"dtype": "float32", "shape": [1, 1, 1, 64], "name": "bn2b_branch2a/sub"}, {"dtype": "float32", "shape": [1, 1, 256, 64], "name": "res2b_branch2a/merged_input"}, {"dtype": "float32", "shape": [1, 1, 1, 256], "name": "bn2c_branch2c/sub"}, {"dtype": "float32", "shape": [1, 1, 64, 256], "name": "res2c_branch2c/merged_input"}, {"dtype": "float32", "shape": [1, 1, 1, 64], "name": "bn2c_branch2b/sub"}, {"dtype": "float32", "shape": [3, 3, 64, 64], "name": "res2c_branch2b/merged_input"}, {"dtype": "float32", "shape": [1, 1, 1, 64], "name": "bn2c_branch2a/sub"}, {"dtype": "float32", "shape": [1, 1, 256, 64], "name": "res2c_branch2a/merged_input"}, {"dtype": "float32", "shape": [1, 1, 1, 512], "name": "bn3a_branch1/sub"}, {"dtype": "float32", "shape": [1, 1, 256, 512], "name": "res3a_branch1/merged_input"}, {"dtype": "float32", "shape": [1, 1, 1, 512], "name": "bn3b1_branch2c/sub"}, {"dtype": "float32", "shape": [1, 1, 128, 512], "name": "res3b1_branch2c/merged_input"}, {"dtype": "float32", "shape": [1, 1, 1, 128], "name": "bn3b1_branch2b/sub"}, {"dtype": "float32", "shape": [3, 3, 128, 128], "name": "res3b1_branch2b/merged_input"}, {"dtype": "float32", "shape": [1, 1, 1, 128], "name": "bn3b1_branch2a/sub"}, {"dtype": "float32", "shape": [1, 1, 512, 128], "name": "res3b1_branch2a/merged_input"}, {"dtype": "float32", "shape": [1, 1, 1, 512], "name": "bn3b2_branch2c/sub"}, {"dtype": "float32", "shape": [1, 1, 128, 512], "name": "res3b2_branch2c/merged_input"}, {"dtype": "float32", "shape": [1, 1, 1, 128], "name": "bn3b2_branch2b/sub"}, {"dtype": "float32", "shape": [3, 3, 128, 128], "name": "res3b2_branch2b/merged_input"}, {"dtype": "float32", "shape": [1, 1, 1, 128], "name": "bn3b2_branch2a/sub"}, {"dtype": "float32", "shape": [1, 1, 512, 128], "name": "res3b2_branch2a/merged_input"}, {"dtype": "float32", "shape": [1, 1, 1, 512], "name": "bn3b3_branch2c/sub"}, {"dtype": "float32", "shape": [1, 1, 128, 512], "name": "res3b3_branch2c/merged_input"}, {"dtype": "float32", "shape": [1, 1, 1, 128], "name": "bn3b3_branch2b/sub"}, {"dtype": "float32", "shape": [3, 3, 128, 128], "name": "res3b3_branch2b/merged_input"}, {"dtype": "float32", "shape": [1, 1, 1, 128], "name": "bn3b3_branch2a/sub"}, {"dtype": "float32", "shape": [1, 1, 512, 128], "name": "res3b3_branch2a/merged_input"}, {"dtype": "float32", "shape": [1, 1, 1, 512], "name": "bn3b4_branch2c/sub"}, {"dtype": "float32", "shape": [1, 1, 128, 512], "name": "res3b4_branch2c/merged_input"}, {"dtype": "float32", "shape": [1, 1, 1, 128], "name": "bn3b4_branch2b/sub"}, {"dtype": "float32", "shape": [3, 3, 128, 128], "name": "res3b4_branch2b/merged_input"}, {"dtype": "float32", "shape": [1, 1, 1, 128], "name": "bn3b4_branch2a/sub"}, {"dtype": "float32", "shape": [1, 1, 512, 128], "name": "res3b4_branch2a/merged_input"}, {"dtype": "float32", "shape": [1, 1, 1, 512], "name": "bn3b5_branch2c/sub"}, {"dtype": "float32", "shape": [1, 1, 128, 512], "name": "res3b5_branch2c/merged_input"}, {"dtype": "float32", "shape": [1, 1, 1, 128], "name": "bn3b5_branch2b/sub"}, {"dtype": "float32", "shape": [3, 3, 128, 128], "name": "res3b5_branch2b/merged_input"}, {"dtype": "float32", "shape": [1, 1, 1, 128], "name": "bn3b5_branch2a/sub"}, {"dtype": "float32", "shape": [1, 1, 512, 128], "name": "res3b5_branch2a/merged_input"}, {"dtype": "float32", "shape": [1, 1, 1, 512], "name": "bn3b6_branch2c/sub"}, {"dtype": "float32", "shape": [1, 1, 128, 512], "name": "res3b6_branch2c/merged_input"}, {"dtype": "float32", "shape": [1, 1, 1, 128], "name": "bn3b6_branch2b/sub"}, {"dtype": "float32", "shape": [3, 3, 128, 128], "name": "res3b6_branch2b/merged_input"}, {"dtype": "float32", "shape": [1, 1, 1, 128], "name": "bn3b6_branch2a/sub"}, {"dtype": "float32", "shape": [1, 1, 512, 128], "name": "res3b6_branch2a/merged_input"}, {"dtype": "float32", "shape": [1, 1, 1, 512], "name": "bn3b7_branch2c/sub"}, {"dtype": "float32", "shape": [1, 1, 128, 512], "name": "res3b7_branch2c/merged_input"}, {"dtype": "float32", "shape": [1, 1, 1, 128], "name": "bn3b7_branch2b/sub"}, {"dtype": "float32", "shape": [3, 3, 128, 128], "name": "res3b7_branch2b/merged_input"}, {"dtype": "float32", "shape": [1, 1, 1, 128], "name": "bn3b7_branch2a/sub"}, {"dtype": "float32", "shape": [1, 1, 512, 128], "name": "res3b7_branch2a/merged_input"}, {"dtype": "float32", "shape": [1, 1, 1, 1024], "name": "bn4a_branch1/sub"}, {"dtype": "float32", "shape": [1, 1, 512, 1024], "name": "res4a_branch1/merged_input"}, {"dtype": "float32", "shape": [1, 1, 1, 1024], "name": "bn4b1_branch2c/sub"}, {"dtype": "float32", "shape": [1, 1, 256, 1024], "name": "res4b1_branch2c/merged_input"}, {"dtype": "float32", "shape": [1, 1, 1, 256], "name": "bn4b1_branch2b/sub"}, {"dtype": "float32", "shape": [3, 3, 256, 256], "name": "res4b1_branch2b/merged_input"}, {"dtype": "float32", "shape": [1, 1, 1, 256], "name": "bn4b1_branch2a/sub"}, {"dtype": "float32", "shape": [1, 1, 1024, 256], "name": "res4b1_branch2a/merged_input"}, {"dtype": "float32", "shape": [1, 1, 1, 1024], "name": "bn4b2_branch2c/sub"}, {"dtype": "float32", "shape": [1, 1, 256, 1024], "name": "res4b2_branch2c/merged_input"}, {"dtype": "float32", "shape": [1, 1, 1, 256], "name": "bn4b2_branch2b/sub"}, {"dtype": "float32", "shape": [3, 3, 256, 256], "name": "res4b2_branch2b/merged_input"}, {"dtype": "float32", "shape": [1, 1, 1, 256], "name": "bn4b2_branch2a/sub"}, {"dtype": "float32", "shape": [1, 1, 1024, 256], "name": "res4b2_branch2a/merged_input"}, {"dtype": "float32", "shape": [1, 1, 1, 1024], "name": "bn4b3_branch2c/sub"}, {"dtype": "float32", "shape": [1, 1, 256, 1024], "name": "res4b3_branch2c/merged_input"}, {"dtype": "float32", "shape": [1, 1, 1, 256], "name": "bn4b3_branch2b/sub"}, {"dtype": "float32", "shape": [3, 3, 256, 256], "name": "res4b3_branch2b/merged_input"}, {"dtype": "float32", "shape": [1, 1, 1, 256], "name": "bn4b3_branch2a/sub"}, {"dtype": "float32", "shape": [1, 1, 1024, 256], "name": "res4b3_branch2a/merged_input"}, {"dtype": "float32", "shape": [1, 1, 1, 1024], "name": "bn4b4_branch2c/sub"}, {"dtype": "float32", "shape": [1, 1, 256, 1024], "name": "res4b4_branch2c/merged_input"}, {"dtype": "float32", "shape": [1, 1, 1, 256], "name": "bn4b4_branch2b/sub"}, {"dtype": "float32", "shape": [3, 3, 256, 256], "name": "res4b4_branch2b/merged_input"}, {"dtype": "float32", "shape": [1, 1, 1, 256], "name": "bn4b4_branch2a/sub"}, {"dtype": "float32", "shape": [1, 1, 1024, 256], "name": "res4b4_branch2a/merged_input"}, {"dtype": "float32", "shape": [1, 1, 1, 1024], "name": "bn4b5_branch2c/sub"}, {"dtype": "float32", "shape": [1, 1, 256, 1024], "name": "res4b5_branch2c/merged_input"}, {"dtype": "float32", "shape": [1, 1, 1, 256], "name": "bn4b5_branch2b/sub"}, {"dtype": "float32", "shape": [3, 3, 256, 256], "name": "res4b5_branch2b/merged_input"}, {"dtype": "float32", "shape": [1, 1, 1, 256], "name": "bn4b5_branch2a/sub"}, {"dtype": "float32", "shape": [1, 1, 1024, 256], "name": "res4b5_branch2a/merged_input"}, {"dtype": "float32", "shape": [1, 1, 1, 1024], "name": "bn4b6_branch2c/sub"}, {"dtype": "float32", "shape": [1, 1, 256, 1024], "name": "res4b6_branch2c/merged_input"}, {"dtype": "float32", "shape": [1, 1, 1, 256], "name": "bn4b6_branch2b/sub"}, {"dtype": "float32", "shape": [3, 3, 256, 256], "name": "res4b6_branch2b/merged_input"}, {"dtype": "float32", "shape": [1, 1, 1, 256], "name": "bn4b6_branch2a/sub"}, {"dtype": "float32", "shape": [1, 1, 1024, 256], "name": "res4b6_branch2a/merged_input"}, {"dtype": "float32", "shape": [1, 1, 1, 1024], "name": "bn4b7_branch2c/sub"}, {"dtype": "float32", "shape": [1, 1, 256, 1024], "name": "res4b7_branch2c/merged_input"}, {"dtype": "float32", "shape": [1, 1, 1, 256], "name": "bn4b7_branch2b/sub"}, {"dtype": "float32", "shape": [3, 3, 256, 256], "name": "res4b7_branch2b/merged_input"}, {"dtype": "float32", "shape": [1, 1, 1, 256], "name": "bn4b7_branch2a/sub"}, {"dtype": "float32", "shape": [1, 1, 1024, 256], "name": "res4b7_branch2a/merged_input"}, {"dtype": "float32", "shape": [1, 1, 1, 1024], "name": "bn4b8_branch2c/sub"}, {"dtype": "float32", "shape": [1, 1, 256, 1024], "name": "res4b8_branch2c/merged_input"}, {"dtype": "float32", "shape": [1, 1, 1, 256], "name": "bn4b8_branch2b/sub"}, {"dtype": "float32", "shape": [3, 3, 256, 256], "name": "res4b8_branch2b/merged_input"}, {"dtype": "float32", "shape": [1, 1, 1, 256], "name": "bn4b8_branch2a/sub"}, {"dtype": "float32", "shape": [1, 1, 1024, 256], "name": "res4b8_branch2a/merged_input"}, {"dtype": "float32", "shape": [1, 1, 1, 1024], "name": "bn4b9_branch2c/sub"}, {"dtype": "float32", "shape": [1, 1, 256, 1024], "name": "res4b9_branch2c/merged_input"}, {"dtype": "float32", "shape": [1, 1, 1, 256], "name": "bn4b9_branch2b/sub"}, {"dtype": "float32", "shape": [3, 3, 256, 256], "name": "res4b9_branch2b/merged_input"}, {"dtype": "float32", "shape": [1, 1, 1, 256], "name": "bn4b9_branch2a/sub"}, {"dtype": "float32", "shape": [1, 1, 1024, 256], "name": "res4b9_branch2a/merged_input"}, {"dtype": "float32", "shape": [1, 1, 1, 1024], "name": "bn4b10_branch2c/sub"}, {"dtype": "float32", "shape": [1, 1, 256, 1024], "name": "res4b10_branch2c/merged_input"}, {"dtype": "float32", "shape": [1, 1, 1, 256], "name": "bn4b10_branch2b/sub"}, {"dtype": "float32", "shape": [3, 3, 256, 256], "name": "res4b10_branch2b/merged_input"}, {"dtype": "float32", "shape": [1, 1, 1, 256], "name": "bn4b10_branch2a/sub"}, {"dtype": "float32", "shape": [1, 1, 1024, 256], "name": "res4b10_branch2a/merged_input"}, {"dtype": "float32", "shape": [1, 1, 1, 1024], "name": "bn4b11_branch2c/sub"}, {"dtype": "float32", "shape": [1, 1, 256, 1024], "name": "res4b11_branch2c/merged_input"}, {"dtype": "float32", "shape": [1, 1, 1, 256], "name": "bn4b11_branch2b/sub"}, {"dtype": "float32", "shape": [3, 3, 256, 256], "name": "res4b11_branch2b/merged_input"}, {"dtype": "float32", "shape": [1, 1, 1, 256], "name": "bn4b11_branch2a/sub"}, {"dtype": "float32", "shape": [1, 1, 1024, 256], "name": "res4b11_branch2a/merged_input"}, {"dtype": "float32", "shape": [1, 1, 1, 1024], "name": "bn4b12_branch2c/sub"}, {"dtype": "float32", "shape": [1, 1, 256, 1024], "name": "res4b12_branch2c/merged_input"}, {"dtype": "float32", "shape": [1, 1, 1, 256], "name": "bn4b12_branch2b/sub"}, {"dtype": "float32", "shape": [3, 3, 256, 256], "name": "res4b12_branch2b/merged_input"}, {"dtype": "float32", "shape": [1, 1, 1, 256], "name": "bn4b12_branch2a/sub"}, {"dtype": "float32", "shape": [1, 1, 1024, 256], "name": "res4b12_branch2a/merged_input"}, {"dtype": "float32", "shape": [1, 1, 1, 1024], "name": "bn4b13_branch2c/sub"}, {"dtype": "float32", "shape": [1, 1, 256, 1024], "name": "res4b13_branch2c/merged_input"}, {"dtype": "float32", "shape": [1, 1, 1, 256], "name": "bn4b13_branch2b/sub"}, {"dtype": "float32", "shape": [3, 3, 256, 256], "name": "res4b13_branch2b/merged_input"}, {"dtype": "float32", "shape": [1, 1, 1, 256], "name": "bn4b13_branch2a/sub"}, {"dtype": "float32", "shape": [1, 1, 1024, 256], "name": "res4b13_branch2a/merged_input"}, {"dtype": "float32", "shape": [1, 1, 1, 1024], "name": "bn4b14_branch2c/sub"}, {"dtype": "float32", "shape": [1, 1, 256, 1024], "name": "res4b14_branch2c/merged_input"}, {"dtype": "float32", "shape": [1, 1, 1, 256], "name": "bn4b14_branch2b/sub"}, {"dtype": "float32", "shape": [3, 3, 256, 256], "name": "res4b14_branch2b/merged_input"}, {"dtype": "float32", "shape": [1, 1, 1, 256], "name": "bn4b14_branch2a/sub"}, {"dtype": "float32", "shape": [1, 1, 1024, 256], "name": "res4b14_branch2a/merged_input"}, {"dtype": "float32", "shape": [1, 1, 1, 1024], "name": "bn4b15_branch2c/sub"}, {"dtype": "float32", "shape": [1, 1, 256, 1024], "name": "res4b15_branch2c/merged_input"}, {"dtype": "float32", "shape": [1, 1, 1, 256], "name": "bn4b15_branch2b/sub"}, {"dtype": "float32", "shape": [3, 3, 256, 256], "name": "res4b15_branch2b/merged_input"}, {"dtype": "float32", "shape": [1, 1, 1, 256], "name": "bn4b15_branch2a/sub"}, {"dtype": "float32", "shape": [1, 1, 1024, 256], "name": "res4b15_branch2a/merged_input"}, {"dtype": "float32", "shape": [1, 1, 1, 1024], "name": "bn4b16_branch2c/sub"}, {"dtype": "float32", "shape": [1, 1, 256, 1024], "name": "res4b16_branch2c/merged_input"}, {"dtype": "float32", "shape": [1, 1, 1, 256], "name": "bn4b16_branch2b/sub"}, {"dtype": "float32", "shape": [3, 3, 256, 256], "name": "res4b16_branch2b/merged_input"}, {"dtype": "float32", "shape": [1, 1, 1, 256], "name": "bn4b16_branch2a/sub"}, {"dtype": "float32", "shape": [1, 1, 1024, 256], "name": "res4b16_branch2a/merged_input"}, {"dtype": "float32", "shape": [1, 1, 1, 1024], "name": "bn4b17_branch2c/sub"}, {"dtype": "float32", "shape": [1, 1, 256, 1024], "name": "res4b17_branch2c/merged_input"}, {"dtype": "float32", "shape": [1, 1, 1, 256], "name": "bn4b17_branch2b/sub"}, {"dtype": "float32", "shape": [3, 3, 256, 256], "name": "res4b17_branch2b/merged_input"}, {"dtype": "float32", "shape": [1, 1, 1, 256], "name": "bn4b17_branch2a/sub"}, {"dtype": "float32", "shape": [1, 1, 1024, 256], "name": "res4b17_branch2a/merged_input"}, {"dtype": "float32", "shape": [1, 1, 1, 1024], "name": "bn4b18_branch2c/sub"}, {"dtype": "float32", "shape": [1, 1, 256, 1024], "name": "res4b18_branch2c/merged_input"}, {"dtype": "float32", "shape": [1, 1, 1, 256], "name": "bn4b18_branch2b/sub"}, {"dtype": "float32", "shape": [3, 3, 256, 256], "name": "res4b18_branch2b/merged_input"}, {"dtype": "float32", "shape": [1, 1, 1, 256], "name": "bn4b18_branch2a/sub"}, {"dtype": "float32", "shape": [1, 1, 1024, 256], "name": "res4b18_branch2a/merged_input"}, {"dtype": "float32", "shape": [1, 1, 1, 1024], "name": "bn4b19_branch2c/sub"}, {"dtype": "float32", "shape": [1, 1, 256, 1024], "name": "res4b19_branch2c/merged_input"}, {"dtype": "float32", "shape": [1, 1, 1, 256], "name": "bn4b19_branch2b/sub"}, {"dtype": "float32", "shape": [3, 3, 256, 256], "name": "res4b19_branch2b/merged_input"}, {"dtype": "float32", "shape": [1, 1, 1, 256], "name": "bn4b19_branch2a/sub"}, {"dtype": "float32", "shape": [1, 1, 1024, 256], "name": "res4b19_branch2a/merged_input"}, {"dtype": "float32", "shape": [1, 1, 1, 1024], "name": "bn4b20_branch2c/sub"}, {"dtype": "float32", "shape": [1, 1, 256, 1024], "name": "res4b20_branch2c/merged_input"}, {"dtype": "float32", "shape": [1, 1, 1, 256], "name": "bn4b20_branch2b/sub"}, {"dtype": "float32", "shape": [3, 3, 256, 256], "name": "res4b20_branch2b/merged_input"}, {"dtype": "float32", "shape": [1, 1, 1, 256], "name": "bn4b20_branch2a/sub"}, {"dtype": "float32", "shape": [1, 1, 1024, 256], "name": "res4b20_branch2a/merged_input"}, {"dtype": "float32", "shape": [1, 1, 1, 1024], "name": "bn4b21_branch2c/sub"}, {"dtype": "float32", "shape": [1, 1, 256, 1024], "name": "res4b21_branch2c/merged_input"}, {"dtype": "float32", "shape": [1, 1, 1, 256], "name": "bn4b21_branch2b/sub"}, {"dtype": "float32", "shape": [3, 3, 256, 256], "name": "res4b21_branch2b/merged_input"}, {"dtype": "float32", "shape": [1, 1, 1, 256], "name": "bn4b21_branch2a/sub"}, {"dtype": "float32", "shape": [1, 1, 1024, 256], "name": "res4b21_branch2a/merged_input"}, {"dtype": "float32", "shape": [1, 1, 1, 1024], "name": "bn4b22_branch2c/sub"}, {"dtype": "float32", "shape": [1, 1, 256, 1024], "name": "res4b22_branch2c/merged_input"}, {"dtype": "float32", "shape": [1, 1, 1, 256], "name": "bn4b22_branch2b/sub"}, {"dtype": "float32", "shape": [3, 3, 256, 256], "name": "res4b22_branch2b/merged_input"}, {"dtype": "float32", "shape": [1, 1, 1, 256], "name": "bn4b22_branch2a/sub"}, {"dtype": "float32", "shape": [1, 1, 1024, 256], "name": "res4b22_branch2a/merged_input"}, {"dtype": "float32", "shape": [1, 1, 1, 1024], "name": "bn4b23_branch2c/sub"}, {"dtype": "float32", "shape": [1, 1, 256, 1024], "name": "res4b23_branch2c/merged_input"}, {"dtype": "float32", "shape": [1, 1, 1, 256], "name": "bn4b23_branch2b/sub"}, {"dtype": "float32", "shape": [3, 3, 256, 256], "name": "res4b23_branch2b/merged_input"}, {"dtype": "float32", "shape": [1, 1, 1, 256], "name": "bn4b23_branch2a/sub"}, {"dtype": "float32", "shape": [1, 1, 1024, 256], "name": "res4b23_branch2a/merged_input"}, {"dtype": "float32", "shape": [1, 1, 1, 1024], "name": "bn4b24_branch2c/sub"}, {"dtype": "float32", "shape": [1, 1, 256, 1024], "name": "res4b24_branch2c/merged_input"}, {"dtype": "float32", "shape": [1, 1, 1, 256], "name": "bn4b24_branch2b/sub"}, {"dtype": "float32", "shape": [3, 3, 256, 256], "name": "res4b24_branch2b/merged_input"}, {"dtype": "float32", "shape": [1, 1, 1, 256], "name": "bn4b24_branch2a/sub"}, {"dtype": "float32", "shape": [1, 1, 1024, 256], "name": "res4b24_branch2a/merged_input"}, {"dtype": "float32", "shape": [1, 1, 1, 1024], "name": "bn4b25_branch2c/sub"}, {"dtype": "float32", "shape": [1, 1, 256, 1024], "name": "res4b25_branch2c/merged_input"}, {"dtype": "float32", "shape": [1, 1, 1, 256], "name": "bn4b25_branch2b/sub"}, {"dtype": "float32", "shape": [3, 3, 256, 256], "name": "res4b25_branch2b/merged_input"}, {"dtype": "float32", "shape": [1, 1, 1, 256], "name": "bn4b25_branch2a/sub"}, {"dtype": "float32", "shape": [1, 1, 1024, 256], "name": "res4b25_branch2a/merged_input"}, {"dtype": "float32", "shape": [1, 1, 1, 1024], "name": "bn4b26_branch2c/sub"}, {"dtype": "float32", "shape": [1, 1, 256, 1024], "name": "res4b26_branch2c/merged_input"}, {"dtype": "float32", "shape": [1, 1, 1, 256], "name": "bn4b26_branch2b/sub"}, {"dtype": "float32", "shape": [3, 3, 256, 256], "name": "res4b26_branch2b/merged_input"}, {"dtype": "float32", "shape": [1, 1, 1, 256], "name": "bn4b26_branch2a/sub"}, {"dtype": "float32", "shape": [1, 1, 1024, 256], "name": "res4b26_branch2a/merged_input"}, {"dtype": "float32", "shape": [1, 1, 1, 1024], "name": "bn4b27_branch2c/sub"}, {"dtype": "float32", "shape": [1, 1, 256, 1024], "name": "res4b27_branch2c/merged_input"}, {"dtype": "float32", "shape": [1, 1, 1, 256], "name": "bn4b27_branch2b/sub"}, {"dtype": "float32", "shape": [3, 3, 256, 256], "name": "res4b27_branch2b/merged_input"}, {"dtype": "float32", "shape": [1, 1, 1, 256], "name": "bn4b27_branch2a/sub"}, {"dtype": "float32", "shape": [1, 1, 1024, 256], "name": "res4b27_branch2a/merged_input"}, {"dtype": "float32", "shape": [1, 1, 1, 1024], "name": "bn4b28_branch2c/sub"}, {"dtype": "float32", "shape": [1, 1, 256, 1024], "name": "res4b28_branch2c/merged_input"}, {"dtype": "float32", "shape": [1, 1, 1, 256], "name": "bn4b28_branch2b/sub"}, {"dtype": "float32", "shape": [3, 3, 256, 256], "name": "res4b28_branch2b/merged_input"}, {"dtype": "float32", "shape": [1, 1, 1, 256], "name": "bn4b28_branch2a/sub"}, {"dtype": "float32", "shape": [1, 1, 1024, 256], "name": "res4b28_branch2a/merged_input"}, {"dtype": "float32", "shape": [1, 1, 1, 1024], "name": "bn4b29_branch2c/sub"}, {"dtype": "float32", "shape": [1, 1, 256, 1024], "name": "res4b29_branch2c/merged_input"}, {"dtype": "float32", "shape": [1, 1, 1, 256], "name": "bn4b29_branch2b/sub"}, {"dtype": "float32", "shape": [3, 3, 256, 256], "name": "res4b29_branch2b/merged_input"}, {"dtype": "float32", "shape": [1, 1, 1, 256], "name": "bn4b29_branch2a/sub"}, {"dtype": "float32", "shape": [1, 1, 1024, 256], "name": "res4b29_branch2a/merged_input"}, {"dtype": "float32", "shape": [1, 1, 1, 1024], "name": "bn4b30_branch2c/sub"}, {"dtype": "float32", "shape": [1, 1, 256, 1024], "name": "res4b30_branch2c/merged_input"}, {"dtype": "float32", "shape": [1, 1, 1, 256], "name": "bn4b30_branch2b/sub"}, {"dtype": "float32", "shape": [3, 3, 256, 256], "name": "res4b30_branch2b/merged_input"}, {"dtype": "float32", "shape": [1, 1, 1, 256], "name": "bn4b30_branch2a/sub"}, {"dtype": "float32", "shape": [1, 1, 1024, 256], "name": "res4b30_branch2a/merged_input"}, {"dtype": "float32", "shape": [1, 1, 1, 1024], "name": "bn4b31_branch2c/sub"}, {"dtype": "float32", "shape": [1, 1, 256, 1024], "name": "res4b31_branch2c/merged_input"}, {"dtype": "float32", "shape": [1, 1, 1, 256], "name": "bn4b31_branch2b/sub"}, {"dtype": "float32", "shape": [3, 3, 256, 256], "name": "res4b31_branch2b/merged_input"}, {"dtype": "float32", "shape": [1, 1, 1, 256], "name": "bn4b31_branch2a/sub"}, {"dtype": "float32", "shape": [1, 1, 1024, 256], "name": "res4b31_branch2a/merged_input"}, {"dtype": "float32", "shape": [1, 1, 1, 1024], "name": "bn4b32_branch2c/sub"}, {"dtype": "float32", "shape": [1, 1, 256, 1024], "name": "res4b32_branch2c/merged_input"}, {"dtype": "float32", "shape": [1, 1, 1, 256], "name": "bn4b32_branch2b/sub"}, {"dtype": "float32", "shape": [3, 3, 256, 256], "name": "res4b32_branch2b/merged_input"}, {"dtype": "float32", "shape": [1, 1, 1, 256], "name": "bn4b32_branch2a/sub"}, {"dtype": "float32", "shape": [1, 1, 1024, 256], "name": "res4b32_branch2a/merged_input"}, {"dtype": "float32", "shape": [1, 1, 1, 1024], "name": "bn4b33_branch2c/sub"}, {"dtype": "float32", "shape": [1, 1, 256, 1024], "name": "res4b33_branch2c/merged_input"}, {"dtype": "float32", "shape": [1, 1, 1, 256], "name": "bn4b33_branch2b/sub"}, {"dtype": "float32", "shape": [3, 3, 256, 256], "name": "res4b33_branch2b/merged_input"}, {"dtype": "float32", "shape": [1, 1, 1, 256], "name": "bn4b33_branch2a/sub"}, {"dtype": "float32", "shape": [1, 1, 1024, 256], "name": "res4b33_branch2a/merged_input"}, {"dtype": "float32", "shape": [1, 1, 1, 1024], "name": "bn4b34_branch2c/sub"}, {"dtype": "float32", "shape": [1, 1, 256, 1024], "name": "res4b34_branch2c/merged_input"}, {"dtype": "float32", "shape": [1, 1, 1, 256], "name": "bn4b34_branch2b/sub"}, {"dtype": "float32", "shape": [3, 3, 256, 256], "name": "res4b34_branch2b/merged_input"}, {"dtype": "float32", "shape": [1, 1, 1, 256], "name": "bn4b34_branch2a/sub"}, {"dtype": "float32", "shape": [1, 1, 1024, 256], "name": "res4b34_branch2a/merged_input"}, {"dtype": "float32", "shape": [1, 1, 1, 1024], "name": "bn4b35_branch2c/sub"}, {"dtype": "float32", "shape": [1, 1, 256, 1024], "name": "res4b35_branch2c/merged_input"}, {"dtype": "float32", "shape": [1, 1, 1, 256], "name": "bn4b35_branch2b/sub"}, {"dtype": "float32", "shape": [3, 3, 256, 256], "name": "res4b35_branch2b/merged_input"}, {"dtype": "float32", "shape": [1, 1, 1, 256], "name": "bn4b35_branch2a/sub"}, {"dtype": "float32", "shape": [1, 1, 1024, 256], "name": "res4b35_branch2a/merged_input"}, {"dtype": "float32", "shape": [1, 1, 1, 2048], "name": "bn5a_branch1/sub"}, {"dtype": "float32", "shape": [1, 1, 1024, 2048], "name": "res5a_branch1/merged_input"}, {"dtype": "float32", "shape": [1, 1, 1, 2048], "name": "bn5b_branch2c/sub"}, {"dtype": "float32", "shape": [1, 1, 512, 2048], "name": "res5b_branch2c/merged_input"}, {"dtype": "float32", "shape": [1, 1, 1, 512], "name": "bn5b_branch2b/sub"}, {"dtype": "float32", "shape": [3, 3, 512, 512], "name": "res5b_branch2b/merged_input"}, {"dtype": "float32", "shape": [1, 1, 1, 512], "name": "bn5b_branch2a/sub"}, {"dtype": "float32", "shape": [1, 1, 2048, 512], "name": "res5b_branch2a/merged_input"}, {"dtype": "float32", "shape": [1, 1, 1, 2048], "name": "bn5c_branch2c/sub"}, {"dtype": "float32", "shape": [1, 1, 512, 2048], "name": "res5c_branch2c/merged_input"}, {"dtype": "float32", "shape": [1, 1, 1, 512], "name": "bn5c_branch2b/sub"}, {"dtype": "float32", "shape": [3, 3, 512, 512], "name": "res5c_branch2b/merged_input"}, {"dtype": "float32", "shape": [1, 1, 1, 512], "name": "bn5c_branch2a/sub"}, {"dtype": "float32", "shape": [1, 1, 2048, 512], "name": "res5c_branch2a/merged_input"}]}], "modelTopology": {"node": [{"attr": {"dtype": {"type": "DT_FLOAT"}, "value": {"tensor": {"dtype": "DT_FLOAT", "tensorShape": {"dim": [{"size": "365"}]}}}}, "name": "dense/bias", "op": "Const"}, {"attr": {"dtype": {"type": "DT_FLOAT"}, "value": {"tensor": {"dtype": "DT_FLOAT", "tensorShape": {"dim": [{"size": "2048"}, {"size": "365"}]}}}}, "name": "dense/kernel", "op": "Const"}, {"attr": {"dtype": {"type": "DT_INT32"}, "value": {"tensor": {"dtype": "DT_INT32", "tensorShape": {}}}}, "name": "Flatten/flatten/Reshape/shape/1", "op": "Const"}, {"attr": {"dtype": {"type": "DT_INT32"}, "value": {"tensor": {"dtype": "DT_INT32", "tensorShape": {"dim": [{"size": "1"}]}}}}, "name": "Flatten/flatten/strided_slice/stack_1", "op": "Const"}, {"attr": {"dtype": {"type": "DT_INT32"}, "value": {"tensor": {"dtype": "DT_INT32", "tensorShape": {"dim": [{"size": "1"}]}}}}, "name": "Flatten/flatten/strided_slice/stack", "op": "Const"}, {"attr": {"dtype": {"type": "DT_FLOAT"}, "value": {"tensor": {"dtype": "DT_FLOAT", "tensorShape": {"dim": [{"size": "1"}, {"size": "1"}, {"size": "1"}, {"size": "2048"}]}}}}, "name": "bn5a_branch2c/sub", "op": "Const"}, {"attr": {"dtype": {"type": "DT_FLOAT"}, "value": {"tensor": {"dtype": "DT_FLOAT", "tensorShape": {"dim": [{"size": "1"}, {"size": "1"}, {"size": "512"}, {"size": "2048"}]}}}}, "name": "res5a_branch2c/merged_input", "op": "Const"}, {"attr": {"dtype": {"type": "DT_FLOAT"}, "value": {"tensor": {"dtype": "DT_FLOAT", "tensorShape": {"dim": [{"size": "1"}, {"size": "1"}, {"size": "1"}, {"size": "512"}]}}}}, "name": "bn5a_branch2b/sub", "op": "Const"}, {"attr": {"dtype": {"type": "DT_FLOAT"}, "value": {"tensor": {"dtype": "DT_FLOAT", "tensorShape": {"dim": [{"size": "3"}, {"size": "3"}, {"size": "512"}, {"size": "512"}]}}}}, "name": "res5a_branch2b/merged_input", "op": "Const"}, {"attr": {"dtype": {"type": "DT_INT32"}, "value": {"tensor": {"dtype": "DT_INT32", "tensorShape": {"dim": [{"size": "4"}, {"size": "2"}]}}}}, "name": "Pad_1/paddings", "op": "Const"}, {"attr": {"dtype": {"type": "DT_FLOAT"}, "value": {"tensor": {"dtype": "DT_FLOAT", "tensorShape": {"dim": [{"size": "1"}, {"size": "1"}, {"size": "1"}, {"size": "512"}]}}}}, "name": "bn5a_branch2a/sub", "op": "Const"}, {"attr": {"dtype": {"type": "DT_FLOAT"}, "value": {"tensor": {"dtype": "DT_FLOAT", "tensorShape": {"dim": [{"size": "1"}, {"size": "1"}, {"size": "1024"}, {"size": "512"}]}}}}, "name": "res5a_branch2a/merged_input", "op": "Const"}, {"attr": {"dtype": {"type": "DT_FLOAT"}, "value": {"tensor": {"dtype": "DT_FLOAT", "tensorShape": {"dim": [{"size": "1"}, {"size": "1"}, {"size": "1"}, {"size": "1024"}]}}}}, "name": "bn4a_branch2c/sub", "op": "Const"}, {"attr": {"dtype": {"type": "DT_FLOAT"}, "value": {"tensor": {"dtype": "DT_FLOAT", "tensorShape": {"dim": [{"size": "1"}, {"size": "1"}, {"size": "256"}, {"size": "1024"}]}}}}, "name": "res4a_branch2c/merged_input", "op": "Const"}, {"attr": {"dtype": {"type": "DT_FLOAT"}, "value": {"tensor": {"dtype": "DT_FLOAT", "tensorShape": {"dim": [{"size": "1"}, {"size": "1"}, {"size": "1"}, {"size": "256"}]}}}}, "name": "bn4a_branch2b/sub", "op": "Const"}, {"attr": {"dtype": {"type": "DT_FLOAT"}, "value": {"tensor": {"dtype": "DT_FLOAT", "tensorShape": {"dim": [{"size": "3"}, {"size": "3"}, {"size": "256"}, {"size": "256"}]}}}}, "name": "res4a_branch2b/merged_input", "op": "Const"}, {"attr": {"dtype": {"type": "DT_FLOAT"}, "value": {"tensor": {"dtype": "DT_FLOAT", "tensorShape": {"dim": [{"size": "1"}, {"size": "1"}, {"size": "1"}, {"size": "256"}]}}}}, "name": "bn4a_branch2a/sub", "op": "Const"}, {"attr": {"dtype": {"type": "DT_FLOAT"}, "value": {"tensor": {"dtype": "DT_FLOAT", "tensorShape": {"dim": [{"size": "1"}, {"size": "1"}, {"size": "512"}, {"size": "256"}]}}}}, "name": "res4a_branch2a/merged_input", "op": "Const"}, {"attr": {"dtype": {"type": "DT_FLOAT"}, "value": {"tensor": {"dtype": "DT_FLOAT", "tensorShape": {"dim": [{"size": "1"}, {"size": "1"}, {"size": "1"}, {"size": "512"}]}}}}, "name": "bn3a_branch2c/sub", "op": "Const"}, {"attr": {"dtype": {"type": "DT_FLOAT"}, "value": {"tensor": {"dtype": "DT_FLOAT", "tensorShape": {"dim": [{"size": "1"}, {"size": "1"}, {"size": "128"}, {"size": "512"}]}}}}, "name": "res3a_branch2c/merged_input", "op": "Const"}, {"attr": {"dtype": {"type": "DT_FLOAT"}, "value": {"tensor": {"dtype": "DT_FLOAT", "tensorShape": {"dim": [{"size": "1"}, {"size": "1"}, {"size": "1"}, {"size": "128"}]}}}}, "name": "bn3a_branch2b/sub", "op": "Const"}, {"attr": {"dtype": {"type": "DT_FLOAT"}, "value": {"tensor": {"dtype": "DT_FLOAT", "tensorShape": {"dim": [{"size": "3"}, {"size": "3"}, {"size": "128"}, {"size": "128"}]}}}}, "name": "res3a_branch2b/merged_input", "op": "Const"}, {"attr": {"dtype": {"type": "DT_FLOAT"}, "value": {"tensor": {"dtype": "DT_FLOAT", "tensorShape": {"dim": [{"size": "1"}, {"size": "1"}, {"size": "1"}, {"size": "128"}]}}}}, "name": "bn3a_branch2a/sub", "op": "Const"}, {"attr": {"dtype": {"type": "DT_FLOAT"}, "value": {"tensor": {"dtype": "DT_FLOAT", "tensorShape": {"dim": [{"size": "1"}, {"size": "1"}, {"size": "256"}, {"size": "128"}]}}}}, "name": "res3a_branch2a/merged_input", "op": "Const"}, {"attr": {"dtype": {"type": "DT_FLOAT"}, "value": {"tensor": {"dtype": "DT_FLOAT", "tensorShape": {"dim": [{"size": "1"}, {"size": "1"}, {"size": "1"}, {"size": "256"}]}}}}, "name": "bn2a_branch2c/sub", "op": "Const"}, {"attr": {"dtype": {"type": "DT_FLOAT"}, "value": {"tensor": {"dtype": "DT_FLOAT", "tensorShape": {"dim": [{"size": "1"}, {"size": "1"}, {"size": "64"}, {"size": "256"}]}}}}, "name": "res2a_branch2c/merged_input", "op": "Const"}, {"attr": {"dtype": {"type": "DT_FLOAT"}, "value": {"tensor": {"dtype": "DT_FLOAT", "tensorShape": {"dim": [{"size": "1"}, {"size": "1"}, {"size": "1"}, {"size": "64"}]}}}}, "name": "bn2a_branch2b/sub", "op": "Const"}, {"attr": {"dtype": {"type": "DT_FLOAT"}, "value": {"tensor": {"dtype": "DT_FLOAT", "tensorShape": {"dim": [{"size": "3"}, {"size": "3"}, {"size": "64"}, {"size": "64"}]}}}}, "name": "res2a_branch2b/merged_input", "op": "Const"}, {"attr": {"dtype": {"type": "DT_FLOAT"}, "value": {"tensor": {"dtype": "DT_FLOAT", "tensorShape": {"dim": [{"size": "1"}, {"size": "1"}, {"size": "1"}, {"size": "64"}]}}}}, "name": "bn2a_branch2a/sub", "op": "Const"}, {"attr": {"dtype": {"type": "DT_FLOAT"}, "value": {"tensor": {"dtype": "DT_FLOAT", "tensorShape": {"dim": [{"size": "1"}, {"size": "1"}, {"size": "64"}, {"size": "64"}]}}}}, "name": "res2a_branch2a/merged_input", "op": "Const"}, {"attr": {"dtype": {"type": "DT_FLOAT"}, "value": {"tensor": {"dtype": "DT_FLOAT", "tensorShape": {}}}}, "name": "PadV2/constant_values", "op": "Const"}, {"attr": {"dtype": {"type": "DT_INT32"}, "value": {"tensor": {"dtype": "DT_INT32", "tensorShape": {"dim": [{"size": "4"}, {"size": "2"}]}}}}, "name": "PadV2/paddings", "op": "Const"}, {"attr": {"dtype": {"type": "DT_FLOAT"}, "value": {"tensor": {"dtype": "DT_FLOAT", "tensorShape": {"dim": [{"size": "1"}, {"size": "1"}, {"size": "1"}, {"size": "64"}]}}}}, "name": "bn_conv1/sub", "op": "Const"}, {"attr": {"dtype": {"type": "DT_FLOAT"}, "value": {"tensor": {"dtype": "DT_FLOAT", "tensorShape": {"dim": [{"size": "7"}, {"size": "7"}, {"size": "3"}, {"size": "64"}]}}}}, "name": "conv1/merged_input", "op": "Const"}, {"attr": {"dtype": {"type": "DT_INT32"}, "value": {"tensor": {"dtype": "DT_INT32", "tensorShape": {"dim": [{"size": "4"}, {"size": "2"}]}}}}, "name": "Pad/paddings", "op": "Const"}, {"attr": {"dtype": {"type": "DT_FLOAT"}, "shape": {"shape": {"dim": [{"size": "-1"}, {"size": "224"}, {"size": "224"}, {"size": "3"}]}}}, "name": "data", "op": "Placeholder"}, {"attr": {"dtype": {"type": "DT_FLOAT"}, "value": {"tensor": {"dtype": "DT_FLOAT", "tensorShape": {"dim": [{"size": "1"}, {"size": "1"}, {"size": "1"}, {"size": "256"}]}}}}, "name": "bn2a_branch1/sub", "op": "Const"}, {"attr": {"dtype": {"type": "DT_FLOAT"}, "value": {"tensor": {"dtype": "DT_FLOAT", "tensorShape": {"dim": [{"size": "1"}, {"size": "1"}, {"size": "64"}, {"size": "256"}]}}}}, "name": "res2a_branch1/merged_input", "op": "Const"}, {"attr": {"dtype": {"type": "DT_FLOAT"}, "value": {"tensor": {"dtype": "DT_FLOAT", "tensorShape": {"dim": [{"size": "1"}, {"size": "1"}, {"size": "1"}, {"size": "256"}]}}}}, "name": "bn2b_branch2c/sub", "op": "Const"}, {"attr": {"dtype": {"type": "DT_FLOAT"}, "value": {"tensor": {"dtype": "DT_FLOAT", "tensorShape": {"dim": [{"size": "1"}, {"size": "1"}, {"size": "64"}, {"size": "256"}]}}}}, "name": "res2b_branch2c/merged_input", "op": "Const"}, {"attr": {"dtype": {"type": "DT_FLOAT"}, "value": {"tensor": {"dtype": "DT_FLOAT", "tensorShape": {"dim": [{"size": "1"}, {"size": "1"}, {"size": "1"}, {"size": "64"}]}}}}, "name": "bn2b_branch2b/sub", "op": "Const"}, {"attr": {"dtype": {"type": "DT_FLOAT"}, "value": {"tensor": {"dtype": "DT_FLOAT", "tensorShape": {"dim": [{"size": "3"}, {"size": "3"}, {"size": "64"}, {"size": "64"}]}}}}, "name": "res2b_branch2b/merged_input", "op": "Const"}, {"attr": {"dtype": {"type": "DT_FLOAT"}, "value": {"tensor": {"dtype": "DT_FLOAT", "tensorShape": {"dim": [{"size": "1"}, {"size": "1"}, {"size": "1"}, {"size": "64"}]}}}}, "name": "bn2b_branch2a/sub", "op": "Const"}, {"attr": {"dtype": {"type": "DT_FLOAT"}, "value": {"tensor": {"dtype": "DT_FLOAT", "tensorShape": {"dim": [{"size": "1"}, {"size": "1"}, {"size": "256"}, {"size": "64"}]}}}}, "name": "res2b_branch2a/merged_input", "op": "Const"}, {"attr": {"dtype": {"type": "DT_FLOAT"}, "value": {"tensor": {"dtype": "DT_FLOAT", "tensorShape": {"dim": [{"size": "1"}, {"size": "1"}, {"size": "1"}, {"size": "256"}]}}}}, "name": "bn2c_branch2c/sub", "op": "Const"}, {"attr": {"dtype": {"type": "DT_FLOAT"}, "value": {"tensor": {"dtype": "DT_FLOAT", "tensorShape": {"dim": [{"size": "1"}, {"size": "1"}, {"size": "64"}, {"size": "256"}]}}}}, "name": "res2c_branch2c/merged_input", "op": "Const"}, {"attr": {"dtype": {"type": "DT_FLOAT"}, "value": {"tensor": {"dtype": "DT_FLOAT", "tensorShape": {"dim": [{"size": "1"}, {"size": "1"}, {"size": "1"}, {"size": "64"}]}}}}, "name": "bn2c_branch2b/sub", "op": "Const"}, {"attr": {"dtype": {"type": "DT_FLOAT"}, "value": {"tensor": {"dtype": "DT_FLOAT", "tensorShape": {"dim": [{"size": "3"}, {"size": "3"}, {"size": "64"}, {"size": "64"}]}}}}, "name": "res2c_branch2b/merged_input", "op": "Const"}, {"attr": {"dtype": {"type": "DT_FLOAT"}, "value": {"tensor": {"dtype": "DT_FLOAT", "tensorShape": {"dim": [{"size": "1"}, {"size": "1"}, {"size": "1"}, {"size": "64"}]}}}}, "name": "bn2c_branch2a/sub", "op": "Const"}, {"attr": {"dtype": {"type": "DT_FLOAT"}, "value": {"tensor": {"dtype": "DT_FLOAT", "tensorShape": {"dim": [{"size": "1"}, {"size": "1"}, {"size": "256"}, {"size": "64"}]}}}}, "name": "res2c_branch2a/merged_input", "op": "Const"}, {"attr": {"dtype": {"type": "DT_FLOAT"}, "value": {"tensor": {"dtype": "DT_FLOAT", "tensorShape": {"dim": [{"size": "1"}, {"size": "1"}, {"size": "1"}, {"size": "512"}]}}}}, "name": "bn3a_branch1/sub", "op": "Const"}, {"attr": {"dtype": {"type": "DT_FLOAT"}, "value": {"tensor": {"dtype": "DT_FLOAT", "tensorShape": {"dim": [{"size": "1"}, {"size": "1"}, {"size": "256"}, {"size": "512"}]}}}}, "name": "res3a_branch1/merged_input", "op": "Const"}, {"attr": {"dtype": {"type": "DT_FLOAT"}, "value": {"tensor": {"dtype": "DT_FLOAT", "tensorShape": {"dim": [{"size": "1"}, {"size": "1"}, {"size": "1"}, {"size": "512"}]}}}}, "name": "bn3b1_branch2c/sub", "op": "Const"}, {"attr": {"dtype": {"type": "DT_FLOAT"}, "value": {"tensor": {"dtype": "DT_FLOAT", "tensorShape": {"dim": [{"size": "1"}, {"size": "1"}, {"size": "128"}, {"size": "512"}]}}}}, "name": "res3b1_branch2c/merged_input", "op": "Const"}, {"attr": {"dtype": {"type": "DT_FLOAT"}, "value": {"tensor": {"dtype": "DT_FLOAT", "tensorShape": {"dim": [{"size": "1"}, {"size": "1"}, {"size": "1"}, {"size": "128"}]}}}}, "name": "bn3b1_branch2b/sub", "op": "Const"}, {"attr": {"dtype": {"type": "DT_FLOAT"}, "value": {"tensor": {"dtype": "DT_FLOAT", "tensorShape": {"dim": [{"size": "3"}, {"size": "3"}, {"size": "128"}, {"size": "128"}]}}}}, "name": "res3b1_branch2b/merged_input", "op": "Const"}, {"attr": {"dtype": {"type": "DT_FLOAT"}, "value": {"tensor": {"dtype": "DT_FLOAT", "tensorShape": {"dim": [{"size": "1"}, {"size": "1"}, {"size": "1"}, {"size": "128"}]}}}}, "name": "bn3b1_branch2a/sub", "op": "Const"}, {"attr": {"dtype": {"type": "DT_FLOAT"}, "value": {"tensor": {"dtype": "DT_FLOAT", "tensorShape": {"dim": [{"size": "1"}, {"size": "1"}, {"size": "512"}, {"size": "128"}]}}}}, "name": "res3b1_branch2a/merged_input", "op": "Const"}, {"attr": {"dtype": {"type": "DT_FLOAT"}, "value": {"tensor": {"dtype": "DT_FLOAT", "tensorShape": {"dim": [{"size": "1"}, {"size": "1"}, {"size": "1"}, {"size": "512"}]}}}}, "name": "bn3b2_branch2c/sub", "op": "Const"}, {"attr": {"dtype": {"type": "DT_FLOAT"}, "value": {"tensor": {"dtype": "DT_FLOAT", "tensorShape": {"dim": [{"size": "1"}, {"size": "1"}, {"size": "128"}, {"size": "512"}]}}}}, "name": "res3b2_branch2c/merged_input", "op": "Const"}, {"attr": {"dtype": {"type": "DT_FLOAT"}, "value": {"tensor": {"dtype": "DT_FLOAT", "tensorShape": {"dim": [{"size": "1"}, {"size": "1"}, {"size": "1"}, {"size": "128"}]}}}}, "name": "bn3b2_branch2b/sub", "op": "Const"}, {"attr": {"dtype": {"type": "DT_FLOAT"}, "value": {"tensor": {"dtype": "DT_FLOAT", "tensorShape": {"dim": [{"size": "3"}, {"size": "3"}, {"size": "128"}, {"size": "128"}]}}}}, "name": "res3b2_branch2b/merged_input", "op": "Const"}, {"attr": {"dtype": {"type": "DT_FLOAT"}, "value": {"tensor": {"dtype": "DT_FLOAT", "tensorShape": {"dim": [{"size": "1"}, {"size": "1"}, {"size": "1"}, {"size": "128"}]}}}}, "name": "bn3b2_branch2a/sub", "op": "Const"}, {"attr": {"dtype": {"type": "DT_FLOAT"}, "value": {"tensor": {"dtype": "DT_FLOAT", "tensorShape": {"dim": [{"size": "1"}, {"size": "1"}, {"size": "512"}, {"size": "128"}]}}}}, "name": "res3b2_branch2a/merged_input", "op": "Const"}, {"attr": {"dtype": {"type": "DT_FLOAT"}, "value": {"tensor": {"dtype": "DT_FLOAT", "tensorShape": {"dim": [{"size": "1"}, {"size": "1"}, {"size": "1"}, {"size": "512"}]}}}}, "name": "bn3b3_branch2c/sub", "op": "Const"}, {"attr": {"dtype": {"type": "DT_FLOAT"}, "value": {"tensor": {"dtype": "DT_FLOAT", "tensorShape": {"dim": [{"size": "1"}, {"size": "1"}, {"size": "128"}, {"size": "512"}]}}}}, "name": "res3b3_branch2c/merged_input", "op": "Const"}, {"attr": {"dtype": {"type": "DT_FLOAT"}, "value": {"tensor": {"dtype": "DT_FLOAT", "tensorShape": {"dim": [{"size": "1"}, {"size": "1"}, {"size": "1"}, {"size": "128"}]}}}}, "name": "bn3b3_branch2b/sub", "op": "Const"}, {"attr": {"dtype": {"type": "DT_FLOAT"}, "value": {"tensor": {"dtype": "DT_FLOAT", "tensorShape": {"dim": [{"size": "3"}, {"size": "3"}, {"size": "128"}, {"size": "128"}]}}}}, "name": "res3b3_branch2b/merged_input", "op": "Const"}, {"attr": {"dtype": {"type": "DT_FLOAT"}, "value": {"tensor": {"dtype": "DT_FLOAT", "tensorShape": {"dim": [{"size": "1"}, {"size": "1"}, {"size": "1"}, {"size": "128"}]}}}}, "name": "bn3b3_branch2a/sub", "op": "Const"}, {"attr": {"dtype": {"type": "DT_FLOAT"}, "value": {"tensor": {"dtype": "DT_FLOAT", "tensorShape": {"dim": [{"size": "1"}, {"size": "1"}, {"size": "512"}, {"size": "128"}]}}}}, "name": "res3b3_branch2a/merged_input", "op": "Const"}, {"attr": {"dtype": {"type": "DT_FLOAT"}, "value": {"tensor": {"dtype": "DT_FLOAT", "tensorShape": {"dim": [{"size": "1"}, {"size": "1"}, {"size": "1"}, {"size": "512"}]}}}}, "name": "bn3b4_branch2c/sub", "op": "Const"}, {"attr": {"dtype": {"type": "DT_FLOAT"}, "value": {"tensor": {"dtype": "DT_FLOAT", "tensorShape": {"dim": [{"size": "1"}, {"size": "1"}, {"size": "128"}, {"size": "512"}]}}}}, "name": "res3b4_branch2c/merged_input", "op": "Const"}, {"attr": {"dtype": {"type": "DT_FLOAT"}, "value": {"tensor": {"dtype": "DT_FLOAT", "tensorShape": {"dim": [{"size": "1"}, {"size": "1"}, {"size": "1"}, {"size": "128"}]}}}}, "name": "bn3b4_branch2b/sub", "op": "Const"}, {"attr": {"dtype": {"type": "DT_FLOAT"}, "value": {"tensor": {"dtype": "DT_FLOAT", "tensorShape": {"dim": [{"size": "3"}, {"size": "3"}, {"size": "128"}, {"size": "128"}]}}}}, "name": "res3b4_branch2b/merged_input", "op": "Const"}, {"attr": {"dtype": {"type": "DT_FLOAT"}, "value": {"tensor": {"dtype": "DT_FLOAT", "tensorShape": {"dim": [{"size": "1"}, {"size": "1"}, {"size": "1"}, {"size": "128"}]}}}}, "name": "bn3b4_branch2a/sub", "op": "Const"}, {"attr": {"dtype": {"type": "DT_FLOAT"}, "value": {"tensor": {"dtype": "DT_FLOAT", "tensorShape": {"dim": [{"size": "1"}, {"size": "1"}, {"size": "512"}, {"size": "128"}]}}}}, "name": "res3b4_branch2a/merged_input", "op": "Const"}, {"attr": {"dtype": {"type": "DT_FLOAT"}, "value": {"tensor": {"dtype": "DT_FLOAT", "tensorShape": {"dim": [{"size": "1"}, {"size": "1"}, {"size": "1"}, {"size": "512"}]}}}}, "name": "bn3b5_branch2c/sub", "op": "Const"}, {"attr": {"dtype": {"type": "DT_FLOAT"}, "value": {"tensor": {"dtype": "DT_FLOAT", "tensorShape": {"dim": [{"size": "1"}, {"size": "1"}, {"size": "128"}, {"size": "512"}]}}}}, "name": "res3b5_branch2c/merged_input", "op": "Const"}, {"attr": {"dtype": {"type": "DT_FLOAT"}, "value": {"tensor": {"dtype": "DT_FLOAT", "tensorShape": {"dim": [{"size": "1"}, {"size": "1"}, {"size": "1"}, {"size": "128"}]}}}}, "name": "bn3b5_branch2b/sub", "op": "Const"}, {"attr": {"dtype": {"type": "DT_FLOAT"}, "value": {"tensor": {"dtype": "DT_FLOAT", "tensorShape": {"dim": [{"size": "3"}, {"size": "3"}, {"size": "128"}, {"size": "128"}]}}}}, "name": "res3b5_branch2b/merged_input", "op": "Const"}, {"attr": {"dtype": {"type": "DT_FLOAT"}, "value": {"tensor": {"dtype": "DT_FLOAT", "tensorShape": {"dim": [{"size": "1"}, {"size": "1"}, {"size": "1"}, {"size": "128"}]}}}}, "name": "bn3b5_branch2a/sub", "op": "Const"}, {"attr": {"dtype": {"type": "DT_FLOAT"}, "value": {"tensor": {"dtype": "DT_FLOAT", "tensorShape": {"dim": [{"size": "1"}, {"size": "1"}, {"size": "512"}, {"size": "128"}]}}}}, "name": "res3b5_branch2a/merged_input", "op": "Const"}, {"attr": {"dtype": {"type": "DT_FLOAT"}, "value": {"tensor": {"dtype": "DT_FLOAT", "tensorShape": {"dim": [{"size": "1"}, {"size": "1"}, {"size": "1"}, {"size": "512"}]}}}}, "name": "bn3b6_branch2c/sub", "op": "Const"}, {"attr": {"dtype": {"type": "DT_FLOAT"}, "value": {"tensor": {"dtype": "DT_FLOAT", "tensorShape": {"dim": [{"size": "1"}, {"size": "1"}, {"size": "128"}, {"size": "512"}]}}}}, "name": "res3b6_branch2c/merged_input", "op": "Const"}, {"attr": {"dtype": {"type": "DT_FLOAT"}, "value": {"tensor": {"dtype": "DT_FLOAT", "tensorShape": {"dim": [{"size": "1"}, {"size": "1"}, {"size": "1"}, {"size": "128"}]}}}}, "name": "bn3b6_branch2b/sub", "op": "Const"}, {"attr": {"dtype": {"type": "DT_FLOAT"}, "value": {"tensor": {"dtype": "DT_FLOAT", "tensorShape": {"dim": [{"size": "3"}, {"size": "3"}, {"size": "128"}, {"size": "128"}]}}}}, "name": "res3b6_branch2b/merged_input", "op": "Const"}, {"attr": {"dtype": {"type": "DT_FLOAT"}, "value": {"tensor": {"dtype": "DT_FLOAT", "tensorShape": {"dim": [{"size": "1"}, {"size": "1"}, {"size": "1"}, {"size": "128"}]}}}}, "name": "bn3b6_branch2a/sub", "op": "Const"}, {"attr": {"dtype": {"type": "DT_FLOAT"}, "value": {"tensor": {"dtype": "DT_FLOAT", "tensorShape": {"dim": [{"size": "1"}, {"size": "1"}, {"size": "512"}, {"size": "128"}]}}}}, "name": "res3b6_branch2a/merged_input", "op": "Const"}, {"attr": {"dtype": {"type": "DT_FLOAT"}, "value": {"tensor": {"dtype": "DT_FLOAT", "tensorShape": {"dim": [{"size": "1"}, {"size": "1"}, {"size": "1"}, {"size": "512"}]}}}}, "name": "bn3b7_branch2c/sub", "op": "Const"}, {"attr": {"dtype": {"type": "DT_FLOAT"}, "value": {"tensor": {"dtype": "DT_FLOAT", "tensorShape": {"dim": [{"size": "1"}, {"size": "1"}, {"size": "128"}, {"size": "512"}]}}}}, "name": "res3b7_branch2c/merged_input", "op": "Const"}, {"attr": {"dtype": {"type": "DT_FLOAT"}, "value": {"tensor": {"dtype": "DT_FLOAT", "tensorShape": {"dim": [{"size": "1"}, {"size": "1"}, {"size": "1"}, {"size": "128"}]}}}}, "name": "bn3b7_branch2b/sub", "op": "Const"}, {"attr": {"dtype": {"type": "DT_FLOAT"}, "value": {"tensor": {"dtype": "DT_FLOAT", "tensorShape": {"dim": [{"size": "3"}, {"size": "3"}, {"size": "128"}, {"size": "128"}]}}}}, "name": "res3b7_branch2b/merged_input", "op": "Const"}, {"attr": {"dtype": {"type": "DT_FLOAT"}, "value": {"tensor": {"dtype": "DT_FLOAT", "tensorShape": {"dim": [{"size": "1"}, {"size": "1"}, {"size": "1"}, {"size": "128"}]}}}}, "name": "bn3b7_branch2a/sub", "op": "Const"}, {"attr": {"dtype": {"type": "DT_FLOAT"}, "value": {"tensor": {"dtype": "DT_FLOAT", "tensorShape": {"dim": [{"size": "1"}, {"size": "1"}, {"size": "512"}, {"size": "128"}]}}}}, "name": "res3b7_branch2a/merged_input", "op": "Const"}, {"attr": {"dtype": {"type": "DT_FLOAT"}, "value": {"tensor": {"dtype": "DT_FLOAT", "tensorShape": {"dim": [{"size": "1"}, {"size": "1"}, {"size": "1"}, {"size": "1024"}]}}}}, "name": "bn4a_branch1/sub", "op": "Const"}, {"attr": {"dtype": {"type": "DT_FLOAT"}, "value": {"tensor": {"dtype": "DT_FLOAT", "tensorShape": {"dim": [{"size": "1"}, {"size": "1"}, {"size": "512"}, {"size": "1024"}]}}}}, "name": "res4a_branch1/merged_input", "op": "Const"}, {"attr": {"dtype": {"type": "DT_FLOAT"}, "value": {"tensor": {"dtype": "DT_FLOAT", "tensorShape": {"dim": [{"size": "1"}, {"size": "1"}, {"size": "1"}, {"size": "1024"}]}}}}, "name": "bn4b1_branch2c/sub", "op": "Const"}, {"attr": {"dtype": {"type": "DT_FLOAT"}, "value": {"tensor": {"dtype": "DT_FLOAT", "tensorShape": {"dim": [{"size": "1"}, {"size": "1"}, {"size": "256"}, {"size": "1024"}]}}}}, "name": "res4b1_branch2c/merged_input", "op": "Const"}, {"attr": {"dtype": {"type": "DT_FLOAT"}, "value": {"tensor": {"dtype": "DT_FLOAT", "tensorShape": {"dim": [{"size": "1"}, {"size": "1"}, {"size": "1"}, {"size": "256"}]}}}}, "name": "bn4b1_branch2b/sub", "op": "Const"}, {"attr": {"dtype": {"type": "DT_FLOAT"}, "value": {"tensor": {"dtype": "DT_FLOAT", "tensorShape": {"dim": [{"size": "3"}, {"size": "3"}, {"size": "256"}, {"size": "256"}]}}}}, "name": "res4b1_branch2b/merged_input", "op": "Const"}, {"attr": {"dtype": {"type": "DT_FLOAT"}, "value": {"tensor": {"dtype": "DT_FLOAT", "tensorShape": {"dim": [{"size": "1"}, {"size": "1"}, {"size": "1"}, {"size": "256"}]}}}}, "name": "bn4b1_branch2a/sub", "op": "Const"}, {"attr": {"dtype": {"type": "DT_FLOAT"}, "value": {"tensor": {"dtype": "DT_FLOAT", "tensorShape": {"dim": [{"size": "1"}, {"size": "1"}, {"size": "1024"}, {"size": "256"}]}}}}, "name": "res4b1_branch2a/merged_input", "op": "Const"}, {"attr": {"dtype": {"type": "DT_FLOAT"}, "value": {"tensor": {"dtype": "DT_FLOAT", "tensorShape": {"dim": [{"size": "1"}, {"size": "1"}, {"size": "1"}, {"size": "1024"}]}}}}, "name": "bn4b2_branch2c/sub", "op": "Const"}, {"attr": {"dtype": {"type": "DT_FLOAT"}, "value": {"tensor": {"dtype": "DT_FLOAT", "tensorShape": {"dim": [{"size": "1"}, {"size": "1"}, {"size": "256"}, {"size": "1024"}]}}}}, "name": "res4b2_branch2c/merged_input", "op": "Const"}, {"attr": {"dtype": {"type": "DT_FLOAT"}, "value": {"tensor": {"dtype": "DT_FLOAT", "tensorShape": {"dim": [{"size": "1"}, {"size": "1"}, {"size": "1"}, {"size": "256"}]}}}}, "name": "bn4b2_branch2b/sub", "op": "Const"}, {"attr": {"dtype": {"type": "DT_FLOAT"}, "value": {"tensor": {"dtype": "DT_FLOAT", "tensorShape": {"dim": [{"size": "3"}, {"size": "3"}, {"size": "256"}, {"size": "256"}]}}}}, "name": "res4b2_branch2b/merged_input", "op": "Const"}, {"attr": {"dtype": {"type": "DT_FLOAT"}, "value": {"tensor": {"dtype": "DT_FLOAT", "tensorShape": {"dim": [{"size": "1"}, {"size": "1"}, {"size": "1"}, {"size": "256"}]}}}}, "name": "bn4b2_branch2a/sub", "op": "Const"}, {"attr": {"dtype": {"type": "DT_FLOAT"}, "value": {"tensor": {"dtype": "DT_FLOAT", "tensorShape": {"dim": [{"size": "1"}, {"size": "1"}, {"size": "1024"}, {"size": "256"}]}}}}, "name": "res4b2_branch2a/merged_input", "op": "Const"}, {"attr": {"dtype": {"type": "DT_FLOAT"}, "value": {"tensor": {"dtype": "DT_FLOAT", "tensorShape": {"dim": [{"size": "1"}, {"size": "1"}, {"size": "1"}, {"size": "1024"}]}}}}, "name": "bn4b3_branch2c/sub", "op": "Const"}, {"attr": {"dtype": {"type": "DT_FLOAT"}, "value": {"tensor": {"dtype": "DT_FLOAT", "tensorShape": {"dim": [{"size": "1"}, {"size": "1"}, {"size": "256"}, {"size": "1024"}]}}}}, "name": "res4b3_branch2c/merged_input", "op": "Const"}, {"attr": {"dtype": {"type": "DT_FLOAT"}, "value": {"tensor": {"dtype": "DT_FLOAT", "tensorShape": {"dim": [{"size": "1"}, {"size": "1"}, {"size": "1"}, {"size": "256"}]}}}}, "name": "bn4b3_branch2b/sub", "op": "Const"}, {"attr": {"dtype": {"type": "DT_FLOAT"}, "value": {"tensor": {"dtype": "DT_FLOAT", "tensorShape": {"dim": [{"size": "3"}, {"size": "3"}, {"size": "256"}, {"size": "256"}]}}}}, "name": "res4b3_branch2b/merged_input", "op": "Const"}, {"attr": {"dtype": {"type": "DT_FLOAT"}, "value": {"tensor": {"dtype": "DT_FLOAT", "tensorShape": {"dim": [{"size": "1"}, {"size": "1"}, {"size": "1"}, {"size": "256"}]}}}}, "name": "bn4b3_branch2a/sub", "op": "Const"}, {"attr": {"dtype": {"type": "DT_FLOAT"}, "value": {"tensor": {"dtype": "DT_FLOAT", "tensorShape": {"dim": [{"size": "1"}, {"size": "1"}, {"size": "1024"}, {"size": "256"}]}}}}, "name": "res4b3_branch2a/merged_input", "op": "Const"}, {"attr": {"dtype": {"type": "DT_FLOAT"}, "value": {"tensor": {"dtype": "DT_FLOAT", "tensorShape": {"dim": [{"size": "1"}, {"size": "1"}, {"size": "1"}, {"size": "1024"}]}}}}, "name": "bn4b4_branch2c/sub", "op": "Const"}, {"attr": {"dtype": {"type": "DT_FLOAT"}, "value": {"tensor": {"dtype": "DT_FLOAT", "tensorShape": {"dim": [{"size": "1"}, {"size": "1"}, {"size": "256"}, {"size": "1024"}]}}}}, "name": "res4b4_branch2c/merged_input", "op": "Const"}, {"attr": {"dtype": {"type": "DT_FLOAT"}, "value": {"tensor": {"dtype": "DT_FLOAT", "tensorShape": {"dim": [{"size": "1"}, {"size": "1"}, {"size": "1"}, {"size": "256"}]}}}}, "name": "bn4b4_branch2b/sub", "op": "Const"}, {"attr": {"dtype": {"type": "DT_FLOAT"}, "value": {"tensor": {"dtype": "DT_FLOAT", "tensorShape": {"dim": [{"size": "3"}, {"size": "3"}, {"size": "256"}, {"size": "256"}]}}}}, "name": "res4b4_branch2b/merged_input", "op": "Const"}, {"attr": {"dtype": {"type": "DT_FLOAT"}, "value": {"tensor": {"dtype": "DT_FLOAT", "tensorShape": {"dim": [{"size": "1"}, {"size": "1"}, {"size": "1"}, {"size": "256"}]}}}}, "name": "bn4b4_branch2a/sub", "op": "Const"}, {"attr": {"dtype": {"type": "DT_FLOAT"}, "value": {"tensor": {"dtype": "DT_FLOAT", "tensorShape": {"dim": [{"size": "1"}, {"size": "1"}, {"size": "1024"}, {"size": "256"}]}}}}, "name": "res4b4_branch2a/merged_input", "op": "Const"}, {"attr": {"dtype": {"type": "DT_FLOAT"}, "value": {"tensor": {"dtype": "DT_FLOAT", "tensorShape": {"dim": [{"size": "1"}, {"size": "1"}, {"size": "1"}, {"size": "1024"}]}}}}, "name": "bn4b5_branch2c/sub", "op": "Const"}, {"attr": {"dtype": {"type": "DT_FLOAT"}, "value": {"tensor": {"dtype": "DT_FLOAT", "tensorShape": {"dim": [{"size": "1"}, {"size": "1"}, {"size": "256"}, {"size": "1024"}]}}}}, "name": "res4b5_branch2c/merged_input", "op": "Const"}, {"attr": {"dtype": {"type": "DT_FLOAT"}, "value": {"tensor": {"dtype": "DT_FLOAT", "tensorShape": {"dim": [{"size": "1"}, {"size": "1"}, {"size": "1"}, {"size": "256"}]}}}}, "name": "bn4b5_branch2b/sub", "op": "Const"}, {"attr": {"dtype": {"type": "DT_FLOAT"}, "value": {"tensor": {"dtype": "DT_FLOAT", "tensorShape": {"dim": [{"size": "3"}, {"size": "3"}, {"size": "256"}, {"size": "256"}]}}}}, "name": "res4b5_branch2b/merged_input", "op": "Const"}, {"attr": {"dtype": {"type": "DT_FLOAT"}, "value": {"tensor": {"dtype": "DT_FLOAT", "tensorShape": {"dim": [{"size": "1"}, {"size": "1"}, {"size": "1"}, {"size": "256"}]}}}}, "name": "bn4b5_branch2a/sub", "op": "Const"}, {"attr": {"dtype": {"type": "DT_FLOAT"}, "value": {"tensor": {"dtype": "DT_FLOAT", "tensorShape": {"dim": [{"size": "1"}, {"size": "1"}, {"size": "1024"}, {"size": "256"}]}}}}, "name": "res4b5_branch2a/merged_input", "op": "Const"}, {"attr": {"dtype": {"type": "DT_FLOAT"}, "value": {"tensor": {"dtype": "DT_FLOAT", "tensorShape": {"dim": [{"size": "1"}, {"size": "1"}, {"size": "1"}, {"size": "1024"}]}}}}, "name": "bn4b6_branch2c/sub", "op": "Const"}, {"attr": {"dtype": {"type": "DT_FLOAT"}, "value": {"tensor": {"dtype": "DT_FLOAT", "tensorShape": {"dim": [{"size": "1"}, {"size": "1"}, {"size": "256"}, {"size": "1024"}]}}}}, "name": "res4b6_branch2c/merged_input", "op": "Const"}, {"attr": {"dtype": {"type": "DT_FLOAT"}, "value": {"tensor": {"dtype": "DT_FLOAT", "tensorShape": {"dim": [{"size": "1"}, {"size": "1"}, {"size": "1"}, {"size": "256"}]}}}}, "name": "bn4b6_branch2b/sub", "op": "Const"}, {"attr": {"dtype": {"type": "DT_FLOAT"}, "value": {"tensor": {"dtype": "DT_FLOAT", "tensorShape": {"dim": [{"size": "3"}, {"size": "3"}, {"size": "256"}, {"size": "256"}]}}}}, "name": "res4b6_branch2b/merged_input", "op": "Const"}, {"attr": {"dtype": {"type": "DT_FLOAT"}, "value": {"tensor": {"dtype": "DT_FLOAT", "tensorShape": {"dim": [{"size": "1"}, {"size": "1"}, {"size": "1"}, {"size": "256"}]}}}}, "name": "bn4b6_branch2a/sub", "op": "Const"}, {"attr": {"dtype": {"type": "DT_FLOAT"}, "value": {"tensor": {"dtype": "DT_FLOAT", "tensorShape": {"dim": [{"size": "1"}, {"size": "1"}, {"size": "1024"}, {"size": "256"}]}}}}, "name": "res4b6_branch2a/merged_input", "op": "Const"}, {"attr": {"dtype": {"type": "DT_FLOAT"}, "value": {"tensor": {"dtype": "DT_FLOAT", "tensorShape": {"dim": [{"size": "1"}, {"size": "1"}, {"size": "1"}, {"size": "1024"}]}}}}, "name": "bn4b7_branch2c/sub", "op": "Const"}, {"attr": {"dtype": {"type": "DT_FLOAT"}, "value": {"tensor": {"dtype": "DT_FLOAT", "tensorShape": {"dim": [{"size": "1"}, {"size": "1"}, {"size": "256"}, {"size": "1024"}]}}}}, "name": "res4b7_branch2c/merged_input", "op": "Const"}, {"attr": {"dtype": {"type": "DT_FLOAT"}, "value": {"tensor": {"dtype": "DT_FLOAT", "tensorShape": {"dim": [{"size": "1"}, {"size": "1"}, {"size": "1"}, {"size": "256"}]}}}}, "name": "bn4b7_branch2b/sub", "op": "Const"}, {"attr": {"dtype": {"type": "DT_FLOAT"}, "value": {"tensor": {"dtype": "DT_FLOAT", "tensorShape": {"dim": [{"size": "3"}, {"size": "3"}, {"size": "256"}, {"size": "256"}]}}}}, "name": "res4b7_branch2b/merged_input", "op": "Const"}, {"attr": {"dtype": {"type": "DT_FLOAT"}, "value": {"tensor": {"dtype": "DT_FLOAT", "tensorShape": {"dim": [{"size": "1"}, {"size": "1"}, {"size": "1"}, {"size": "256"}]}}}}, "name": "bn4b7_branch2a/sub", "op": "Const"}, {"attr": {"dtype": {"type": "DT_FLOAT"}, "value": {"tensor": {"dtype": "DT_FLOAT", "tensorShape": {"dim": [{"size": "1"}, {"size": "1"}, {"size": "1024"}, {"size": "256"}]}}}}, "name": "res4b7_branch2a/merged_input", "op": "Const"}, {"attr": {"dtype": {"type": "DT_FLOAT"}, "value": {"tensor": {"dtype": "DT_FLOAT", "tensorShape": {"dim": [{"size": "1"}, {"size": "1"}, {"size": "1"}, {"size": "1024"}]}}}}, "name": "bn4b8_branch2c/sub", "op": "Const"}, {"attr": {"dtype": {"type": "DT_FLOAT"}, "value": {"tensor": {"dtype": "DT_FLOAT", "tensorShape": {"dim": [{"size": "1"}, {"size": "1"}, {"size": "256"}, {"size": "1024"}]}}}}, "name": "res4b8_branch2c/merged_input", "op": "Const"}, {"attr": {"dtype": {"type": "DT_FLOAT"}, "value": {"tensor": {"dtype": "DT_FLOAT", "tensorShape": {"dim": [{"size": "1"}, {"size": "1"}, {"size": "1"}, {"size": "256"}]}}}}, "name": "bn4b8_branch2b/sub", "op": "Const"}, {"attr": {"dtype": {"type": "DT_FLOAT"}, "value": {"tensor": {"dtype": "DT_FLOAT", "tensorShape": {"dim": [{"size": "3"}, {"size": "3"}, {"size": "256"}, {"size": "256"}]}}}}, "name": "res4b8_branch2b/merged_input", "op": "Const"}, {"attr": {"dtype": {"type": "DT_FLOAT"}, "value": {"tensor": {"dtype": "DT_FLOAT", "tensorShape": {"dim": [{"size": "1"}, {"size": "1"}, {"size": "1"}, {"size": "256"}]}}}}, "name": "bn4b8_branch2a/sub", "op": "Const"}, {"attr": {"dtype": {"type": "DT_FLOAT"}, "value": {"tensor": {"dtype": "DT_FLOAT", "tensorShape": {"dim": [{"size": "1"}, {"size": "1"}, {"size": "1024"}, {"size": "256"}]}}}}, "name": "res4b8_branch2a/merged_input", "op": "Const"}, {"attr": {"dtype": {"type": "DT_FLOAT"}, "value": {"tensor": {"dtype": "DT_FLOAT", "tensorShape": {"dim": [{"size": "1"}, {"size": "1"}, {"size": "1"}, {"size": "1024"}]}}}}, "name": "bn4b9_branch2c/sub", "op": "Const"}, {"attr": {"dtype": {"type": "DT_FLOAT"}, "value": {"tensor": {"dtype": "DT_FLOAT", "tensorShape": {"dim": [{"size": "1"}, {"size": "1"}, {"size": "256"}, {"size": "1024"}]}}}}, "name": "res4b9_branch2c/merged_input", "op": "Const"}, {"attr": {"dtype": {"type": "DT_FLOAT"}, "value": {"tensor": {"dtype": "DT_FLOAT", "tensorShape": {"dim": [{"size": "1"}, {"size": "1"}, {"size": "1"}, {"size": "256"}]}}}}, "name": "bn4b9_branch2b/sub", "op": "Const"}, {"attr": {"dtype": {"type": "DT_FLOAT"}, "value": {"tensor": {"dtype": "DT_FLOAT", "tensorShape": {"dim": [{"size": "3"}, {"size": "3"}, {"size": "256"}, {"size": "256"}]}}}}, "name": "res4b9_branch2b/merged_input", "op": "Const"}, {"attr": {"dtype": {"type": "DT_FLOAT"}, "value": {"tensor": {"dtype": "DT_FLOAT", "tensorShape": {"dim": [{"size": "1"}, {"size": "1"}, {"size": "1"}, {"size": "256"}]}}}}, "name": "bn4b9_branch2a/sub", "op": "Const"}, {"attr": {"dtype": {"type": "DT_FLOAT"}, "value": {"tensor": {"dtype": "DT_FLOAT", "tensorShape": {"dim": [{"size": "1"}, {"size": "1"}, {"size": "1024"}, {"size": "256"}]}}}}, "name": "res4b9_branch2a/merged_input", "op": "Const"}, {"attr": {"dtype": {"type": "DT_FLOAT"}, "value": {"tensor": {"dtype": "DT_FLOAT", "tensorShape": {"dim": [{"size": "1"}, {"size": "1"}, {"size": "1"}, {"size": "1024"}]}}}}, "name": "bn4b10_branch2c/sub", "op": "Const"}, {"attr": {"dtype": {"type": "DT_FLOAT"}, "value": {"tensor": {"dtype": "DT_FLOAT", "tensorShape": {"dim": [{"size": "1"}, {"size": "1"}, {"size": "256"}, {"size": "1024"}]}}}}, "name": "res4b10_branch2c/merged_input", "op": "Const"}, {"attr": {"dtype": {"type": "DT_FLOAT"}, "value": {"tensor": {"dtype": "DT_FLOAT", "tensorShape": {"dim": [{"size": "1"}, {"size": "1"}, {"size": "1"}, {"size": "256"}]}}}}, "name": "bn4b10_branch2b/sub", "op": "Const"}, {"attr": {"dtype": {"type": "DT_FLOAT"}, "value": {"tensor": {"dtype": "DT_FLOAT", "tensorShape": {"dim": [{"size": "3"}, {"size": "3"}, {"size": "256"}, {"size": "256"}]}}}}, "name": "res4b10_branch2b/merged_input", "op": "Const"}, {"attr": {"dtype": {"type": "DT_FLOAT"}, "value": {"tensor": {"dtype": "DT_FLOAT", "tensorShape": {"dim": [{"size": "1"}, {"size": "1"}, {"size": "1"}, {"size": "256"}]}}}}, "name": "bn4b10_branch2a/sub", "op": "Const"}, {"attr": {"dtype": {"type": "DT_FLOAT"}, "value": {"tensor": {"dtype": "DT_FLOAT", "tensorShape": {"dim": [{"size": "1"}, {"size": "1"}, {"size": "1024"}, {"size": "256"}]}}}}, "name": "res4b10_branch2a/merged_input", "op": "Const"}, {"attr": {"dtype": {"type": "DT_FLOAT"}, "value": {"tensor": {"dtype": "DT_FLOAT", "tensorShape": {"dim": [{"size": "1"}, {"size": "1"}, {"size": "1"}, {"size": "1024"}]}}}}, "name": "bn4b11_branch2c/sub", "op": "Const"}, {"attr": {"dtype": {"type": "DT_FLOAT"}, "value": {"tensor": {"dtype": "DT_FLOAT", "tensorShape": {"dim": [{"size": "1"}, {"size": "1"}, {"size": "256"}, {"size": "1024"}]}}}}, "name": "res4b11_branch2c/merged_input", "op": "Const"}, {"attr": {"dtype": {"type": "DT_FLOAT"}, "value": {"tensor": {"dtype": "DT_FLOAT", "tensorShape": {"dim": [{"size": "1"}, {"size": "1"}, {"size": "1"}, {"size": "256"}]}}}}, "name": "bn4b11_branch2b/sub", "op": "Const"}, {"attr": {"dtype": {"type": "DT_FLOAT"}, "value": {"tensor": {"dtype": "DT_FLOAT", "tensorShape": {"dim": [{"size": "3"}, {"size": "3"}, {"size": "256"}, {"size": "256"}]}}}}, "name": "res4b11_branch2b/merged_input", "op": "Const"}, {"attr": {"dtype": {"type": "DT_FLOAT"}, "value": {"tensor": {"dtype": "DT_FLOAT", "tensorShape": {"dim": [{"size": "1"}, {"size": "1"}, {"size": "1"}, {"size": "256"}]}}}}, "name": "bn4b11_branch2a/sub", "op": "Const"}, {"attr": {"dtype": {"type": "DT_FLOAT"}, "value": {"tensor": {"dtype": "DT_FLOAT", "tensorShape": {"dim": [{"size": "1"}, {"size": "1"}, {"size": "1024"}, {"size": "256"}]}}}}, "name": "res4b11_branch2a/merged_input", "op": "Const"}, {"attr": {"dtype": {"type": "DT_FLOAT"}, "value": {"tensor": {"dtype": "DT_FLOAT", "tensorShape": {"dim": [{"size": "1"}, {"size": "1"}, {"size": "1"}, {"size": "1024"}]}}}}, "name": "bn4b12_branch2c/sub", "op": "Const"}, {"attr": {"dtype": {"type": "DT_FLOAT"}, "value": {"tensor": {"dtype": "DT_FLOAT", "tensorShape": {"dim": [{"size": "1"}, {"size": "1"}, {"size": "256"}, {"size": "1024"}]}}}}, "name": "res4b12_branch2c/merged_input", "op": "Const"}, {"attr": {"dtype": {"type": "DT_FLOAT"}, "value": {"tensor": {"dtype": "DT_FLOAT", "tensorShape": {"dim": [{"size": "1"}, {"size": "1"}, {"size": "1"}, {"size": "256"}]}}}}, "name": "bn4b12_branch2b/sub", "op": "Const"}, {"attr": {"dtype": {"type": "DT_FLOAT"}, "value": {"tensor": {"dtype": "DT_FLOAT", "tensorShape": {"dim": [{"size": "3"}, {"size": "3"}, {"size": "256"}, {"size": "256"}]}}}}, "name": "res4b12_branch2b/merged_input", "op": "Const"}, {"attr": {"dtype": {"type": "DT_FLOAT"}, "value": {"tensor": {"dtype": "DT_FLOAT", "tensorShape": {"dim": [{"size": "1"}, {"size": "1"}, {"size": "1"}, {"size": "256"}]}}}}, "name": "bn4b12_branch2a/sub", "op": "Const"}, {"attr": {"dtype": {"type": "DT_FLOAT"}, "value": {"tensor": {"dtype": "DT_FLOAT", "tensorShape": {"dim": [{"size": "1"}, {"size": "1"}, {"size": "1024"}, {"size": "256"}]}}}}, "name": "res4b12_branch2a/merged_input", "op": "Const"}, {"attr": {"dtype": {"type": "DT_FLOAT"}, "value": {"tensor": {"dtype": "DT_FLOAT", "tensorShape": {"dim": [{"size": "1"}, {"size": "1"}, {"size": "1"}, {"size": "1024"}]}}}}, "name": "bn4b13_branch2c/sub", "op": "Const"}, {"attr": {"dtype": {"type": "DT_FLOAT"}, "value": {"tensor": {"dtype": "DT_FLOAT", "tensorShape": {"dim": [{"size": "1"}, {"size": "1"}, {"size": "256"}, {"size": "1024"}]}}}}, "name": "res4b13_branch2c/merged_input", "op": "Const"}, {"attr": {"dtype": {"type": "DT_FLOAT"}, "value": {"tensor": {"dtype": "DT_FLOAT", "tensorShape": {"dim": [{"size": "1"}, {"size": "1"}, {"size": "1"}, {"size": "256"}]}}}}, "name": "bn4b13_branch2b/sub", "op": "Const"}, {"attr": {"dtype": {"type": "DT_FLOAT"}, "value": {"tensor": {"dtype": "DT_FLOAT", "tensorShape": {"dim": [{"size": "3"}, {"size": "3"}, {"size": "256"}, {"size": "256"}]}}}}, "name": "res4b13_branch2b/merged_input", "op": "Const"}, {"attr": {"dtype": {"type": "DT_FLOAT"}, "value": {"tensor": {"dtype": "DT_FLOAT", "tensorShape": {"dim": [{"size": "1"}, {"size": "1"}, {"size": "1"}, {"size": "256"}]}}}}, "name": "bn4b13_branch2a/sub", "op": "Const"}, {"attr": {"dtype": {"type": "DT_FLOAT"}, "value": {"tensor": {"dtype": "DT_FLOAT", "tensorShape": {"dim": [{"size": "1"}, {"size": "1"}, {"size": "1024"}, {"size": "256"}]}}}}, "name": "res4b13_branch2a/merged_input", "op": "Const"}, {"attr": {"dtype": {"type": "DT_FLOAT"}, "value": {"tensor": {"dtype": "DT_FLOAT", "tensorShape": {"dim": [{"size": "1"}, {"size": "1"}, {"size": "1"}, {"size": "1024"}]}}}}, "name": "bn4b14_branch2c/sub", "op": "Const"}, {"attr": {"dtype": {"type": "DT_FLOAT"}, "value": {"tensor": {"dtype": "DT_FLOAT", "tensorShape": {"dim": [{"size": "1"}, {"size": "1"}, {"size": "256"}, {"size": "1024"}]}}}}, "name": "res4b14_branch2c/merged_input", "op": "Const"}, {"attr": {"dtype": {"type": "DT_FLOAT"}, "value": {"tensor": {"dtype": "DT_FLOAT", "tensorShape": {"dim": [{"size": "1"}, {"size": "1"}, {"size": "1"}, {"size": "256"}]}}}}, "name": "bn4b14_branch2b/sub", "op": "Const"}, {"attr": {"dtype": {"type": "DT_FLOAT"}, "value": {"tensor": {"dtype": "DT_FLOAT", "tensorShape": {"dim": [{"size": "3"}, {"size": "3"}, {"size": "256"}, {"size": "256"}]}}}}, "name": "res4b14_branch2b/merged_input", "op": "Const"}, {"attr": {"dtype": {"type": "DT_FLOAT"}, "value": {"tensor": {"dtype": "DT_FLOAT", "tensorShape": {"dim": [{"size": "1"}, {"size": "1"}, {"size": "1"}, {"size": "256"}]}}}}, "name": "bn4b14_branch2a/sub", "op": "Const"}, {"attr": {"dtype": {"type": "DT_FLOAT"}, "value": {"tensor": {"dtype": "DT_FLOAT", "tensorShape": {"dim": [{"size": "1"}, {"size": "1"}, {"size": "1024"}, {"size": "256"}]}}}}, "name": "res4b14_branch2a/merged_input", "op": "Const"}, {"attr": {"dtype": {"type": "DT_FLOAT"}, "value": {"tensor": {"dtype": "DT_FLOAT", "tensorShape": {"dim": [{"size": "1"}, {"size": "1"}, {"size": "1"}, {"size": "1024"}]}}}}, "name": "bn4b15_branch2c/sub", "op": "Const"}, {"attr": {"dtype": {"type": "DT_FLOAT"}, "value": {"tensor": {"dtype": "DT_FLOAT", "tensorShape": {"dim": [{"size": "1"}, {"size": "1"}, {"size": "256"}, {"size": "1024"}]}}}}, "name": "res4b15_branch2c/merged_input", "op": "Const"}, {"attr": {"dtype": {"type": "DT_FLOAT"}, "value": {"tensor": {"dtype": "DT_FLOAT", "tensorShape": {"dim": [{"size": "1"}, {"size": "1"}, {"size": "1"}, {"size": "256"}]}}}}, "name": "bn4b15_branch2b/sub", "op": "Const"}, {"attr": {"dtype": {"type": "DT_FLOAT"}, "value": {"tensor": {"dtype": "DT_FLOAT", "tensorShape": {"dim": [{"size": "3"}, {"size": "3"}, {"size": "256"}, {"size": "256"}]}}}}, "name": "res4b15_branch2b/merged_input", "op": "Const"}, {"attr": {"dtype": {"type": "DT_FLOAT"}, "value": {"tensor": {"dtype": "DT_FLOAT", "tensorShape": {"dim": [{"size": "1"}, {"size": "1"}, {"size": "1"}, {"size": "256"}]}}}}, "name": "bn4b15_branch2a/sub", "op": "Const"}, {"attr": {"dtype": {"type": "DT_FLOAT"}, "value": {"tensor": {"dtype": "DT_FLOAT", "tensorShape": {"dim": [{"size": "1"}, {"size": "1"}, {"size": "1024"}, {"size": "256"}]}}}}, "name": "res4b15_branch2a/merged_input", "op": "Const"}, {"attr": {"dtype": {"type": "DT_FLOAT"}, "value": {"tensor": {"dtype": "DT_FLOAT", "tensorShape": {"dim": [{"size": "1"}, {"size": "1"}, {"size": "1"}, {"size": "1024"}]}}}}, "name": "bn4b16_branch2c/sub", "op": "Const"}, {"attr": {"dtype": {"type": "DT_FLOAT"}, "value": {"tensor": {"dtype": "DT_FLOAT", "tensorShape": {"dim": [{"size": "1"}, {"size": "1"}, {"size": "256"}, {"size": "1024"}]}}}}, "name": "res4b16_branch2c/merged_input", "op": "Const"}, {"attr": {"dtype": {"type": "DT_FLOAT"}, "value": {"tensor": {"dtype": "DT_FLOAT", "tensorShape": {"dim": [{"size": "1"}, {"size": "1"}, {"size": "1"}, {"size": "256"}]}}}}, "name": "bn4b16_branch2b/sub", "op": "Const"}, {"attr": {"dtype": {"type": "DT_FLOAT"}, "value": {"tensor": {"dtype": "DT_FLOAT", "tensorShape": {"dim": [{"size": "3"}, {"size": "3"}, {"size": "256"}, {"size": "256"}]}}}}, "name": "res4b16_branch2b/merged_input", "op": "Const"}, {"attr": {"dtype": {"type": "DT_FLOAT"}, "value": {"tensor": {"dtype": "DT_FLOAT", "tensorShape": {"dim": [{"size": "1"}, {"size": "1"}, {"size": "1"}, {"size": "256"}]}}}}, "name": "bn4b16_branch2a/sub", "op": "Const"}, {"attr": {"dtype": {"type": "DT_FLOAT"}, "value": {"tensor": {"dtype": "DT_FLOAT", "tensorShape": {"dim": [{"size": "1"}, {"size": "1"}, {"size": "1024"}, {"size": "256"}]}}}}, "name": "res4b16_branch2a/merged_input", "op": "Const"}, {"attr": {"dtype": {"type": "DT_FLOAT"}, "value": {"tensor": {"dtype": "DT_FLOAT", "tensorShape": {"dim": [{"size": "1"}, {"size": "1"}, {"size": "1"}, {"size": "1024"}]}}}}, "name": "bn4b17_branch2c/sub", "op": "Const"}, {"attr": {"dtype": {"type": "DT_FLOAT"}, "value": {"tensor": {"dtype": "DT_FLOAT", "tensorShape": {"dim": [{"size": "1"}, {"size": "1"}, {"size": "256"}, {"size": "1024"}]}}}}, "name": "res4b17_branch2c/merged_input", "op": "Const"}, {"attr": {"dtype": {"type": "DT_FLOAT"}, "value": {"tensor": {"dtype": "DT_FLOAT", "tensorShape": {"dim": [{"size": "1"}, {"size": "1"}, {"size": "1"}, {"size": "256"}]}}}}, "name": "bn4b17_branch2b/sub", "op": "Const"}, {"attr": {"dtype": {"type": "DT_FLOAT"}, "value": {"tensor": {"dtype": "DT_FLOAT", "tensorShape": {"dim": [{"size": "3"}, {"size": "3"}, {"size": "256"}, {"size": "256"}]}}}}, "name": "res4b17_branch2b/merged_input", "op": "Const"}, {"attr": {"dtype": {"type": "DT_FLOAT"}, "value": {"tensor": {"dtype": "DT_FLOAT", "tensorShape": {"dim": [{"size": "1"}, {"size": "1"}, {"size": "1"}, {"size": "256"}]}}}}, "name": "bn4b17_branch2a/sub", "op": "Const"}, {"attr": {"dtype": {"type": "DT_FLOAT"}, "value": {"tensor": {"dtype": "DT_FLOAT", "tensorShape": {"dim": [{"size": "1"}, {"size": "1"}, {"size": "1024"}, {"size": "256"}]}}}}, "name": "res4b17_branch2a/merged_input", "op": "Const"}, {"attr": {"dtype": {"type": "DT_FLOAT"}, "value": {"tensor": {"dtype": "DT_FLOAT", "tensorShape": {"dim": [{"size": "1"}, {"size": "1"}, {"size": "1"}, {"size": "1024"}]}}}}, "name": "bn4b18_branch2c/sub", "op": "Const"}, {"attr": {"dtype": {"type": "DT_FLOAT"}, "value": {"tensor": {"dtype": "DT_FLOAT", "tensorShape": {"dim": [{"size": "1"}, {"size": "1"}, {"size": "256"}, {"size": "1024"}]}}}}, "name": "res4b18_branch2c/merged_input", "op": "Const"}, {"attr": {"dtype": {"type": "DT_FLOAT"}, "value": {"tensor": {"dtype": "DT_FLOAT", "tensorShape": {"dim": [{"size": "1"}, {"size": "1"}, {"size": "1"}, {"size": "256"}]}}}}, "name": "bn4b18_branch2b/sub", "op": "Const"}, {"attr": {"dtype": {"type": "DT_FLOAT"}, "value": {"tensor": {"dtype": "DT_FLOAT", "tensorShape": {"dim": [{"size": "3"}, {"size": "3"}, {"size": "256"}, {"size": "256"}]}}}}, "name": "res4b18_branch2b/merged_input", "op": "Const"}, {"attr": {"dtype": {"type": "DT_FLOAT"}, "value": {"tensor": {"dtype": "DT_FLOAT", "tensorShape": {"dim": [{"size": "1"}, {"size": "1"}, {"size": "1"}, {"size": "256"}]}}}}, "name": "bn4b18_branch2a/sub", "op": "Const"}, {"attr": {"dtype": {"type": "DT_FLOAT"}, "value": {"tensor": {"dtype": "DT_FLOAT", "tensorShape": {"dim": [{"size": "1"}, {"size": "1"}, {"size": "1024"}, {"size": "256"}]}}}}, "name": "res4b18_branch2a/merged_input", "op": "Const"}, {"attr": {"dtype": {"type": "DT_FLOAT"}, "value": {"tensor": {"dtype": "DT_FLOAT", "tensorShape": {"dim": [{"size": "1"}, {"size": "1"}, {"size": "1"}, {"size": "1024"}]}}}}, "name": "bn4b19_branch2c/sub", "op": "Const"}, {"attr": {"dtype": {"type": "DT_FLOAT"}, "value": {"tensor": {"dtype": "DT_FLOAT", "tensorShape": {"dim": [{"size": "1"}, {"size": "1"}, {"size": "256"}, {"size": "1024"}]}}}}, "name": "res4b19_branch2c/merged_input", "op": "Const"}, {"attr": {"dtype": {"type": "DT_FLOAT"}, "value": {"tensor": {"dtype": "DT_FLOAT", "tensorShape": {"dim": [{"size": "1"}, {"size": "1"}, {"size": "1"}, {"size": "256"}]}}}}, "name": "bn4b19_branch2b/sub", "op": "Const"}, {"attr": {"dtype": {"type": "DT_FLOAT"}, "value": {"tensor": {"dtype": "DT_FLOAT", "tensorShape": {"dim": [{"size": "3"}, {"size": "3"}, {"size": "256"}, {"size": "256"}]}}}}, "name": "res4b19_branch2b/merged_input", "op": "Const"}, {"attr": {"dtype": {"type": "DT_FLOAT"}, "value": {"tensor": {"dtype": "DT_FLOAT", "tensorShape": {"dim": [{"size": "1"}, {"size": "1"}, {"size": "1"}, {"size": "256"}]}}}}, "name": "bn4b19_branch2a/sub", "op": "Const"}, {"attr": {"dtype": {"type": "DT_FLOAT"}, "value": {"tensor": {"dtype": "DT_FLOAT", "tensorShape": {"dim": [{"size": "1"}, {"size": "1"}, {"size": "1024"}, {"size": "256"}]}}}}, "name": "res4b19_branch2a/merged_input", "op": "Const"}, {"attr": {"dtype": {"type": "DT_FLOAT"}, "value": {"tensor": {"dtype": "DT_FLOAT", "tensorShape": {"dim": [{"size": "1"}, {"size": "1"}, {"size": "1"}, {"size": "1024"}]}}}}, "name": "bn4b20_branch2c/sub", "op": "Const"}, {"attr": {"dtype": {"type": "DT_FLOAT"}, "value": {"tensor": {"dtype": "DT_FLOAT", "tensorShape": {"dim": [{"size": "1"}, {"size": "1"}, {"size": "256"}, {"size": "1024"}]}}}}, "name": "res4b20_branch2c/merged_input", "op": "Const"}, {"attr": {"dtype": {"type": "DT_FLOAT"}, "value": {"tensor": {"dtype": "DT_FLOAT", "tensorShape": {"dim": [{"size": "1"}, {"size": "1"}, {"size": "1"}, {"size": "256"}]}}}}, "name": "bn4b20_branch2b/sub", "op": "Const"}, {"attr": {"dtype": {"type": "DT_FLOAT"}, "value": {"tensor": {"dtype": "DT_FLOAT", "tensorShape": {"dim": [{"size": "3"}, {"size": "3"}, {"size": "256"}, {"size": "256"}]}}}}, "name": "res4b20_branch2b/merged_input", "op": "Const"}, {"attr": {"dtype": {"type": "DT_FLOAT"}, "value": {"tensor": {"dtype": "DT_FLOAT", "tensorShape": {"dim": [{"size": "1"}, {"size": "1"}, {"size": "1"}, {"size": "256"}]}}}}, "name": "bn4b20_branch2a/sub", "op": "Const"}, {"attr": {"dtype": {"type": "DT_FLOAT"}, "value": {"tensor": {"dtype": "DT_FLOAT", "tensorShape": {"dim": [{"size": "1"}, {"size": "1"}, {"size": "1024"}, {"size": "256"}]}}}}, "name": "res4b20_branch2a/merged_input", "op": "Const"}, {"attr": {"dtype": {"type": "DT_FLOAT"}, "value": {"tensor": {"dtype": "DT_FLOAT", "tensorShape": {"dim": [{"size": "1"}, {"size": "1"}, {"size": "1"}, {"size": "1024"}]}}}}, "name": "bn4b21_branch2c/sub", "op": "Const"}, {"attr": {"dtype": {"type": "DT_FLOAT"}, "value": {"tensor": {"dtype": "DT_FLOAT", "tensorShape": {"dim": [{"size": "1"}, {"size": "1"}, {"size": "256"}, {"size": "1024"}]}}}}, "name": "res4b21_branch2c/merged_input", "op": "Const"}, {"attr": {"dtype": {"type": "DT_FLOAT"}, "value": {"tensor": {"dtype": "DT_FLOAT", "tensorShape": {"dim": [{"size": "1"}, {"size": "1"}, {"size": "1"}, {"size": "256"}]}}}}, "name": "bn4b21_branch2b/sub", "op": "Const"}, {"attr": {"dtype": {"type": "DT_FLOAT"}, "value": {"tensor": {"dtype": "DT_FLOAT", "tensorShape": {"dim": [{"size": "3"}, {"size": "3"}, {"size": "256"}, {"size": "256"}]}}}}, "name": "res4b21_branch2b/merged_input", "op": "Const"}, {"attr": {"dtype": {"type": "DT_FLOAT"}, "value": {"tensor": {"dtype": "DT_FLOAT", "tensorShape": {"dim": [{"size": "1"}, {"size": "1"}, {"size": "1"}, {"size": "256"}]}}}}, "name": "bn4b21_branch2a/sub", "op": "Const"}, {"attr": {"dtype": {"type": "DT_FLOAT"}, "value": {"tensor": {"dtype": "DT_FLOAT", "tensorShape": {"dim": [{"size": "1"}, {"size": "1"}, {"size": "1024"}, {"size": "256"}]}}}}, "name": "res4b21_branch2a/merged_input", "op": "Const"}, {"attr": {"dtype": {"type": "DT_FLOAT"}, "value": {"tensor": {"dtype": "DT_FLOAT", "tensorShape": {"dim": [{"size": "1"}, {"size": "1"}, {"size": "1"}, {"size": "1024"}]}}}}, "name": "bn4b22_branch2c/sub", "op": "Const"}, {"attr": {"dtype": {"type": "DT_FLOAT"}, "value": {"tensor": {"dtype": "DT_FLOAT", "tensorShape": {"dim": [{"size": "1"}, {"size": "1"}, {"size": "256"}, {"size": "1024"}]}}}}, "name": "res4b22_branch2c/merged_input", "op": "Const"}, {"attr": {"dtype": {"type": "DT_FLOAT"}, "value": {"tensor": {"dtype": "DT_FLOAT", "tensorShape": {"dim": [{"size": "1"}, {"size": "1"}, {"size": "1"}, {"size": "256"}]}}}}, "name": "bn4b22_branch2b/sub", "op": "Const"}, {"attr": {"dtype": {"type": "DT_FLOAT"}, "value": {"tensor": {"dtype": "DT_FLOAT", "tensorShape": {"dim": [{"size": "3"}, {"size": "3"}, {"size": "256"}, {"size": "256"}]}}}}, "name": "res4b22_branch2b/merged_input", "op": "Const"}, {"attr": {"dtype": {"type": "DT_FLOAT"}, "value": {"tensor": {"dtype": "DT_FLOAT", "tensorShape": {"dim": [{"size": "1"}, {"size": "1"}, {"size": "1"}, {"size": "256"}]}}}}, "name": "bn4b22_branch2a/sub", "op": "Const"}, {"attr": {"dtype": {"type": "DT_FLOAT"}, "value": {"tensor": {"dtype": "DT_FLOAT", "tensorShape": {"dim": [{"size": "1"}, {"size": "1"}, {"size": "1024"}, {"size": "256"}]}}}}, "name": "res4b22_branch2a/merged_input", "op": "Const"}, {"attr": {"dtype": {"type": "DT_FLOAT"}, "value": {"tensor": {"dtype": "DT_FLOAT", "tensorShape": {"dim": [{"size": "1"}, {"size": "1"}, {"size": "1"}, {"size": "1024"}]}}}}, "name": "bn4b23_branch2c/sub", "op": "Const"}, {"attr": {"dtype": {"type": "DT_FLOAT"}, "value": {"tensor": {"dtype": "DT_FLOAT", "tensorShape": {"dim": [{"size": "1"}, {"size": "1"}, {"size": "256"}, {"size": "1024"}]}}}}, "name": "res4b23_branch2c/merged_input", "op": "Const"}, {"attr": {"dtype": {"type": "DT_FLOAT"}, "value": {"tensor": {"dtype": "DT_FLOAT", "tensorShape": {"dim": [{"size": "1"}, {"size": "1"}, {"size": "1"}, {"size": "256"}]}}}}, "name": "bn4b23_branch2b/sub", "op": "Const"}, {"attr": {"dtype": {"type": "DT_FLOAT"}, "value": {"tensor": {"dtype": "DT_FLOAT", "tensorShape": {"dim": [{"size": "3"}, {"size": "3"}, {"size": "256"}, {"size": "256"}]}}}}, "name": "res4b23_branch2b/merged_input", "op": "Const"}, {"attr": {"dtype": {"type": "DT_FLOAT"}, "value": {"tensor": {"dtype": "DT_FLOAT", "tensorShape": {"dim": [{"size": "1"}, {"size": "1"}, {"size": "1"}, {"size": "256"}]}}}}, "name": "bn4b23_branch2a/sub", "op": "Const"}, {"attr": {"dtype": {"type": "DT_FLOAT"}, "value": {"tensor": {"dtype": "DT_FLOAT", "tensorShape": {"dim": [{"size": "1"}, {"size": "1"}, {"size": "1024"}, {"size": "256"}]}}}}, "name": "res4b23_branch2a/merged_input", "op": "Const"}, {"attr": {"dtype": {"type": "DT_FLOAT"}, "value": {"tensor": {"dtype": "DT_FLOAT", "tensorShape": {"dim": [{"size": "1"}, {"size": "1"}, {"size": "1"}, {"size": "1024"}]}}}}, "name": "bn4b24_branch2c/sub", "op": "Const"}, {"attr": {"dtype": {"type": "DT_FLOAT"}, "value": {"tensor": {"dtype": "DT_FLOAT", "tensorShape": {"dim": [{"size": "1"}, {"size": "1"}, {"size": "256"}, {"size": "1024"}]}}}}, "name": "res4b24_branch2c/merged_input", "op": "Const"}, {"attr": {"dtype": {"type": "DT_FLOAT"}, "value": {"tensor": {"dtype": "DT_FLOAT", "tensorShape": {"dim": [{"size": "1"}, {"size": "1"}, {"size": "1"}, {"size": "256"}]}}}}, "name": "bn4b24_branch2b/sub", "op": "Const"}, {"attr": {"dtype": {"type": "DT_FLOAT"}, "value": {"tensor": {"dtype": "DT_FLOAT", "tensorShape": {"dim": [{"size": "3"}, {"size": "3"}, {"size": "256"}, {"size": "256"}]}}}}, "name": "res4b24_branch2b/merged_input", "op": "Const"}, {"attr": {"dtype": {"type": "DT_FLOAT"}, "value": {"tensor": {"dtype": "DT_FLOAT", "tensorShape": {"dim": [{"size": "1"}, {"size": "1"}, {"size": "1"}, {"size": "256"}]}}}}, "name": "bn4b24_branch2a/sub", "op": "Const"}, {"attr": {"dtype": {"type": "DT_FLOAT"}, "value": {"tensor": {"dtype": "DT_FLOAT", "tensorShape": {"dim": [{"size": "1"}, {"size": "1"}, {"size": "1024"}, {"size": "256"}]}}}}, "name": "res4b24_branch2a/merged_input", "op": "Const"}, {"attr": {"dtype": {"type": "DT_FLOAT"}, "value": {"tensor": {"dtype": "DT_FLOAT", "tensorShape": {"dim": [{"size": "1"}, {"size": "1"}, {"size": "1"}, {"size": "1024"}]}}}}, "name": "bn4b25_branch2c/sub", "op": "Const"}, {"attr": {"dtype": {"type": "DT_FLOAT"}, "value": {"tensor": {"dtype": "DT_FLOAT", "tensorShape": {"dim": [{"size": "1"}, {"size": "1"}, {"size": "256"}, {"size": "1024"}]}}}}, "name": "res4b25_branch2c/merged_input", "op": "Const"}, {"attr": {"dtype": {"type": "DT_FLOAT"}, "value": {"tensor": {"dtype": "DT_FLOAT", "tensorShape": {"dim": [{"size": "1"}, {"size": "1"}, {"size": "1"}, {"size": "256"}]}}}}, "name": "bn4b25_branch2b/sub", "op": "Const"}, {"attr": {"dtype": {"type": "DT_FLOAT"}, "value": {"tensor": {"dtype": "DT_FLOAT", "tensorShape": {"dim": [{"size": "3"}, {"size": "3"}, {"size": "256"}, {"size": "256"}]}}}}, "name": "res4b25_branch2b/merged_input", "op": "Const"}, {"attr": {"dtype": {"type": "DT_FLOAT"}, "value": {"tensor": {"dtype": "DT_FLOAT", "tensorShape": {"dim": [{"size": "1"}, {"size": "1"}, {"size": "1"}, {"size": "256"}]}}}}, "name": "bn4b25_branch2a/sub", "op": "Const"}, {"attr": {"dtype": {"type": "DT_FLOAT"}, "value": {"tensor": {"dtype": "DT_FLOAT", "tensorShape": {"dim": [{"size": "1"}, {"size": "1"}, {"size": "1024"}, {"size": "256"}]}}}}, "name": "res4b25_branch2a/merged_input", "op": "Const"}, {"attr": {"dtype": {"type": "DT_FLOAT"}, "value": {"tensor": {"dtype": "DT_FLOAT", "tensorShape": {"dim": [{"size": "1"}, {"size": "1"}, {"size": "1"}, {"size": "1024"}]}}}}, "name": "bn4b26_branch2c/sub", "op": "Const"}, {"attr": {"dtype": {"type": "DT_FLOAT"}, "value": {"tensor": {"dtype": "DT_FLOAT", "tensorShape": {"dim": [{"size": "1"}, {"size": "1"}, {"size": "256"}, {"size": "1024"}]}}}}, "name": "res4b26_branch2c/merged_input", "op": "Const"}, {"attr": {"dtype": {"type": "DT_FLOAT"}, "value": {"tensor": {"dtype": "DT_FLOAT", "tensorShape": {"dim": [{"size": "1"}, {"size": "1"}, {"size": "1"}, {"size": "256"}]}}}}, "name": "bn4b26_branch2b/sub", "op": "Const"}, {"attr": {"dtype": {"type": "DT_FLOAT"}, "value": {"tensor": {"dtype": "DT_FLOAT", "tensorShape": {"dim": [{"size": "3"}, {"size": "3"}, {"size": "256"}, {"size": "256"}]}}}}, "name": "res4b26_branch2b/merged_input", "op": "Const"}, {"attr": {"dtype": {"type": "DT_FLOAT"}, "value": {"tensor": {"dtype": "DT_FLOAT", "tensorShape": {"dim": [{"size": "1"}, {"size": "1"}, {"size": "1"}, {"size": "256"}]}}}}, "name": "bn4b26_branch2a/sub", "op": "Const"}, {"attr": {"dtype": {"type": "DT_FLOAT"}, "value": {"tensor": {"dtype": "DT_FLOAT", "tensorShape": {"dim": [{"size": "1"}, {"size": "1"}, {"size": "1024"}, {"size": "256"}]}}}}, "name": "res4b26_branch2a/merged_input", "op": "Const"}, {"attr": {"dtype": {"type": "DT_FLOAT"}, "value": {"tensor": {"dtype": "DT_FLOAT", "tensorShape": {"dim": [{"size": "1"}, {"size": "1"}, {"size": "1"}, {"size": "1024"}]}}}}, "name": "bn4b27_branch2c/sub", "op": "Const"}, {"attr": {"dtype": {"type": "DT_FLOAT"}, "value": {"tensor": {"dtype": "DT_FLOAT", "tensorShape": {"dim": [{"size": "1"}, {"size": "1"}, {"size": "256"}, {"size": "1024"}]}}}}, "name": "res4b27_branch2c/merged_input", "op": "Const"}, {"attr": {"dtype": {"type": "DT_FLOAT"}, "value": {"tensor": {"dtype": "DT_FLOAT", "tensorShape": {"dim": [{"size": "1"}, {"size": "1"}, {"size": "1"}, {"size": "256"}]}}}}, "name": "bn4b27_branch2b/sub", "op": "Const"}, {"attr": {"dtype": {"type": "DT_FLOAT"}, "value": {"tensor": {"dtype": "DT_FLOAT", "tensorShape": {"dim": [{"size": "3"}, {"size": "3"}, {"size": "256"}, {"size": "256"}]}}}}, "name": "res4b27_branch2b/merged_input", "op": "Const"}, {"attr": {"dtype": {"type": "DT_FLOAT"}, "value": {"tensor": {"dtype": "DT_FLOAT", "tensorShape": {"dim": [{"size": "1"}, {"size": "1"}, {"size": "1"}, {"size": "256"}]}}}}, "name": "bn4b27_branch2a/sub", "op": "Const"}, {"attr": {"dtype": {"type": "DT_FLOAT"}, "value": {"tensor": {"dtype": "DT_FLOAT", "tensorShape": {"dim": [{"size": "1"}, {"size": "1"}, {"size": "1024"}, {"size": "256"}]}}}}, "name": "res4b27_branch2a/merged_input", "op": "Const"}, {"attr": {"dtype": {"type": "DT_FLOAT"}, "value": {"tensor": {"dtype": "DT_FLOAT", "tensorShape": {"dim": [{"size": "1"}, {"size": "1"}, {"size": "1"}, {"size": "1024"}]}}}}, "name": "bn4b28_branch2c/sub", "op": "Const"}, {"attr": {"dtype": {"type": "DT_FLOAT"}, "value": {"tensor": {"dtype": "DT_FLOAT", "tensorShape": {"dim": [{"size": "1"}, {"size": "1"}, {"size": "256"}, {"size": "1024"}]}}}}, "name": "res4b28_branch2c/merged_input", "op": "Const"}, {"attr": {"dtype": {"type": "DT_FLOAT"}, "value": {"tensor": {"dtype": "DT_FLOAT", "tensorShape": {"dim": [{"size": "1"}, {"size": "1"}, {"size": "1"}, {"size": "256"}]}}}}, "name": "bn4b28_branch2b/sub", "op": "Const"}, {"attr": {"dtype": {"type": "DT_FLOAT"}, "value": {"tensor": {"dtype": "DT_FLOAT", "tensorShape": {"dim": [{"size": "3"}, {"size": "3"}, {"size": "256"}, {"size": "256"}]}}}}, "name": "res4b28_branch2b/merged_input", "op": "Const"}, {"attr": {"dtype": {"type": "DT_FLOAT"}, "value": {"tensor": {"dtype": "DT_FLOAT", "tensorShape": {"dim": [{"size": "1"}, {"size": "1"}, {"size": "1"}, {"size": "256"}]}}}}, "name": "bn4b28_branch2a/sub", "op": "Const"}, {"attr": {"dtype": {"type": "DT_FLOAT"}, "value": {"tensor": {"dtype": "DT_FLOAT", "tensorShape": {"dim": [{"size": "1"}, {"size": "1"}, {"size": "1024"}, {"size": "256"}]}}}}, "name": "res4b28_branch2a/merged_input", "op": "Const"}, {"attr": {"dtype": {"type": "DT_FLOAT"}, "value": {"tensor": {"dtype": "DT_FLOAT", "tensorShape": {"dim": [{"size": "1"}, {"size": "1"}, {"size": "1"}, {"size": "1024"}]}}}}, "name": "bn4b29_branch2c/sub", "op": "Const"}, {"attr": {"dtype": {"type": "DT_FLOAT"}, "value": {"tensor": {"dtype": "DT_FLOAT", "tensorShape": {"dim": [{"size": "1"}, {"size": "1"}, {"size": "256"}, {"size": "1024"}]}}}}, "name": "res4b29_branch2c/merged_input", "op": "Const"}, {"attr": {"dtype": {"type": "DT_FLOAT"}, "value": {"tensor": {"dtype": "DT_FLOAT", "tensorShape": {"dim": [{"size": "1"}, {"size": "1"}, {"size": "1"}, {"size": "256"}]}}}}, "name": "bn4b29_branch2b/sub", "op": "Const"}, {"attr": {"dtype": {"type": "DT_FLOAT"}, "value": {"tensor": {"dtype": "DT_FLOAT", "tensorShape": {"dim": [{"size": "3"}, {"size": "3"}, {"size": "256"}, {"size": "256"}]}}}}, "name": "res4b29_branch2b/merged_input", "op": "Const"}, {"attr": {"dtype": {"type": "DT_FLOAT"}, "value": {"tensor": {"dtype": "DT_FLOAT", "tensorShape": {"dim": [{"size": "1"}, {"size": "1"}, {"size": "1"}, {"size": "256"}]}}}}, "name": "bn4b29_branch2a/sub", "op": "Const"}, {"attr": {"dtype": {"type": "DT_FLOAT"}, "value": {"tensor": {"dtype": "DT_FLOAT", "tensorShape": {"dim": [{"size": "1"}, {"size": "1"}, {"size": "1024"}, {"size": "256"}]}}}}, "name": "res4b29_branch2a/merged_input", "op": "Const"}, {"attr": {"dtype": {"type": "DT_FLOAT"}, "value": {"tensor": {"dtype": "DT_FLOAT", "tensorShape": {"dim": [{"size": "1"}, {"size": "1"}, {"size": "1"}, {"size": "1024"}]}}}}, "name": "bn4b30_branch2c/sub", "op": "Const"}, {"attr": {"dtype": {"type": "DT_FLOAT"}, "value": {"tensor": {"dtype": "DT_FLOAT", "tensorShape": {"dim": [{"size": "1"}, {"size": "1"}, {"size": "256"}, {"size": "1024"}]}}}}, "name": "res4b30_branch2c/merged_input", "op": "Const"}, {"attr": {"dtype": {"type": "DT_FLOAT"}, "value": {"tensor": {"dtype": "DT_FLOAT", "tensorShape": {"dim": [{"size": "1"}, {"size": "1"}, {"size": "1"}, {"size": "256"}]}}}}, "name": "bn4b30_branch2b/sub", "op": "Const"}, {"attr": {"dtype": {"type": "DT_FLOAT"}, "value": {"tensor": {"dtype": "DT_FLOAT", "tensorShape": {"dim": [{"size": "3"}, {"size": "3"}, {"size": "256"}, {"size": "256"}]}}}}, "name": "res4b30_branch2b/merged_input", "op": "Const"}, {"attr": {"dtype": {"type": "DT_FLOAT"}, "value": {"tensor": {"dtype": "DT_FLOAT", "tensorShape": {"dim": [{"size": "1"}, {"size": "1"}, {"size": "1"}, {"size": "256"}]}}}}, "name": "bn4b30_branch2a/sub", "op": "Const"}, {"attr": {"dtype": {"type": "DT_FLOAT"}, "value": {"tensor": {"dtype": "DT_FLOAT", "tensorShape": {"dim": [{"size": "1"}, {"size": "1"}, {"size": "1024"}, {"size": "256"}]}}}}, "name": "res4b30_branch2a/merged_input", "op": "Const"}, {"attr": {"dtype": {"type": "DT_FLOAT"}, "value": {"tensor": {"dtype": "DT_FLOAT", "tensorShape": {"dim": [{"size": "1"}, {"size": "1"}, {"size": "1"}, {"size": "1024"}]}}}}, "name": "bn4b31_branch2c/sub", "op": "Const"}, {"attr": {"dtype": {"type": "DT_FLOAT"}, "value": {"tensor": {"dtype": "DT_FLOAT", "tensorShape": {"dim": [{"size": "1"}, {"size": "1"}, {"size": "256"}, {"size": "1024"}]}}}}, "name": "res4b31_branch2c/merged_input", "op": "Const"}, {"attr": {"dtype": {"type": "DT_FLOAT"}, "value": {"tensor": {"dtype": "DT_FLOAT", "tensorShape": {"dim": [{"size": "1"}, {"size": "1"}, {"size": "1"}, {"size": "256"}]}}}}, "name": "bn4b31_branch2b/sub", "op": "Const"}, {"attr": {"dtype": {"type": "DT_FLOAT"}, "value": {"tensor": {"dtype": "DT_FLOAT", "tensorShape": {"dim": [{"size": "3"}, {"size": "3"}, {"size": "256"}, {"size": "256"}]}}}}, "name": "res4b31_branch2b/merged_input", "op": "Const"}, {"attr": {"dtype": {"type": "DT_FLOAT"}, "value": {"tensor": {"dtype": "DT_FLOAT", "tensorShape": {"dim": [{"size": "1"}, {"size": "1"}, {"size": "1"}, {"size": "256"}]}}}}, "name": "bn4b31_branch2a/sub", "op": "Const"}, {"attr": {"dtype": {"type": "DT_FLOAT"}, "value": {"tensor": {"dtype": "DT_FLOAT", "tensorShape": {"dim": [{"size": "1"}, {"size": "1"}, {"size": "1024"}, {"size": "256"}]}}}}, "name": "res4b31_branch2a/merged_input", "op": "Const"}, {"attr": {"dtype": {"type": "DT_FLOAT"}, "value": {"tensor": {"dtype": "DT_FLOAT", "tensorShape": {"dim": [{"size": "1"}, {"size": "1"}, {"size": "1"}, {"size": "1024"}]}}}}, "name": "bn4b32_branch2c/sub", "op": "Const"}, {"attr": {"dtype": {"type": "DT_FLOAT"}, "value": {"tensor": {"dtype": "DT_FLOAT", "tensorShape": {"dim": [{"size": "1"}, {"size": "1"}, {"size": "256"}, {"size": "1024"}]}}}}, "name": "res4b32_branch2c/merged_input", "op": "Const"}, {"attr": {"dtype": {"type": "DT_FLOAT"}, "value": {"tensor": {"dtype": "DT_FLOAT", "tensorShape": {"dim": [{"size": "1"}, {"size": "1"}, {"size": "1"}, {"size": "256"}]}}}}, "name": "bn4b32_branch2b/sub", "op": "Const"}, {"attr": {"dtype": {"type": "DT_FLOAT"}, "value": {"tensor": {"dtype": "DT_FLOAT", "tensorShape": {"dim": [{"size": "3"}, {"size": "3"}, {"size": "256"}, {"size": "256"}]}}}}, "name": "res4b32_branch2b/merged_input", "op": "Const"}, {"attr": {"dtype": {"type": "DT_FLOAT"}, "value": {"tensor": {"dtype": "DT_FLOAT", "tensorShape": {"dim": [{"size": "1"}, {"size": "1"}, {"size": "1"}, {"size": "256"}]}}}}, "name": "bn4b32_branch2a/sub", "op": "Const"}, {"attr": {"dtype": {"type": "DT_FLOAT"}, "value": {"tensor": {"dtype": "DT_FLOAT", "tensorShape": {"dim": [{"size": "1"}, {"size": "1"}, {"size": "1024"}, {"size": "256"}]}}}}, "name": "res4b32_branch2a/merged_input", "op": "Const"}, {"attr": {"dtype": {"type": "DT_FLOAT"}, "value": {"tensor": {"dtype": "DT_FLOAT", "tensorShape": {"dim": [{"size": "1"}, {"size": "1"}, {"size": "1"}, {"size": "1024"}]}}}}, "name": "bn4b33_branch2c/sub", "op": "Const"}, {"attr": {"dtype": {"type": "DT_FLOAT"}, "value": {"tensor": {"dtype": "DT_FLOAT", "tensorShape": {"dim": [{"size": "1"}, {"size": "1"}, {"size": "256"}, {"size": "1024"}]}}}}, "name": "res4b33_branch2c/merged_input", "op": "Const"}, {"attr": {"dtype": {"type": "DT_FLOAT"}, "value": {"tensor": {"dtype": "DT_FLOAT", "tensorShape": {"dim": [{"size": "1"}, {"size": "1"}, {"size": "1"}, {"size": "256"}]}}}}, "name": "bn4b33_branch2b/sub", "op": "Const"}, {"attr": {"dtype": {"type": "DT_FLOAT"}, "value": {"tensor": {"dtype": "DT_FLOAT", "tensorShape": {"dim": [{"size": "3"}, {"size": "3"}, {"size": "256"}, {"size": "256"}]}}}}, "name": "res4b33_branch2b/merged_input", "op": "Const"}, {"attr": {"dtype": {"type": "DT_FLOAT"}, "value": {"tensor": {"dtype": "DT_FLOAT", "tensorShape": {"dim": [{"size": "1"}, {"size": "1"}, {"size": "1"}, {"size": "256"}]}}}}, "name": "bn4b33_branch2a/sub", "op": "Const"}, {"attr": {"dtype": {"type": "DT_FLOAT"}, "value": {"tensor": {"dtype": "DT_FLOAT", "tensorShape": {"dim": [{"size": "1"}, {"size": "1"}, {"size": "1024"}, {"size": "256"}]}}}}, "name": "res4b33_branch2a/merged_input", "op": "Const"}, {"attr": {"dtype": {"type": "DT_FLOAT"}, "value": {"tensor": {"dtype": "DT_FLOAT", "tensorShape": {"dim": [{"size": "1"}, {"size": "1"}, {"size": "1"}, {"size": "1024"}]}}}}, "name": "bn4b34_branch2c/sub", "op": "Const"}, {"attr": {"dtype": {"type": "DT_FLOAT"}, "value": {"tensor": {"dtype": "DT_FLOAT", "tensorShape": {"dim": [{"size": "1"}, {"size": "1"}, {"size": "256"}, {"size": "1024"}]}}}}, "name": "res4b34_branch2c/merged_input", "op": "Const"}, {"attr": {"dtype": {"type": "DT_FLOAT"}, "value": {"tensor": {"dtype": "DT_FLOAT", "tensorShape": {"dim": [{"size": "1"}, {"size": "1"}, {"size": "1"}, {"size": "256"}]}}}}, "name": "bn4b34_branch2b/sub", "op": "Const"}, {"attr": {"dtype": {"type": "DT_FLOAT"}, "value": {"tensor": {"dtype": "DT_FLOAT", "tensorShape": {"dim": [{"size": "3"}, {"size": "3"}, {"size": "256"}, {"size": "256"}]}}}}, "name": "res4b34_branch2b/merged_input", "op": "Const"}, {"attr": {"dtype": {"type": "DT_FLOAT"}, "value": {"tensor": {"dtype": "DT_FLOAT", "tensorShape": {"dim": [{"size": "1"}, {"size": "1"}, {"size": "1"}, {"size": "256"}]}}}}, "name": "bn4b34_branch2a/sub", "op": "Const"}, {"attr": {"dtype": {"type": "DT_FLOAT"}, "value": {"tensor": {"dtype": "DT_FLOAT", "tensorShape": {"dim": [{"size": "1"}, {"size": "1"}, {"size": "1024"}, {"size": "256"}]}}}}, "name": "res4b34_branch2a/merged_input", "op": "Const"}, {"attr": {"dtype": {"type": "DT_FLOAT"}, "value": {"tensor": {"dtype": "DT_FLOAT", "tensorShape": {"dim": [{"size": "1"}, {"size": "1"}, {"size": "1"}, {"size": "1024"}]}}}}, "name": "bn4b35_branch2c/sub", "op": "Const"}, {"attr": {"dtype": {"type": "DT_FLOAT"}, "value": {"tensor": {"dtype": "DT_FLOAT", "tensorShape": {"dim": [{"size": "1"}, {"size": "1"}, {"size": "256"}, {"size": "1024"}]}}}}, "name": "res4b35_branch2c/merged_input", "op": "Const"}, {"attr": {"dtype": {"type": "DT_FLOAT"}, "value": {"tensor": {"dtype": "DT_FLOAT", "tensorShape": {"dim": [{"size": "1"}, {"size": "1"}, {"size": "1"}, {"size": "256"}]}}}}, "name": "bn4b35_branch2b/sub", "op": "Const"}, {"attr": {"dtype": {"type": "DT_FLOAT"}, "value": {"tensor": {"dtype": "DT_FLOAT", "tensorShape": {"dim": [{"size": "3"}, {"size": "3"}, {"size": "256"}, {"size": "256"}]}}}}, "name": "res4b35_branch2b/merged_input", "op": "Const"}, {"attr": {"dtype": {"type": "DT_FLOAT"}, "value": {"tensor": {"dtype": "DT_FLOAT", "tensorShape": {"dim": [{"size": "1"}, {"size": "1"}, {"size": "1"}, {"size": "256"}]}}}}, "name": "bn4b35_branch2a/sub", "op": "Const"}, {"attr": {"dtype": {"type": "DT_FLOAT"}, "value": {"tensor": {"dtype": "DT_FLOAT", "tensorShape": {"dim": [{"size": "1"}, {"size": "1"}, {"size": "1024"}, {"size": "256"}]}}}}, "name": "res4b35_branch2a/merged_input", "op": "Const"}, {"attr": {"dtype": {"type": "DT_FLOAT"}, "value": {"tensor": {"dtype": "DT_FLOAT", "tensorShape": {"dim": [{"size": "1"}, {"size": "1"}, {"size": "1"}, {"size": "2048"}]}}}}, "name": "bn5a_branch1/sub", "op": "Const"}, {"attr": {"dtype": {"type": "DT_FLOAT"}, "value": {"tensor": {"dtype": "DT_FLOAT", "tensorShape": {"dim": [{"size": "1"}, {"size": "1"}, {"size": "1024"}, {"size": "2048"}]}}}}, "name": "res5a_branch1/merged_input", "op": "Const"}, {"attr": {"dtype": {"type": "DT_FLOAT"}, "value": {"tensor": {"dtype": "DT_FLOAT", "tensorShape": {"dim": [{"size": "1"}, {"size": "1"}, {"size": "1"}, {"size": "2048"}]}}}}, "name": "bn5b_branch2c/sub", "op": "Const"}, {"attr": {"dtype": {"type": "DT_FLOAT"}, "value": {"tensor": {"dtype": "DT_FLOAT", "tensorShape": {"dim": [{"size": "1"}, {"size": "1"}, {"size": "512"}, {"size": "2048"}]}}}}, "name": "res5b_branch2c/merged_input", "op": "Const"}, {"attr": {"dtype": {"type": "DT_FLOAT"}, "value": {"tensor": {"dtype": "DT_FLOAT", "tensorShape": {"dim": [{"size": "1"}, {"size": "1"}, {"size": "1"}, {"size": "512"}]}}}}, "name": "bn5b_branch2b/sub", "op": "Const"}, {"attr": {"dtype": {"type": "DT_FLOAT"}, "value": {"tensor": {"dtype": "DT_FLOAT", "tensorShape": {"dim": [{"size": "3"}, {"size": "3"}, {"size": "512"}, {"size": "512"}]}}}}, "name": "res5b_branch2b/merged_input", "op": "Const"}, {"attr": {"dtype": {"type": "DT_FLOAT"}, "value": {"tensor": {"dtype": "DT_FLOAT", "tensorShape": {"dim": [{"size": "1"}, {"size": "1"}, {"size": "1"}, {"size": "512"}]}}}}, "name": "bn5b_branch2a/sub", "op": "Const"}, {"attr": {"dtype": {"type": "DT_FLOAT"}, "value": {"tensor": {"dtype": "DT_FLOAT", "tensorShape": {"dim": [{"size": "1"}, {"size": "1"}, {"size": "2048"}, {"size": "512"}]}}}}, "name": "res5b_branch2a/merged_input", "op": "Const"}, {"attr": {"dtype": {"type": "DT_FLOAT"}, "value": {"tensor": {"dtype": "DT_FLOAT", "tensorShape": {"dim": [{"size": "1"}, {"size": "1"}, {"size": "1"}, {"size": "2048"}]}}}}, "name": "bn5c_branch2c/sub", "op": "Const"}, {"attr": {"dtype": {"type": "DT_FLOAT"}, "value": {"tensor": {"dtype": "DT_FLOAT", "tensorShape": {"dim": [{"size": "1"}, {"size": "1"}, {"size": "512"}, {"size": "2048"}]}}}}, "name": "res5c_branch2c/merged_input", "op": "Const"}, {"attr": {"dtype": {"type": "DT_FLOAT"}, "value": {"tensor": {"dtype": "DT_FLOAT", "tensorShape": {"dim": [{"size": "1"}, {"size": "1"}, {"size": "1"}, {"size": "512"}]}}}}, "name": "bn5c_branch2b/sub", "op": "Const"}, {"attr": {"dtype": {"type": "DT_FLOAT"}, "value": {"tensor": {"dtype": "DT_FLOAT", "tensorShape": {"dim": [{"size": "3"}, {"size": "3"}, {"size": "512"}, {"size": "512"}]}}}}, "name": "res5c_branch2b/merged_input", "op": "Const"}, {"attr": {"dtype": {"type": "DT_FLOAT"}, "value": {"tensor": {"dtype": "DT_FLOAT", "tensorShape": {"dim": [{"size": "1"}, {"size": "1"}, {"size": "1"}, {"size": "512"}]}}}}, "name": "bn5c_branch2a/sub", "op": "Const"}, {"attr": {"dtype": {"type": "DT_FLOAT"}, "value": {"tensor": {"dtype": "DT_FLOAT", "tensorShape": {"dim": [{"size": "1"}, {"size": "1"}, {"size": "2048"}, {"size": "512"}]}}}}, "name": "res5c_branch2a/merged_input", "op": "Const"}, {"input": ["data", "Pad/paddings"], "attr": {"Tpaddings": {"type": "DT_INT32"}, "T": {"type": "DT_FLOAT"}}, "name": "Pad", "op": "Pad"}, {"input": ["Pad", "conv1/merged_input"], "attr": {"explicit_paddings": {"list": {}}, "data_format": {"s": "TkhXQw=="}, "use_cudnn_on_gpu": {"b": true}, "padding": {"s": "VkFMSUQ="}, "strides": {"list": {"i": ["1", "2", "2", "1"]}}, "T": {"type": "DT_FLOAT"}, "dilations": {"list": {"i": ["1", "1", "1", "1"]}}}, "name": "bn_conv1/mul_1", "op": "Conv2D"}, {"input": ["bn_conv1/mul_1", "bn_conv1/sub"], "attr": {"T": {"type": "DT_FLOAT"}}, "name": "bn_conv1/add_1", "op": "Add"}, {"input": ["bn_conv1/add_1"], "attr": {"T": {"type": "DT_FLOAT"}}, "name": "conv1_relu", "op": "Relu"}, {"input": ["conv1_relu", "PadV2/paddings", "PadV2/constant_values"], "attr": {"Tpaddings": {"type": "DT_INT32"}, "T": {"type": "DT_FLOAT"}}, "name": "PadV2", "op": "PadV2"}, {"input": ["PadV2"], "attr": {"padding": {"s": "VkFMSUQ="}, "strides": {"list": {"i": ["1", "2", "2", "1"]}}, "data_format": {"s": "TkhXQw=="}, "ksize": {"list": {"i": ["1", "3", "3", "1"]}}, "T": {"type": "DT_FLOAT"}}, "name": "pool1", "op": "MaxPool"}, {"input": ["pool1", "res2a_branch2a/merged_input"], "attr": {"explicit_paddings": {"list": {}}, "data_format": {"s": "TkhXQw=="}, "use_cudnn_on_gpu": {"b": true}, "padding": {"s": "VkFMSUQ="}, "strides": {"list": {"i": ["1", "1", "1", "1"]}}, "T": {"type": "DT_FLOAT"}, "dilations": {"list": {"i": ["1", "1", "1", "1"]}}}, "name": "bn2a_branch2a/mul_1", "op": "Conv2D"}, {"input": ["pool1", "res2a_branch1/merged_input"], "attr": {"explicit_paddings": {"list": {}}, "data_format": {"s": "TkhXQw=="}, "use_cudnn_on_gpu": {"b": true}, "padding": {"s": "VkFMSUQ="}, "strides": {"list": {"i": ["1", "1", "1", "1"]}}, "T": {"type": "DT_FLOAT"}, "dilations": {"list": {"i": ["1", "1", "1", "1"]}}}, "name": "bn2a_branch1/mul_1", "op": "Conv2D"}, {"input": ["bn2a_branch2a/mul_1", "bn2a_branch2a/sub"], "attr": {"T": {"type": "DT_FLOAT"}}, "name": "bn2a_branch2a/add_1", "op": "Add"}, {"input": ["bn2a_branch1/mul_1", "bn2a_branch1/sub"], "attr": {"T": {"type": "DT_FLOAT"}}, "name": "bn2a_branch1/add_1", "op": "Add"}, {"input": ["bn2a_branch2a/add_1"], "attr": {"T": {"type": "DT_FLOAT"}}, "name": "res2a_branch2a_relu", "op": "Relu"}, {"input": ["res2a_branch2a_relu", "Pad_1/paddings"], "attr": {"Tpaddings": {"type": "DT_INT32"}, "T": {"type": "DT_FLOAT"}}, "name": "Pad_1", "op": "Pad"}, {"input": ["Pad_1", "res2a_branch2b/merged_input"], "attr": {"explicit_paddings": {"list": {}}, "data_format": {"s": "TkhXQw=="}, "use_cudnn_on_gpu": {"b": true}, "padding": {"s": "VkFMSUQ="}, "strides": {"list": {"i": ["1", "1", "1", "1"]}}, "T": {"type": "DT_FLOAT"}, "dilations": {"list": {"i": ["1", "1", "1", "1"]}}}, "name": "bn2a_branch2b/mul_1", "op": "Conv2D"}, {"input": ["bn2a_branch2b/mul_1", "bn2a_branch2b/sub"], "attr": {"T": {"type": "DT_FLOAT"}}, "name": "bn2a_branch2b/add_1", "op": "Add"}, {"input": ["bn2a_branch2b/add_1"], "attr": {"T": {"type": "DT_FLOAT"}}, "name": "res2a_branch2b_relu", "op": "Relu"}, {"input": ["res2a_branch2b_relu", "res2a_branch2c/merged_input"], "attr": {"explicit_paddings": {"list": {}}, "data_format": {"s": "TkhXQw=="}, "use_cudnn_on_gpu": {"b": true}, "padding": {"s": "VkFMSUQ="}, "strides": {"list": {"i": ["1", "1", "1", "1"]}}, "T": {"type": "DT_FLOAT"}, "dilations": {"list": {"i": ["1", "1", "1", "1"]}}}, "name": "bn2a_branch2c/mul_1", "op": "Conv2D"}, {"input": ["bn2a_branch2c/mul_1", "bn2a_branch2c/sub"], "attr": {"T": {"type": "DT_FLOAT"}}, "name": "bn2a_branch2c/add_1", "op": "Add"}, {"input": ["bn2a_branch1/add_1", "bn2a_branch2c/add_1"], "attr": {"T": {"type": "DT_FLOAT"}}, "name": "add", "op": "Add"}, {"input": ["add"], "attr": {"T": {"type": "DT_FLOAT"}}, "name": "res2a_relu", "op": "Relu"}, {"input": ["res2a_relu", "res2b_branch2a/merged_input"], "attr": {"explicit_paddings": {"list": {}}, "data_format": {"s": "TkhXQw=="}, "use_cudnn_on_gpu": {"b": true}, "padding": {"s": "VkFMSUQ="}, "strides": {"list": {"i": ["1", "1", "1", "1"]}}, "T": {"type": "DT_FLOAT"}, "dilations": {"list": {"i": ["1", "1", "1", "1"]}}}, "name": "bn2b_branch2a/mul_1", "op": "Conv2D"}, {"input": ["bn2b_branch2a/mul_1", "bn2b_branch2a/sub"], "attr": {"T": {"type": "DT_FLOAT"}}, "name": "bn2b_branch2a/add_1", "op": "Add"}, {"input": ["bn2b_branch2a/add_1"], "attr": {"T": {"type": "DT_FLOAT"}}, "name": "res2b_branch2a_relu", "op": "Relu"}, {"input": ["res2b_branch2a_relu", "Pad_1/paddings"], "attr": {"Tpaddings": {"type": "DT_INT32"}, "T": {"type": "DT_FLOAT"}}, "name": "Pad_2", "op": "Pad"}, {"input": ["Pad_2", "res2b_branch2b/merged_input"], "attr": {"explicit_paddings": {"list": {}}, "data_format": {"s": "TkhXQw=="}, "use_cudnn_on_gpu": {"b": true}, "padding": {"s": "VkFMSUQ="}, "strides": {"list": {"i": ["1", "1", "1", "1"]}}, "T": {"type": "DT_FLOAT"}, "dilations": {"list": {"i": ["1", "1", "1", "1"]}}}, "name": "bn2b_branch2b/mul_1", "op": "Conv2D"}, {"input": ["bn2b_branch2b/mul_1", "bn2b_branch2b/sub"], "attr": {"T": {"type": "DT_FLOAT"}}, "name": "bn2b_branch2b/add_1", "op": "Add"}, {"input": ["bn2b_branch2b/add_1"], "attr": {"T": {"type": "DT_FLOAT"}}, "name": "res2b_branch2b_relu", "op": "Relu"}, {"input": ["res2b_branch2b_relu", "res2b_branch2c/merged_input"], "attr": {"explicit_paddings": {"list": {}}, "data_format": {"s": "TkhXQw=="}, "use_cudnn_on_gpu": {"b": true}, "padding": {"s": "VkFMSUQ="}, "strides": {"list": {"i": ["1", "1", "1", "1"]}}, "T": {"type": "DT_FLOAT"}, "dilations": {"list": {"i": ["1", "1", "1", "1"]}}}, "name": "bn2b_branch2c/mul_1", "op": "Conv2D"}, {"input": ["bn2b_branch2c/mul_1", "bn2b_branch2c/sub"], "attr": {"T": {"type": "DT_FLOAT"}}, "name": "bn2b_branch2c/add_1", "op": "Add"}, {"input": ["bn2b_branch2c/add_1", "res2a_relu"], "attr": {"T": {"type": "DT_FLOAT"}}, "name": "add_1", "op": "Add"}, {"input": ["add_1"], "attr": {"T": {"type": "DT_FLOAT"}}, "name": "res2b_relu", "op": "Relu"}, {"input": ["res2b_relu", "res2c_branch2a/merged_input"], "attr": {"explicit_paddings": {"list": {}}, "data_format": {"s": "TkhXQw=="}, "use_cudnn_on_gpu": {"b": true}, "padding": {"s": "VkFMSUQ="}, "strides": {"list": {"i": ["1", "1", "1", "1"]}}, "T": {"type": "DT_FLOAT"}, "dilations": {"list": {"i": ["1", "1", "1", "1"]}}}, "name": "bn2c_branch2a/mul_1", "op": "Conv2D"}, {"input": ["bn2c_branch2a/mul_1", "bn2c_branch2a/sub"], "attr": {"T": {"type": "DT_FLOAT"}}, "name": "bn2c_branch2a/add_1", "op": "Add"}, {"input": ["bn2c_branch2a/add_1"], "attr": {"T": {"type": "DT_FLOAT"}}, "name": "res2c_branch2a_relu", "op": "Relu"}, {"input": ["res2c_branch2a_relu", "Pad_1/paddings"], "attr": {"Tpaddings": {"type": "DT_INT32"}, "T": {"type": "DT_FLOAT"}}, "name": "Pad_3", "op": "Pad"}, {"input": ["Pad_3", "res2c_branch2b/merged_input"], "attr": {"explicit_paddings": {"list": {}}, "data_format": {"s": "TkhXQw=="}, "use_cudnn_on_gpu": {"b": true}, "padding": {"s": "VkFMSUQ="}, "strides": {"list": {"i": ["1", "1", "1", "1"]}}, "T": {"type": "DT_FLOAT"}, "dilations": {"list": {"i": ["1", "1", "1", "1"]}}}, "name": "bn2c_branch2b/mul_1", "op": "Conv2D"}, {"input": ["bn2c_branch2b/mul_1", "bn2c_branch2b/sub"], "attr": {"T": {"type": "DT_FLOAT"}}, "name": "bn2c_branch2b/add_1", "op": "Add"}, {"input": ["bn2c_branch2b/add_1"], "attr": {"T": {"type": "DT_FLOAT"}}, "name": "res2c_branch2b_relu", "op": "Relu"}, {"input": ["res2c_branch2b_relu", "res2c_branch2c/merged_input"], "attr": {"explicit_paddings": {"list": {}}, "data_format": {"s": "TkhXQw=="}, "use_cudnn_on_gpu": {"b": true}, "padding": {"s": "VkFMSUQ="}, "strides": {"list": {"i": ["1", "1", "1", "1"]}}, "T": {"type": "DT_FLOAT"}, "dilations": {"list": {"i": ["1", "1", "1", "1"]}}}, "name": "bn2c_branch2c/mul_1", "op": "Conv2D"}, {"input": ["bn2c_branch2c/mul_1", "bn2c_branch2c/sub"], "attr": {"T": {"type": "DT_FLOAT"}}, "name": "bn2c_branch2c/add_1", "op": "Add"}, {"input": ["bn2c_branch2c/add_1", "res2b_relu"], "attr": {"T": {"type": "DT_FLOAT"}}, "name": "add_2", "op": "Add"}, {"input": ["add_2"], "attr": {"T": {"type": "DT_FLOAT"}}, "name": "res2c_relu", "op": "Relu"}, {"input": ["res2c_relu", "res3a_branch2a/merged_input"], "attr": {"explicit_paddings": {"list": {}}, "data_format": {"s": "TkhXQw=="}, "use_cudnn_on_gpu": {"b": true}, "padding": {"s": "VkFMSUQ="}, "strides": {"list": {"i": ["1", "2", "2", "1"]}}, "T": {"type": "DT_FLOAT"}, "dilations": {"list": {"i": ["1", "1", "1", "1"]}}}, "name": "bn3a_branch2a/mul_1", "op": "Conv2D"}, {"input": ["res2c_relu", "res3a_branch1/merged_input"], "attr": {"explicit_paddings": {"list": {}}, "data_format": {"s": "TkhXQw=="}, "use_cudnn_on_gpu": {"b": true}, "padding": {"s": "VkFMSUQ="}, "strides": {"list": {"i": ["1", "2", "2", "1"]}}, "T": {"type": "DT_FLOAT"}, "dilations": {"list": {"i": ["1", "1", "1", "1"]}}}, "name": "bn3a_branch1/mul_1", "op": "Conv2D"}, {"input": ["bn3a_branch2a/mul_1", "bn3a_branch2a/sub"], "attr": {"T": {"type": "DT_FLOAT"}}, "name": "bn3a_branch2a/add_1", "op": "Add"}, {"input": ["bn3a_branch1/mul_1", "bn3a_branch1/sub"], "attr": {"T": {"type": "DT_FLOAT"}}, "name": "bn3a_branch1/add_1", "op": "Add"}, {"input": ["bn3a_branch2a/add_1"], "attr": {"T": {"type": "DT_FLOAT"}}, "name": "res3a_branch2a_relu", "op": "Relu"}, {"input": ["res3a_branch2a_relu", "Pad_1/paddings"], "attr": {"Tpaddings": {"type": "DT_INT32"}, "T": {"type": "DT_FLOAT"}}, "name": "Pad_4", "op": "Pad"}, {"input": ["Pad_4", "res3a_branch2b/merged_input"], "attr": {"explicit_paddings": {"list": {}}, "data_format": {"s": "TkhXQw=="}, "use_cudnn_on_gpu": {"b": true}, "padding": {"s": "VkFMSUQ="}, "strides": {"list": {"i": ["1", "1", "1", "1"]}}, "T": {"type": "DT_FLOAT"}, "dilations": {"list": {"i": ["1", "1", "1", "1"]}}}, "name": "bn3a_branch2b/mul_1", "op": "Conv2D"}, {"input": ["bn3a_branch2b/mul_1", "bn3a_branch2b/sub"], "attr": {"T": {"type": "DT_FLOAT"}}, "name": "bn3a_branch2b/add_1", "op": "Add"}, {"input": ["bn3a_branch2b/add_1"], "attr": {"T": {"type": "DT_FLOAT"}}, "name": "res3a_branch2b_relu", "op": "Relu"}, {"input": ["res3a_branch2b_relu", "res3a_branch2c/merged_input"], "attr": {"explicit_paddings": {"list": {}}, "data_format": {"s": "TkhXQw=="}, "use_cudnn_on_gpu": {"b": true}, "padding": {"s": "VkFMSUQ="}, "strides": {"list": {"i": ["1", "1", "1", "1"]}}, "T": {"type": "DT_FLOAT"}, "dilations": {"list": {"i": ["1", "1", "1", "1"]}}}, "name": "bn3a_branch2c/mul_1", "op": "Conv2D"}, {"input": ["bn3a_branch2c/mul_1", "bn3a_branch2c/sub"], "attr": {"T": {"type": "DT_FLOAT"}}, "name": "bn3a_branch2c/add_1", "op": "Add"}, {"input": ["bn3a_branch1/add_1", "bn3a_branch2c/add_1"], "attr": {"T": {"type": "DT_FLOAT"}}, "name": "add_3", "op": "Add"}, {"input": ["add_3"], "attr": {"T": {"type": "DT_FLOAT"}}, "name": "res3a_relu", "op": "Relu"}, {"input": ["res3a_relu", "res3b1_branch2a/merged_input"], "attr": {"explicit_paddings": {"list": {}}, "data_format": {"s": "TkhXQw=="}, "use_cudnn_on_gpu": {"b": true}, "padding": {"s": "VkFMSUQ="}, "strides": {"list": {"i": ["1", "1", "1", "1"]}}, "T": {"type": "DT_FLOAT"}, "dilations": {"list": {"i": ["1", "1", "1", "1"]}}}, "name": "bn3b1_branch2a/mul_1", "op": "Conv2D"}, {"input": ["bn3b1_branch2a/mul_1", "bn3b1_branch2a/sub"], "attr": {"T": {"type": "DT_FLOAT"}}, "name": "bn3b1_branch2a/add_1", "op": "Add"}, {"input": ["bn3b1_branch2a/add_1"], "attr": {"T": {"type": "DT_FLOAT"}}, "name": "res3b1_branch2a_relu", "op": "Relu"}, {"input": ["res3b1_branch2a_relu", "Pad_1/paddings"], "attr": {"Tpaddings": {"type": "DT_INT32"}, "T": {"type": "DT_FLOAT"}}, "name": "Pad_5", "op": "Pad"}, {"input": ["Pad_5", "res3b1_branch2b/merged_input"], "attr": {"explicit_paddings": {"list": {}}, "data_format": {"s": "TkhXQw=="}, "use_cudnn_on_gpu": {"b": true}, "padding": {"s": "VkFMSUQ="}, "strides": {"list": {"i": ["1", "1", "1", "1"]}}, "T": {"type": "DT_FLOAT"}, "dilations": {"list": {"i": ["1", "1", "1", "1"]}}}, "name": "bn3b1_branch2b/mul_1", "op": "Conv2D"}, {"input": ["bn3b1_branch2b/mul_1", "bn3b1_branch2b/sub"], "attr": {"T": {"type": "DT_FLOAT"}}, "name": "bn3b1_branch2b/add_1", "op": "Add"}, {"input": ["bn3b1_branch2b/add_1"], "attr": {"T": {"type": "DT_FLOAT"}}, "name": "res3b1_branch2b_relu", "op": "Relu"}, {"input": ["res3b1_branch2b_relu", "res3b1_branch2c/merged_input"], "attr": {"explicit_paddings": {"list": {}}, "data_format": {"s": "TkhXQw=="}, "use_cudnn_on_gpu": {"b": true}, "padding": {"s": "VkFMSUQ="}, "strides": {"list": {"i": ["1", "1", "1", "1"]}}, "T": {"type": "DT_FLOAT"}, "dilations": {"list": {"i": ["1", "1", "1", "1"]}}}, "name": "bn3b1_branch2c/mul_1", "op": "Conv2D"}, {"input": ["bn3b1_branch2c/mul_1", "bn3b1_branch2c/sub"], "attr": {"T": {"type": "DT_FLOAT"}}, "name": "bn3b1_branch2c/add_1", "op": "Add"}, {"input": ["bn3b1_branch2c/add_1", "res3a_relu"], "attr": {"T": {"type": "DT_FLOAT"}}, "name": "add_4", "op": "Add"}, {"input": ["add_4"], "attr": {"T": {"type": "DT_FLOAT"}}, "name": "res3b1_relu", "op": "Relu"}, {"input": ["res3b1_relu", "res3b2_branch2a/merged_input"], "attr": {"explicit_paddings": {"list": {}}, "data_format": {"s": "TkhXQw=="}, "use_cudnn_on_gpu": {"b": true}, "padding": {"s": "VkFMSUQ="}, "strides": {"list": {"i": ["1", "1", "1", "1"]}}, "T": {"type": "DT_FLOAT"}, "dilations": {"list": {"i": ["1", "1", "1", "1"]}}}, "name": "bn3b2_branch2a/mul_1", "op": "Conv2D"}, {"input": ["bn3b2_branch2a/mul_1", "bn3b2_branch2a/sub"], "attr": {"T": {"type": "DT_FLOAT"}}, "name": "bn3b2_branch2a/add_1", "op": "Add"}, {"input": ["bn3b2_branch2a/add_1"], "attr": {"T": {"type": "DT_FLOAT"}}, "name": "res3b2_branch2a_relu", "op": "Relu"}, {"input": ["res3b2_branch2a_relu", "Pad_1/paddings"], "attr": {"Tpaddings": {"type": "DT_INT32"}, "T": {"type": "DT_FLOAT"}}, "name": "Pad_6", "op": "Pad"}, {"input": ["Pad_6", "res3b2_branch2b/merged_input"], "attr": {"explicit_paddings": {"list": {}}, "data_format": {"s": "TkhXQw=="}, "use_cudnn_on_gpu": {"b": true}, "padding": {"s": "VkFMSUQ="}, "strides": {"list": {"i": ["1", "1", "1", "1"]}}, "T": {"type": "DT_FLOAT"}, "dilations": {"list": {"i": ["1", "1", "1", "1"]}}}, "name": "bn3b2_branch2b/mul_1", "op": "Conv2D"}, {"input": ["bn3b2_branch2b/mul_1", "bn3b2_branch2b/sub"], "attr": {"T": {"type": "DT_FLOAT"}}, "name": "bn3b2_branch2b/add_1", "op": "Add"}, {"input": ["bn3b2_branch2b/add_1"], "attr": {"T": {"type": "DT_FLOAT"}}, "name": "res3b2_branch2b_relu", "op": "Relu"}, {"input": ["res3b2_branch2b_relu", "res3b2_branch2c/merged_input"], "attr": {"explicit_paddings": {"list": {}}, "data_format": {"s": "TkhXQw=="}, "use_cudnn_on_gpu": {"b": true}, "padding": {"s": "VkFMSUQ="}, "strides": {"list": {"i": ["1", "1", "1", "1"]}}, "T": {"type": "DT_FLOAT"}, "dilations": {"list": {"i": ["1", "1", "1", "1"]}}}, "name": "bn3b2_branch2c/mul_1", "op": "Conv2D"}, {"input": ["bn3b2_branch2c/mul_1", "bn3b2_branch2c/sub"], "attr": {"T": {"type": "DT_FLOAT"}}, "name": "bn3b2_branch2c/add_1", "op": "Add"}, {"input": ["bn3b2_branch2c/add_1", "res3b1_relu"], "attr": {"T": {"type": "DT_FLOAT"}}, "name": "add_5", "op": "Add"}, {"input": ["add_5"], "attr": {"T": {"type": "DT_FLOAT"}}, "name": "res3b2_relu", "op": "Relu"}, {"input": ["res3b2_relu", "res3b3_branch2a/merged_input"], "attr": {"explicit_paddings": {"list": {}}, "data_format": {"s": "TkhXQw=="}, "use_cudnn_on_gpu": {"b": true}, "padding": {"s": "VkFMSUQ="}, "strides": {"list": {"i": ["1", "1", "1", "1"]}}, "T": {"type": "DT_FLOAT"}, "dilations": {"list": {"i": ["1", "1", "1", "1"]}}}, "name": "bn3b3_branch2a/mul_1", "op": "Conv2D"}, {"input": ["bn3b3_branch2a/mul_1", "bn3b3_branch2a/sub"], "attr": {"T": {"type": "DT_FLOAT"}}, "name": "bn3b3_branch2a/add_1", "op": "Add"}, {"input": ["bn3b3_branch2a/add_1"], "attr": {"T": {"type": "DT_FLOAT"}}, "name": "res3b3_branch2a_relu", "op": "Relu"}, {"input": ["res3b3_branch2a_relu", "Pad_1/paddings"], "attr": {"Tpaddings": {"type": "DT_INT32"}, "T": {"type": "DT_FLOAT"}}, "name": "Pad_7", "op": "Pad"}, {"input": ["Pad_7", "res3b3_branch2b/merged_input"], "attr": {"explicit_paddings": {"list": {}}, "data_format": {"s": "TkhXQw=="}, "use_cudnn_on_gpu": {"b": true}, "padding": {"s": "VkFMSUQ="}, "strides": {"list": {"i": ["1", "1", "1", "1"]}}, "T": {"type": "DT_FLOAT"}, "dilations": {"list": {"i": ["1", "1", "1", "1"]}}}, "name": "bn3b3_branch2b/mul_1", "op": "Conv2D"}, {"input": ["bn3b3_branch2b/mul_1", "bn3b3_branch2b/sub"], "attr": {"T": {"type": "DT_FLOAT"}}, "name": "bn3b3_branch2b/add_1", "op": "Add"}, {"input": ["bn3b3_branch2b/add_1"], "attr": {"T": {"type": "DT_FLOAT"}}, "name": "res3b3_branch2b_relu", "op": "Relu"}, {"input": ["res3b3_branch2b_relu", "res3b3_branch2c/merged_input"], "attr": {"explicit_paddings": {"list": {}}, "data_format": {"s": "TkhXQw=="}, "use_cudnn_on_gpu": {"b": true}, "padding": {"s": "VkFMSUQ="}, "strides": {"list": {"i": ["1", "1", "1", "1"]}}, "T": {"type": "DT_FLOAT"}, "dilations": {"list": {"i": ["1", "1", "1", "1"]}}}, "name": "bn3b3_branch2c/mul_1", "op": "Conv2D"}, {"input": ["bn3b3_branch2c/mul_1", "bn3b3_branch2c/sub"], "attr": {"T": {"type": "DT_FLOAT"}}, "name": "bn3b3_branch2c/add_1", "op": "Add"}, {"input": ["bn3b3_branch2c/add_1", "res3b2_relu"], "attr": {"T": {"type": "DT_FLOAT"}}, "name": "add_6", "op": "Add"}, {"input": ["add_6"], "attr": {"T": {"type": "DT_FLOAT"}}, "name": "res3b3_relu", "op": "Relu"}, {"input": ["res3b3_relu", "res3b4_branch2a/merged_input"], "attr": {"explicit_paddings": {"list": {}}, "data_format": {"s": "TkhXQw=="}, "use_cudnn_on_gpu": {"b": true}, "padding": {"s": "VkFMSUQ="}, "strides": {"list": {"i": ["1", "1", "1", "1"]}}, "T": {"type": "DT_FLOAT"}, "dilations": {"list": {"i": ["1", "1", "1", "1"]}}}, "name": "bn3b4_branch2a/mul_1", "op": "Conv2D"}, {"input": ["bn3b4_branch2a/mul_1", "bn3b4_branch2a/sub"], "attr": {"T": {"type": "DT_FLOAT"}}, "name": "bn3b4_branch2a/add_1", "op": "Add"}, {"input": ["bn3b4_branch2a/add_1"], "attr": {"T": {"type": "DT_FLOAT"}}, "name": "res3b4_branch2a_relu", "op": "Relu"}, {"input": ["res3b4_branch2a_relu", "Pad_1/paddings"], "attr": {"Tpaddings": {"type": "DT_INT32"}, "T": {"type": "DT_FLOAT"}}, "name": "Pad_8", "op": "Pad"}, {"input": ["Pad_8", "res3b4_branch2b/merged_input"], "attr": {"explicit_paddings": {"list": {}}, "data_format": {"s": "TkhXQw=="}, "use_cudnn_on_gpu": {"b": true}, "padding": {"s": "VkFMSUQ="}, "strides": {"list": {"i": ["1", "1", "1", "1"]}}, "T": {"type": "DT_FLOAT"}, "dilations": {"list": {"i": ["1", "1", "1", "1"]}}}, "name": "bn3b4_branch2b/mul_1", "op": "Conv2D"}, {"input": ["bn3b4_branch2b/mul_1", "bn3b4_branch2b/sub"], "attr": {"T": {"type": "DT_FLOAT"}}, "name": "bn3b4_branch2b/add_1", "op": "Add"}, {"input": ["bn3b4_branch2b/add_1"], "attr": {"T": {"type": "DT_FLOAT"}}, "name": "res3b4_branch2b_relu", "op": "Relu"}, {"input": ["res3b4_branch2b_relu", "res3b4_branch2c/merged_input"], "attr": {"explicit_paddings": {"list": {}}, "data_format": {"s": "TkhXQw=="}, "use_cudnn_on_gpu": {"b": true}, "padding": {"s": "VkFMSUQ="}, "strides": {"list": {"i": ["1", "1", "1", "1"]}}, "T": {"type": "DT_FLOAT"}, "dilations": {"list": {"i": ["1", "1", "1", "1"]}}}, "name": "bn3b4_branch2c/mul_1", "op": "Conv2D"}, {"input": ["bn3b4_branch2c/mul_1", "bn3b4_branch2c/sub"], "attr": {"T": {"type": "DT_FLOAT"}}, "name": "bn3b4_branch2c/add_1", "op": "Add"}, {"input": ["bn3b4_branch2c/add_1", "res3b3_relu"], "attr": {"T": {"type": "DT_FLOAT"}}, "name": "add_7", "op": "Add"}, {"input": ["add_7"], "attr": {"T": {"type": "DT_FLOAT"}}, "name": "res3b4_relu", "op": "Relu"}, {"input": ["res3b4_relu", "res3b5_branch2a/merged_input"], "attr": {"explicit_paddings": {"list": {}}, "data_format": {"s": "TkhXQw=="}, "use_cudnn_on_gpu": {"b": true}, "padding": {"s": "VkFMSUQ="}, "strides": {"list": {"i": ["1", "1", "1", "1"]}}, "T": {"type": "DT_FLOAT"}, "dilations": {"list": {"i": ["1", "1", "1", "1"]}}}, "name": "bn3b5_branch2a/mul_1", "op": "Conv2D"}, {"input": ["bn3b5_branch2a/mul_1", "bn3b5_branch2a/sub"], "attr": {"T": {"type": "DT_FLOAT"}}, "name": "bn3b5_branch2a/add_1", "op": "Add"}, {"input": ["bn3b5_branch2a/add_1"], "attr": {"T": {"type": "DT_FLOAT"}}, "name": "res3b5_branch2a_relu", "op": "Relu"}, {"input": ["res3b5_branch2a_relu", "Pad_1/paddings"], "attr": {"Tpaddings": {"type": "DT_INT32"}, "T": {"type": "DT_FLOAT"}}, "name": "Pad_9", "op": "Pad"}, {"input": ["Pad_9", "res3b5_branch2b/merged_input"], "attr": {"explicit_paddings": {"list": {}}, "data_format": {"s": "TkhXQw=="}, "use_cudnn_on_gpu": {"b": true}, "padding": {"s": "VkFMSUQ="}, "strides": {"list": {"i": ["1", "1", "1", "1"]}}, "T": {"type": "DT_FLOAT"}, "dilations": {"list": {"i": ["1", "1", "1", "1"]}}}, "name": "bn3b5_branch2b/mul_1", "op": "Conv2D"}, {"input": ["bn3b5_branch2b/mul_1", "bn3b5_branch2b/sub"], "attr": {"T": {"type": "DT_FLOAT"}}, "name": "bn3b5_branch2b/add_1", "op": "Add"}, {"input": ["bn3b5_branch2b/add_1"], "attr": {"T": {"type": "DT_FLOAT"}}, "name": "res3b5_branch2b_relu", "op": "Relu"}, {"input": ["res3b5_branch2b_relu", "res3b5_branch2c/merged_input"], "attr": {"explicit_paddings": {"list": {}}, "data_format": {"s": "TkhXQw=="}, "use_cudnn_on_gpu": {"b": true}, "padding": {"s": "VkFMSUQ="}, "strides": {"list": {"i": ["1", "1", "1", "1"]}}, "T": {"type": "DT_FLOAT"}, "dilations": {"list": {"i": ["1", "1", "1", "1"]}}}, "name": "bn3b5_branch2c/mul_1", "op": "Conv2D"}, {"input": ["bn3b5_branch2c/mul_1", "bn3b5_branch2c/sub"], "attr": {"T": {"type": "DT_FLOAT"}}, "name": "bn3b5_branch2c/add_1", "op": "Add"}, {"input": ["bn3b5_branch2c/add_1", "res3b4_relu"], "attr": {"T": {"type": "DT_FLOAT"}}, "name": "add_8", "op": "Add"}, {"input": ["add_8"], "attr": {"T": {"type": "DT_FLOAT"}}, "name": "res3b5_relu", "op": "Relu"}, {"input": ["res3b5_relu", "res3b6_branch2a/merged_input"], "attr": {"explicit_paddings": {"list": {}}, "data_format": {"s": "TkhXQw=="}, "use_cudnn_on_gpu": {"b": true}, "padding": {"s": "VkFMSUQ="}, "strides": {"list": {"i": ["1", "1", "1", "1"]}}, "T": {"type": "DT_FLOAT"}, "dilations": {"list": {"i": ["1", "1", "1", "1"]}}}, "name": "bn3b6_branch2a/mul_1", "op": "Conv2D"}, {"input": ["bn3b6_branch2a/mul_1", "bn3b6_branch2a/sub"], "attr": {"T": {"type": "DT_FLOAT"}}, "name": "bn3b6_branch2a/add_1", "op": "Add"}, {"input": ["bn3b6_branch2a/add_1"], "attr": {"T": {"type": "DT_FLOAT"}}, "name": "res3b6_branch2a_relu", "op": "Relu"}, {"input": ["res3b6_branch2a_relu", "Pad_1/paddings"], "attr": {"Tpaddings": {"type": "DT_INT32"}, "T": {"type": "DT_FLOAT"}}, "name": "Pad_10", "op": "Pad"}, {"input": ["Pad_10", "res3b6_branch2b/merged_input"], "attr": {"explicit_paddings": {"list": {}}, "data_format": {"s": "TkhXQw=="}, "use_cudnn_on_gpu": {"b": true}, "padding": {"s": "VkFMSUQ="}, "strides": {"list": {"i": ["1", "1", "1", "1"]}}, "T": {"type": "DT_FLOAT"}, "dilations": {"list": {"i": ["1", "1", "1", "1"]}}}, "name": "bn3b6_branch2b/mul_1", "op": "Conv2D"}, {"input": ["bn3b6_branch2b/mul_1", "bn3b6_branch2b/sub"], "attr": {"T": {"type": "DT_FLOAT"}}, "name": "bn3b6_branch2b/add_1", "op": "Add"}, {"input": ["bn3b6_branch2b/add_1"], "attr": {"T": {"type": "DT_FLOAT"}}, "name": "res3b6_branch2b_relu", "op": "Relu"}, {"input": ["res3b6_branch2b_relu", "res3b6_branch2c/merged_input"], "attr": {"explicit_paddings": {"list": {}}, "data_format": {"s": "TkhXQw=="}, "use_cudnn_on_gpu": {"b": true}, "padding": {"s": "VkFMSUQ="}, "strides": {"list": {"i": ["1", "1", "1", "1"]}}, "T": {"type": "DT_FLOAT"}, "dilations": {"list": {"i": ["1", "1", "1", "1"]}}}, "name": "bn3b6_branch2c/mul_1", "op": "Conv2D"}, {"input": ["bn3b6_branch2c/mul_1", "bn3b6_branch2c/sub"], "attr": {"T": {"type": "DT_FLOAT"}}, "name": "bn3b6_branch2c/add_1", "op": "Add"}, {"input": ["bn3b6_branch2c/add_1", "res3b5_relu"], "attr": {"T": {"type": "DT_FLOAT"}}, "name": "add_9", "op": "Add"}, {"input": ["add_9"], "attr": {"T": {"type": "DT_FLOAT"}}, "name": "res3b6_relu", "op": "Relu"}, {"input": ["res3b6_relu", "res3b7_branch2a/merged_input"], "attr": {"explicit_paddings": {"list": {}}, "data_format": {"s": "TkhXQw=="}, "use_cudnn_on_gpu": {"b": true}, "padding": {"s": "VkFMSUQ="}, "strides": {"list": {"i": ["1", "1", "1", "1"]}}, "T": {"type": "DT_FLOAT"}, "dilations": {"list": {"i": ["1", "1", "1", "1"]}}}, "name": "bn3b7_branch2a/mul_1", "op": "Conv2D"}, {"input": ["bn3b7_branch2a/mul_1", "bn3b7_branch2a/sub"], "attr": {"T": {"type": "DT_FLOAT"}}, "name": "bn3b7_branch2a/add_1", "op": "Add"}, {"input": ["bn3b7_branch2a/add_1"], "attr": {"T": {"type": "DT_FLOAT"}}, "name": "res3b7_branch2a_relu", "op": "Relu"}, {"input": ["res3b7_branch2a_relu", "Pad_1/paddings"], "attr": {"Tpaddings": {"type": "DT_INT32"}, "T": {"type": "DT_FLOAT"}}, "name": "Pad_11", "op": "Pad"}, {"input": ["Pad_11", "res3b7_branch2b/merged_input"], "attr": {"explicit_paddings": {"list": {}}, "data_format": {"s": "TkhXQw=="}, "use_cudnn_on_gpu": {"b": true}, "padding": {"s": "VkFMSUQ="}, "strides": {"list": {"i": ["1", "1", "1", "1"]}}, "T": {"type": "DT_FLOAT"}, "dilations": {"list": {"i": ["1", "1", "1", "1"]}}}, "name": "bn3b7_branch2b/mul_1", "op": "Conv2D"}, {"input": ["bn3b7_branch2b/mul_1", "bn3b7_branch2b/sub"], "attr": {"T": {"type": "DT_FLOAT"}}, "name": "bn3b7_branch2b/add_1", "op": "Add"}, {"input": ["bn3b7_branch2b/add_1"], "attr": {"T": {"type": "DT_FLOAT"}}, "name": "res3b7_branch2b_relu", "op": "Relu"}, {"input": ["res3b7_branch2b_relu", "res3b7_branch2c/merged_input"], "attr": {"explicit_paddings": {"list": {}}, "data_format": {"s": "TkhXQw=="}, "use_cudnn_on_gpu": {"b": true}, "padding": {"s": "VkFMSUQ="}, "strides": {"list": {"i": ["1", "1", "1", "1"]}}, "T": {"type": "DT_FLOAT"}, "dilations": {"list": {"i": ["1", "1", "1", "1"]}}}, "name": "bn3b7_branch2c/mul_1", "op": "Conv2D"}, {"input": ["bn3b7_branch2c/mul_1", "bn3b7_branch2c/sub"], "attr": {"T": {"type": "DT_FLOAT"}}, "name": "bn3b7_branch2c/add_1", "op": "Add"}, {"input": ["bn3b7_branch2c/add_1", "res3b6_relu"], "attr": {"T": {"type": "DT_FLOAT"}}, "name": "add_10", "op": "Add"}, {"input": ["add_10"], "attr": {"T": {"type": "DT_FLOAT"}}, "name": "res3b7_relu", "op": "Relu"}, {"input": ["res3b7_relu", "res4a_branch2a/merged_input"], "attr": {"explicit_paddings": {"list": {}}, "data_format": {"s": "TkhXQw=="}, "use_cudnn_on_gpu": {"b": true}, "padding": {"s": "VkFMSUQ="}, "strides": {"list": {"i": ["1", "2", "2", "1"]}}, "T": {"type": "DT_FLOAT"}, "dilations": {"list": {"i": ["1", "1", "1", "1"]}}}, "name": "bn4a_branch2a/mul_1", "op": "Conv2D"}, {"input": ["res3b7_relu", "res4a_branch1/merged_input"], "attr": {"explicit_paddings": {"list": {}}, "data_format": {"s": "TkhXQw=="}, "use_cudnn_on_gpu": {"b": true}, "padding": {"s": "VkFMSUQ="}, "strides": {"list": {"i": ["1", "2", "2", "1"]}}, "T": {"type": "DT_FLOAT"}, "dilations": {"list": {"i": ["1", "1", "1", "1"]}}}, "name": "bn4a_branch1/mul_1", "op": "Conv2D"}, {"input": ["bn4a_branch2a/mul_1", "bn4a_branch2a/sub"], "attr": {"T": {"type": "DT_FLOAT"}}, "name": "bn4a_branch2a/add_1", "op": "Add"}, {"input": ["bn4a_branch1/mul_1", "bn4a_branch1/sub"], "attr": {"T": {"type": "DT_FLOAT"}}, "name": "bn4a_branch1/add_1", "op": "Add"}, {"input": ["bn4a_branch2a/add_1"], "attr": {"T": {"type": "DT_FLOAT"}}, "name": "res4a_branch2a_relu", "op": "Relu"}, {"input": ["res4a_branch2a_relu", "Pad_1/paddings"], "attr": {"Tpaddings": {"type": "DT_INT32"}, "T": {"type": "DT_FLOAT"}}, "name": "Pad_12", "op": "Pad"}, {"input": ["Pad_12", "res4a_branch2b/merged_input"], "attr": {"explicit_paddings": {"list": {}}, "data_format": {"s": "TkhXQw=="}, "use_cudnn_on_gpu": {"b": true}, "padding": {"s": "VkFMSUQ="}, "strides": {"list": {"i": ["1", "1", "1", "1"]}}, "T": {"type": "DT_FLOAT"}, "dilations": {"list": {"i": ["1", "1", "1", "1"]}}}, "name": "bn4a_branch2b/mul_1", "op": "Conv2D"}, {"input": ["bn4a_branch2b/mul_1", "bn4a_branch2b/sub"], "attr": {"T": {"type": "DT_FLOAT"}}, "name": "bn4a_branch2b/add_1", "op": "Add"}, {"input": ["bn4a_branch2b/add_1"], "attr": {"T": {"type": "DT_FLOAT"}}, "name": "res4a_branch2b_relu", "op": "Relu"}, {"input": ["res4a_branch2b_relu", "res4a_branch2c/merged_input"], "attr": {"explicit_paddings": {"list": {}}, "data_format": {"s": "TkhXQw=="}, "use_cudnn_on_gpu": {"b": true}, "padding": {"s": "VkFMSUQ="}, "strides": {"list": {"i": ["1", "1", "1", "1"]}}, "T": {"type": "DT_FLOAT"}, "dilations": {"list": {"i": ["1", "1", "1", "1"]}}}, "name": "bn4a_branch2c/mul_1", "op": "Conv2D"}, {"input": ["bn4a_branch2c/mul_1", "bn4a_branch2c/sub"], "attr": {"T": {"type": "DT_FLOAT"}}, "name": "bn4a_branch2c/add_1", "op": "Add"}, {"input": ["bn4a_branch1/add_1", "bn4a_branch2c/add_1"], "attr": {"T": {"type": "DT_FLOAT"}}, "name": "add_11", "op": "Add"}, {"input": ["add_11"], "attr": {"T": {"type": "DT_FLOAT"}}, "name": "res4a_relu", "op": "Relu"}, {"input": ["res4a_relu", "res4b1_branch2a/merged_input"], "attr": {"explicit_paddings": {"list": {}}, "data_format": {"s": "TkhXQw=="}, "use_cudnn_on_gpu": {"b": true}, "padding": {"s": "VkFMSUQ="}, "strides": {"list": {"i": ["1", "1", "1", "1"]}}, "T": {"type": "DT_FLOAT"}, "dilations": {"list": {"i": ["1", "1", "1", "1"]}}}, "name": "bn4b1_branch2a/mul_1", "op": "Conv2D"}, {"input": ["bn4b1_branch2a/mul_1", "bn4b1_branch2a/sub"], "attr": {"T": {"type": "DT_FLOAT"}}, "name": "bn4b1_branch2a/add_1", "op": "Add"}, {"input": ["bn4b1_branch2a/add_1"], "attr": {"T": {"type": "DT_FLOAT"}}, "name": "res4b1_branch2a_relu", "op": "Relu"}, {"input": ["res4b1_branch2a_relu", "Pad_1/paddings"], "attr": {"Tpaddings": {"type": "DT_INT32"}, "T": {"type": "DT_FLOAT"}}, "name": "Pad_13", "op": "Pad"}, {"input": ["Pad_13", "res4b1_branch2b/merged_input"], "attr": {"explicit_paddings": {"list": {}}, "data_format": {"s": "TkhXQw=="}, "use_cudnn_on_gpu": {"b": true}, "padding": {"s": "VkFMSUQ="}, "strides": {"list": {"i": ["1", "1", "1", "1"]}}, "T": {"type": "DT_FLOAT"}, "dilations": {"list": {"i": ["1", "1", "1", "1"]}}}, "name": "bn4b1_branch2b/mul_1", "op": "Conv2D"}, {"input": ["bn4b1_branch2b/mul_1", "bn4b1_branch2b/sub"], "attr": {"T": {"type": "DT_FLOAT"}}, "name": "bn4b1_branch2b/add_1", "op": "Add"}, {"input": ["bn4b1_branch2b/add_1"], "attr": {"T": {"type": "DT_FLOAT"}}, "name": "res4b1_branch2b_relu", "op": "Relu"}, {"input": ["res4b1_branch2b_relu", "res4b1_branch2c/merged_input"], "attr": {"explicit_paddings": {"list": {}}, "data_format": {"s": "TkhXQw=="}, "use_cudnn_on_gpu": {"b": true}, "padding": {"s": "VkFMSUQ="}, "strides": {"list": {"i": ["1", "1", "1", "1"]}}, "T": {"type": "DT_FLOAT"}, "dilations": {"list": {"i": ["1", "1", "1", "1"]}}}, "name": "bn4b1_branch2c/mul_1", "op": "Conv2D"}, {"input": ["bn4b1_branch2c/mul_1", "bn4b1_branch2c/sub"], "attr": {"T": {"type": "DT_FLOAT"}}, "name": "bn4b1_branch2c/add_1", "op": "Add"}, {"input": ["bn4b1_branch2c/add_1", "res4a_relu"], "attr": {"T": {"type": "DT_FLOAT"}}, "name": "add_12", "op": "Add"}, {"input": ["add_12"], "attr": {"T": {"type": "DT_FLOAT"}}, "name": "res4b1_relu", "op": "Relu"}, {"input": ["res4b1_relu", "res4b2_branch2a/merged_input"], "attr": {"explicit_paddings": {"list": {}}, "data_format": {"s": "TkhXQw=="}, "use_cudnn_on_gpu": {"b": true}, "padding": {"s": "VkFMSUQ="}, "strides": {"list": {"i": ["1", "1", "1", "1"]}}, "T": {"type": "DT_FLOAT"}, "dilations": {"list": {"i": ["1", "1", "1", "1"]}}}, "name": "bn4b2_branch2a/mul_1", "op": "Conv2D"}, {"input": ["bn4b2_branch2a/mul_1", "bn4b2_branch2a/sub"], "attr": {"T": {"type": "DT_FLOAT"}}, "name": "bn4b2_branch2a/add_1", "op": "Add"}, {"input": ["bn4b2_branch2a/add_1"], "attr": {"T": {"type": "DT_FLOAT"}}, "name": "res4b2_branch2a_relu", "op": "Relu"}, {"input": ["res4b2_branch2a_relu", "Pad_1/paddings"], "attr": {"Tpaddings": {"type": "DT_INT32"}, "T": {"type": "DT_FLOAT"}}, "name": "Pad_14", "op": "Pad"}, {"input": ["Pad_14", "res4b2_branch2b/merged_input"], "attr": {"explicit_paddings": {"list": {}}, "data_format": {"s": "TkhXQw=="}, "use_cudnn_on_gpu": {"b": true}, "padding": {"s": "VkFMSUQ="}, "strides": {"list": {"i": ["1", "1", "1", "1"]}}, "T": {"type": "DT_FLOAT"}, "dilations": {"list": {"i": ["1", "1", "1", "1"]}}}, "name": "bn4b2_branch2b/mul_1", "op": "Conv2D"}, {"input": ["bn4b2_branch2b/mul_1", "bn4b2_branch2b/sub"], "attr": {"T": {"type": "DT_FLOAT"}}, "name": "bn4b2_branch2b/add_1", "op": "Add"}, {"input": ["bn4b2_branch2b/add_1"], "attr": {"T": {"type": "DT_FLOAT"}}, "name": "res4b2_branch2b_relu", "op": "Relu"}, {"input": ["res4b2_branch2b_relu", "res4b2_branch2c/merged_input"], "attr": {"explicit_paddings": {"list": {}}, "data_format": {"s": "TkhXQw=="}, "use_cudnn_on_gpu": {"b": true}, "padding": {"s": "VkFMSUQ="}, "strides": {"list": {"i": ["1", "1", "1", "1"]}}, "T": {"type": "DT_FLOAT"}, "dilations": {"list": {"i": ["1", "1", "1", "1"]}}}, "name": "bn4b2_branch2c/mul_1", "op": "Conv2D"}, {"input": ["bn4b2_branch2c/mul_1", "bn4b2_branch2c/sub"], "attr": {"T": {"type": "DT_FLOAT"}}, "name": "bn4b2_branch2c/add_1", "op": "Add"}, {"input": ["bn4b2_branch2c/add_1", "res4b1_relu"], "attr": {"T": {"type": "DT_FLOAT"}}, "name": "add_13", "op": "Add"}, {"input": ["add_13"], "attr": {"T": {"type": "DT_FLOAT"}}, "name": "res4b2_relu", "op": "Relu"}, {"input": ["res4b2_relu", "res4b3_branch2a/merged_input"], "attr": {"explicit_paddings": {"list": {}}, "data_format": {"s": "TkhXQw=="}, "use_cudnn_on_gpu": {"b": true}, "padding": {"s": "VkFMSUQ="}, "strides": {"list": {"i": ["1", "1", "1", "1"]}}, "T": {"type": "DT_FLOAT"}, "dilations": {"list": {"i": ["1", "1", "1", "1"]}}}, "name": "bn4b3_branch2a/mul_1", "op": "Conv2D"}, {"input": ["bn4b3_branch2a/mul_1", "bn4b3_branch2a/sub"], "attr": {"T": {"type": "DT_FLOAT"}}, "name": "bn4b3_branch2a/add_1", "op": "Add"}, {"input": ["bn4b3_branch2a/add_1"], "attr": {"T": {"type": "DT_FLOAT"}}, "name": "res4b3_branch2a_relu", "op": "Relu"}, {"input": ["res4b3_branch2a_relu", "Pad_1/paddings"], "attr": {"Tpaddings": {"type": "DT_INT32"}, "T": {"type": "DT_FLOAT"}}, "name": "Pad_15", "op": "Pad"}, {"input": ["Pad_15", "res4b3_branch2b/merged_input"], "attr": {"explicit_paddings": {"list": {}}, "data_format": {"s": "TkhXQw=="}, "use_cudnn_on_gpu": {"b": true}, "padding": {"s": "VkFMSUQ="}, "strides": {"list": {"i": ["1", "1", "1", "1"]}}, "T": {"type": "DT_FLOAT"}, "dilations": {"list": {"i": ["1", "1", "1", "1"]}}}, "name": "bn4b3_branch2b/mul_1", "op": "Conv2D"}, {"input": ["bn4b3_branch2b/mul_1", "bn4b3_branch2b/sub"], "attr": {"T": {"type": "DT_FLOAT"}}, "name": "bn4b3_branch2b/add_1", "op": "Add"}, {"input": ["bn4b3_branch2b/add_1"], "attr": {"T": {"type": "DT_FLOAT"}}, "name": "res4b3_branch2b_relu", "op": "Relu"}, {"input": ["res4b3_branch2b_relu", "res4b3_branch2c/merged_input"], "attr": {"explicit_paddings": {"list": {}}, "data_format": {"s": "TkhXQw=="}, "use_cudnn_on_gpu": {"b": true}, "padding": {"s": "VkFMSUQ="}, "strides": {"list": {"i": ["1", "1", "1", "1"]}}, "T": {"type": "DT_FLOAT"}, "dilations": {"list": {"i": ["1", "1", "1", "1"]}}}, "name": "bn4b3_branch2c/mul_1", "op": "Conv2D"}, {"input": ["bn4b3_branch2c/mul_1", "bn4b3_branch2c/sub"], "attr": {"T": {"type": "DT_FLOAT"}}, "name": "bn4b3_branch2c/add_1", "op": "Add"}, {"input": ["bn4b3_branch2c/add_1", "res4b2_relu"], "attr": {"T": {"type": "DT_FLOAT"}}, "name": "add_14", "op": "Add"}, {"input": ["add_14"], "attr": {"T": {"type": "DT_FLOAT"}}, "name": "res4b3_relu", "op": "Relu"}, {"input": ["res4b3_relu", "res4b4_branch2a/merged_input"], "attr": {"explicit_paddings": {"list": {}}, "data_format": {"s": "TkhXQw=="}, "use_cudnn_on_gpu": {"b": true}, "padding": {"s": "VkFMSUQ="}, "strides": {"list": {"i": ["1", "1", "1", "1"]}}, "T": {"type": "DT_FLOAT"}, "dilations": {"list": {"i": ["1", "1", "1", "1"]}}}, "name": "bn4b4_branch2a/mul_1", "op": "Conv2D"}, {"input": ["bn4b4_branch2a/mul_1", "bn4b4_branch2a/sub"], "attr": {"T": {"type": "DT_FLOAT"}}, "name": "bn4b4_branch2a/add_1", "op": "Add"}, {"input": ["bn4b4_branch2a/add_1"], "attr": {"T": {"type": "DT_FLOAT"}}, "name": "res4b4_branch2a_relu", "op": "Relu"}, {"input": ["res4b4_branch2a_relu", "Pad_1/paddings"], "attr": {"Tpaddings": {"type": "DT_INT32"}, "T": {"type": "DT_FLOAT"}}, "name": "Pad_16", "op": "Pad"}, {"input": ["Pad_16", "res4b4_branch2b/merged_input"], "attr": {"explicit_paddings": {"list": {}}, "data_format": {"s": "TkhXQw=="}, "use_cudnn_on_gpu": {"b": true}, "padding": {"s": "VkFMSUQ="}, "strides": {"list": {"i": ["1", "1", "1", "1"]}}, "T": {"type": "DT_FLOAT"}, "dilations": {"list": {"i": ["1", "1", "1", "1"]}}}, "name": "bn4b4_branch2b/mul_1", "op": "Conv2D"}, {"input": ["bn4b4_branch2b/mul_1", "bn4b4_branch2b/sub"], "attr": {"T": {"type": "DT_FLOAT"}}, "name": "bn4b4_branch2b/add_1", "op": "Add"}, {"input": ["bn4b4_branch2b/add_1"], "attr": {"T": {"type": "DT_FLOAT"}}, "name": "res4b4_branch2b_relu", "op": "Relu"}, {"input": ["res4b4_branch2b_relu", "res4b4_branch2c/merged_input"], "attr": {"explicit_paddings": {"list": {}}, "data_format": {"s": "TkhXQw=="}, "use_cudnn_on_gpu": {"b": true}, "padding": {"s": "VkFMSUQ="}, "strides": {"list": {"i": ["1", "1", "1", "1"]}}, "T": {"type": "DT_FLOAT"}, "dilations": {"list": {"i": ["1", "1", "1", "1"]}}}, "name": "bn4b4_branch2c/mul_1", "op": "Conv2D"}, {"input": ["bn4b4_branch2c/mul_1", "bn4b4_branch2c/sub"], "attr": {"T": {"type": "DT_FLOAT"}}, "name": "bn4b4_branch2c/add_1", "op": "Add"}, {"input": ["bn4b4_branch2c/add_1", "res4b3_relu"], "attr": {"T": {"type": "DT_FLOAT"}}, "name": "add_15", "op": "Add"}, {"input": ["add_15"], "attr": {"T": {"type": "DT_FLOAT"}}, "name": "res4b4_relu", "op": "Relu"}, {"input": ["res4b4_relu", "res4b5_branch2a/merged_input"], "attr": {"explicit_paddings": {"list": {}}, "data_format": {"s": "TkhXQw=="}, "use_cudnn_on_gpu": {"b": true}, "padding": {"s": "VkFMSUQ="}, "strides": {"list": {"i": ["1", "1", "1", "1"]}}, "T": {"type": "DT_FLOAT"}, "dilations": {"list": {"i": ["1", "1", "1", "1"]}}}, "name": "bn4b5_branch2a/mul_1", "op": "Conv2D"}, {"input": ["bn4b5_branch2a/mul_1", "bn4b5_branch2a/sub"], "attr": {"T": {"type": "DT_FLOAT"}}, "name": "bn4b5_branch2a/add_1", "op": "Add"}, {"input": ["bn4b5_branch2a/add_1"], "attr": {"T": {"type": "DT_FLOAT"}}, "name": "res4b5_branch2a_relu", "op": "Relu"}, {"input": ["res4b5_branch2a_relu", "Pad_1/paddings"], "attr": {"Tpaddings": {"type": "DT_INT32"}, "T": {"type": "DT_FLOAT"}}, "name": "Pad_17", "op": "Pad"}, {"input": ["Pad_17", "res4b5_branch2b/merged_input"], "attr": {"explicit_paddings": {"list": {}}, "data_format": {"s": "TkhXQw=="}, "use_cudnn_on_gpu": {"b": true}, "padding": {"s": "VkFMSUQ="}, "strides": {"list": {"i": ["1", "1", "1", "1"]}}, "T": {"type": "DT_FLOAT"}, "dilations": {"list": {"i": ["1", "1", "1", "1"]}}}, "name": "bn4b5_branch2b/mul_1", "op": "Conv2D"}, {"input": ["bn4b5_branch2b/mul_1", "bn4b5_branch2b/sub"], "attr": {"T": {"type": "DT_FLOAT"}}, "name": "bn4b5_branch2b/add_1", "op": "Add"}, {"input": ["bn4b5_branch2b/add_1"], "attr": {"T": {"type": "DT_FLOAT"}}, "name": "res4b5_branch2b_relu", "op": "Relu"}, {"input": ["res4b5_branch2b_relu", "res4b5_branch2c/merged_input"], "attr": {"explicit_paddings": {"list": {}}, "data_format": {"s": "TkhXQw=="}, "use_cudnn_on_gpu": {"b": true}, "padding": {"s": "VkFMSUQ="}, "strides": {"list": {"i": ["1", "1", "1", "1"]}}, "T": {"type": "DT_FLOAT"}, "dilations": {"list": {"i": ["1", "1", "1", "1"]}}}, "name": "bn4b5_branch2c/mul_1", "op": "Conv2D"}, {"input": ["bn4b5_branch2c/mul_1", "bn4b5_branch2c/sub"], "attr": {"T": {"type": "DT_FLOAT"}}, "name": "bn4b5_branch2c/add_1", "op": "Add"}, {"input": ["bn4b5_branch2c/add_1", "res4b4_relu"], "attr": {"T": {"type": "DT_FLOAT"}}, "name": "add_16", "op": "Add"}, {"input": ["add_16"], "attr": {"T": {"type": "DT_FLOAT"}}, "name": "res4b5_relu", "op": "Relu"}, {"input": ["res4b5_relu", "res4b6_branch2a/merged_input"], "attr": {"explicit_paddings": {"list": {}}, "data_format": {"s": "TkhXQw=="}, "use_cudnn_on_gpu": {"b": true}, "padding": {"s": "VkFMSUQ="}, "strides": {"list": {"i": ["1", "1", "1", "1"]}}, "T": {"type": "DT_FLOAT"}, "dilations": {"list": {"i": ["1", "1", "1", "1"]}}}, "name": "bn4b6_branch2a/mul_1", "op": "Conv2D"}, {"input": ["bn4b6_branch2a/mul_1", "bn4b6_branch2a/sub"], "attr": {"T": {"type": "DT_FLOAT"}}, "name": "bn4b6_branch2a/add_1", "op": "Add"}, {"input": ["bn4b6_branch2a/add_1"], "attr": {"T": {"type": "DT_FLOAT"}}, "name": "res4b6_branch2a_relu", "op": "Relu"}, {"input": ["res4b6_branch2a_relu", "Pad_1/paddings"], "attr": {"Tpaddings": {"type": "DT_INT32"}, "T": {"type": "DT_FLOAT"}}, "name": "Pad_18", "op": "Pad"}, {"input": ["Pad_18", "res4b6_branch2b/merged_input"], "attr": {"explicit_paddings": {"list": {}}, "data_format": {"s": "TkhXQw=="}, "use_cudnn_on_gpu": {"b": true}, "padding": {"s": "VkFMSUQ="}, "strides": {"list": {"i": ["1", "1", "1", "1"]}}, "T": {"type": "DT_FLOAT"}, "dilations": {"list": {"i": ["1", "1", "1", "1"]}}}, "name": "bn4b6_branch2b/mul_1", "op": "Conv2D"}, {"input": ["bn4b6_branch2b/mul_1", "bn4b6_branch2b/sub"], "attr": {"T": {"type": "DT_FLOAT"}}, "name": "bn4b6_branch2b/add_1", "op": "Add"}, {"input": ["bn4b6_branch2b/add_1"], "attr": {"T": {"type": "DT_FLOAT"}}, "name": "res4b6_branch2b_relu", "op": "Relu"}, {"input": ["res4b6_branch2b_relu", "res4b6_branch2c/merged_input"], "attr": {"explicit_paddings": {"list": {}}, "data_format": {"s": "TkhXQw=="}, "use_cudnn_on_gpu": {"b": true}, "padding": {"s": "VkFMSUQ="}, "strides": {"list": {"i": ["1", "1", "1", "1"]}}, "T": {"type": "DT_FLOAT"}, "dilations": {"list": {"i": ["1", "1", "1", "1"]}}}, "name": "bn4b6_branch2c/mul_1", "op": "Conv2D"}, {"input": ["bn4b6_branch2c/mul_1", "bn4b6_branch2c/sub"], "attr": {"T": {"type": "DT_FLOAT"}}, "name": "bn4b6_branch2c/add_1", "op": "Add"}, {"input": ["bn4b6_branch2c/add_1", "res4b5_relu"], "attr": {"T": {"type": "DT_FLOAT"}}, "name": "add_17", "op": "Add"}, {"input": ["add_17"], "attr": {"T": {"type": "DT_FLOAT"}}, "name": "res4b6_relu", "op": "Relu"}, {"input": ["res4b6_relu", "res4b7_branch2a/merged_input"], "attr": {"explicit_paddings": {"list": {}}, "data_format": {"s": "TkhXQw=="}, "use_cudnn_on_gpu": {"b": true}, "padding": {"s": "VkFMSUQ="}, "strides": {"list": {"i": ["1", "1", "1", "1"]}}, "T": {"type": "DT_FLOAT"}, "dilations": {"list": {"i": ["1", "1", "1", "1"]}}}, "name": "bn4b7_branch2a/mul_1", "op": "Conv2D"}, {"input": ["bn4b7_branch2a/mul_1", "bn4b7_branch2a/sub"], "attr": {"T": {"type": "DT_FLOAT"}}, "name": "bn4b7_branch2a/add_1", "op": "Add"}, {"input": ["bn4b7_branch2a/add_1"], "attr": {"T": {"type": "DT_FLOAT"}}, "name": "res4b7_branch2a_relu", "op": "Relu"}, {"input": ["res4b7_branch2a_relu", "Pad_1/paddings"], "attr": {"Tpaddings": {"type": "DT_INT32"}, "T": {"type": "DT_FLOAT"}}, "name": "Pad_19", "op": "Pad"}, {"input": ["Pad_19", "res4b7_branch2b/merged_input"], "attr": {"explicit_paddings": {"list": {}}, "data_format": {"s": "TkhXQw=="}, "use_cudnn_on_gpu": {"b": true}, "padding": {"s": "VkFMSUQ="}, "strides": {"list": {"i": ["1", "1", "1", "1"]}}, "T": {"type": "DT_FLOAT"}, "dilations": {"list": {"i": ["1", "1", "1", "1"]}}}, "name": "bn4b7_branch2b/mul_1", "op": "Conv2D"}, {"input": ["bn4b7_branch2b/mul_1", "bn4b7_branch2b/sub"], "attr": {"T": {"type": "DT_FLOAT"}}, "name": "bn4b7_branch2b/add_1", "op": "Add"}, {"input": ["bn4b7_branch2b/add_1"], "attr": {"T": {"type": "DT_FLOAT"}}, "name": "res4b7_branch2b_relu", "op": "Relu"}, {"input": ["res4b7_branch2b_relu", "res4b7_branch2c/merged_input"], "attr": {"explicit_paddings": {"list": {}}, "data_format": {"s": "TkhXQw=="}, "use_cudnn_on_gpu": {"b": true}, "padding": {"s": "VkFMSUQ="}, "strides": {"list": {"i": ["1", "1", "1", "1"]}}, "T": {"type": "DT_FLOAT"}, "dilations": {"list": {"i": ["1", "1", "1", "1"]}}}, "name": "bn4b7_branch2c/mul_1", "op": "Conv2D"}, {"input": ["bn4b7_branch2c/mul_1", "bn4b7_branch2c/sub"], "attr": {"T": {"type": "DT_FLOAT"}}, "name": "bn4b7_branch2c/add_1", "op": "Add"}, {"input": ["bn4b7_branch2c/add_1", "res4b6_relu"], "attr": {"T": {"type": "DT_FLOAT"}}, "name": "add_18", "op": "Add"}, {"input": ["add_18"], "attr": {"T": {"type": "DT_FLOAT"}}, "name": "res4b7_relu", "op": "Relu"}, {"input": ["res4b7_relu", "res4b8_branch2a/merged_input"], "attr": {"explicit_paddings": {"list": {}}, "data_format": {"s": "TkhXQw=="}, "use_cudnn_on_gpu": {"b": true}, "padding": {"s": "VkFMSUQ="}, "strides": {"list": {"i": ["1", "1", "1", "1"]}}, "T": {"type": "DT_FLOAT"}, "dilations": {"list": {"i": ["1", "1", "1", "1"]}}}, "name": "bn4b8_branch2a/mul_1", "op": "Conv2D"}, {"input": ["bn4b8_branch2a/mul_1", "bn4b8_branch2a/sub"], "attr": {"T": {"type": "DT_FLOAT"}}, "name": "bn4b8_branch2a/add_1", "op": "Add"}, {"input": ["bn4b8_branch2a/add_1"], "attr": {"T": {"type": "DT_FLOAT"}}, "name": "res4b8_branch2a_relu", "op": "Relu"}, {"input": ["res4b8_branch2a_relu", "Pad_1/paddings"], "attr": {"Tpaddings": {"type": "DT_INT32"}, "T": {"type": "DT_FLOAT"}}, "name": "Pad_20", "op": "Pad"}, {"input": ["Pad_20", "res4b8_branch2b/merged_input"], "attr": {"explicit_paddings": {"list": {}}, "data_format": {"s": "TkhXQw=="}, "use_cudnn_on_gpu": {"b": true}, "padding": {"s": "VkFMSUQ="}, "strides": {"list": {"i": ["1", "1", "1", "1"]}}, "T": {"type": "DT_FLOAT"}, "dilations": {"list": {"i": ["1", "1", "1", "1"]}}}, "name": "bn4b8_branch2b/mul_1", "op": "Conv2D"}, {"input": ["bn4b8_branch2b/mul_1", "bn4b8_branch2b/sub"], "attr": {"T": {"type": "DT_FLOAT"}}, "name": "bn4b8_branch2b/add_1", "op": "Add"}, {"input": ["bn4b8_branch2b/add_1"], "attr": {"T": {"type": "DT_FLOAT"}}, "name": "res4b8_branch2b_relu", "op": "Relu"}, {"input": ["res4b8_branch2b_relu", "res4b8_branch2c/merged_input"], "attr": {"explicit_paddings": {"list": {}}, "data_format": {"s": "TkhXQw=="}, "use_cudnn_on_gpu": {"b": true}, "padding": {"s": "VkFMSUQ="}, "strides": {"list": {"i": ["1", "1", "1", "1"]}}, "T": {"type": "DT_FLOAT"}, "dilations": {"list": {"i": ["1", "1", "1", "1"]}}}, "name": "bn4b8_branch2c/mul_1", "op": "Conv2D"}, {"input": ["bn4b8_branch2c/mul_1", "bn4b8_branch2c/sub"], "attr": {"T": {"type": "DT_FLOAT"}}, "name": "bn4b8_branch2c/add_1", "op": "Add"}, {"input": ["bn4b8_branch2c/add_1", "res4b7_relu"], "attr": {"T": {"type": "DT_FLOAT"}}, "name": "add_19", "op": "Add"}, {"input": ["add_19"], "attr": {"T": {"type": "DT_FLOAT"}}, "name": "res4b8_relu", "op": "Relu"}, {"input": ["res4b8_relu", "res4b9_branch2a/merged_input"], "attr": {"explicit_paddings": {"list": {}}, "data_format": {"s": "TkhXQw=="}, "use_cudnn_on_gpu": {"b": true}, "padding": {"s": "VkFMSUQ="}, "strides": {"list": {"i": ["1", "1", "1", "1"]}}, "T": {"type": "DT_FLOAT"}, "dilations": {"list": {"i": ["1", "1", "1", "1"]}}}, "name": "bn4b9_branch2a/mul_1", "op": "Conv2D"}, {"input": ["bn4b9_branch2a/mul_1", "bn4b9_branch2a/sub"], "attr": {"T": {"type": "DT_FLOAT"}}, "name": "bn4b9_branch2a/add_1", "op": "Add"}, {"input": ["bn4b9_branch2a/add_1"], "attr": {"T": {"type": "DT_FLOAT"}}, "name": "res4b9_branch2a_relu", "op": "Relu"}, {"input": ["res4b9_branch2a_relu", "Pad_1/paddings"], "attr": {"Tpaddings": {"type": "DT_INT32"}, "T": {"type": "DT_FLOAT"}}, "name": "Pad_21", "op": "Pad"}, {"input": ["Pad_21", "res4b9_branch2b/merged_input"], "attr": {"explicit_paddings": {"list": {}}, "data_format": {"s": "TkhXQw=="}, "use_cudnn_on_gpu": {"b": true}, "padding": {"s": "VkFMSUQ="}, "strides": {"list": {"i": ["1", "1", "1", "1"]}}, "T": {"type": "DT_FLOAT"}, "dilations": {"list": {"i": ["1", "1", "1", "1"]}}}, "name": "bn4b9_branch2b/mul_1", "op": "Conv2D"}, {"input": ["bn4b9_branch2b/mul_1", "bn4b9_branch2b/sub"], "attr": {"T": {"type": "DT_FLOAT"}}, "name": "bn4b9_branch2b/add_1", "op": "Add"}, {"input": ["bn4b9_branch2b/add_1"], "attr": {"T": {"type": "DT_FLOAT"}}, "name": "res4b9_branch2b_relu", "op": "Relu"}, {"input": ["res4b9_branch2b_relu", "res4b9_branch2c/merged_input"], "attr": {"explicit_paddings": {"list": {}}, "data_format": {"s": "TkhXQw=="}, "use_cudnn_on_gpu": {"b": true}, "padding": {"s": "VkFMSUQ="}, "strides": {"list": {"i": ["1", "1", "1", "1"]}}, "T": {"type": "DT_FLOAT"}, "dilations": {"list": {"i": ["1", "1", "1", "1"]}}}, "name": "bn4b9_branch2c/mul_1", "op": "Conv2D"}, {"input": ["bn4b9_branch2c/mul_1", "bn4b9_branch2c/sub"], "attr": {"T": {"type": "DT_FLOAT"}}, "name": "bn4b9_branch2c/add_1", "op": "Add"}, {"input": ["bn4b9_branch2c/add_1", "res4b8_relu"], "attr": {"T": {"type": "DT_FLOAT"}}, "name": "add_20", "op": "Add"}, {"input": ["add_20"], "attr": {"T": {"type": "DT_FLOAT"}}, "name": "res4b9_relu", "op": "Relu"}, {"input": ["res4b9_relu", "res4b10_branch2a/merged_input"], "attr": {"explicit_paddings": {"list": {}}, "data_format": {"s": "TkhXQw=="}, "use_cudnn_on_gpu": {"b": true}, "padding": {"s": "VkFMSUQ="}, "strides": {"list": {"i": ["1", "1", "1", "1"]}}, "T": {"type": "DT_FLOAT"}, "dilations": {"list": {"i": ["1", "1", "1", "1"]}}}, "name": "bn4b10_branch2a/mul_1", "op": "Conv2D"}, {"input": ["bn4b10_branch2a/mul_1", "bn4b10_branch2a/sub"], "attr": {"T": {"type": "DT_FLOAT"}}, "name": "bn4b10_branch2a/add_1", "op": "Add"}, {"input": ["bn4b10_branch2a/add_1"], "attr": {"T": {"type": "DT_FLOAT"}}, "name": "res4b10_branch2a_relu", "op": "Relu"}, {"input": ["res4b10_branch2a_relu", "Pad_1/paddings"], "attr": {"Tpaddings": {"type": "DT_INT32"}, "T": {"type": "DT_FLOAT"}}, "name": "Pad_22", "op": "Pad"}, {"input": ["Pad_22", "res4b10_branch2b/merged_input"], "attr": {"explicit_paddings": {"list": {}}, "data_format": {"s": "TkhXQw=="}, "use_cudnn_on_gpu": {"b": true}, "padding": {"s": "VkFMSUQ="}, "strides": {"list": {"i": ["1", "1", "1", "1"]}}, "T": {"type": "DT_FLOAT"}, "dilations": {"list": {"i": ["1", "1", "1", "1"]}}}, "name": "bn4b10_branch2b/mul_1", "op": "Conv2D"}, {"input": ["bn4b10_branch2b/mul_1", "bn4b10_branch2b/sub"], "attr": {"T": {"type": "DT_FLOAT"}}, "name": "bn4b10_branch2b/add_1", "op": "Add"}, {"input": ["bn4b10_branch2b/add_1"], "attr": {"T": {"type": "DT_FLOAT"}}, "name": "res4b10_branch2b_relu", "op": "Relu"}, {"input": ["res4b10_branch2b_relu", "res4b10_branch2c/merged_input"], "attr": {"explicit_paddings": {"list": {}}, "data_format": …
nch2a_relu", "Pad_1/paddings"], "attr": {"Tpaddings": {"type": "DT_INT32"}, "T": {"type": "DT_FLOAT"}}, "name": "Pad_29", "op": "Pad"}, {"input": ["Pad_29", "res4b17_branch2b/merged_input"], "attr": {"explicit_paddings": {"list": {}}, "data_format": {"s": "TkhXQw=="}, "use_cudnn_on_gpu": {"b": true}, "padding": {"s": "VkFMSUQ="}, "strides": {"list": {"i": ["1", "1", "1", "1"]}}, "T": {"type": "DT_FLOAT"}, "dilations": {"list": {"i": ["1", "1", "1", "1"]}}}, "name": "bn4b17_branch2b/mul_1", "op": "Conv2D"}, {"input": ["bn4b17_branch2b/mul_1", "bn4b17_branch2b/sub"], "attr": {"T": {"type": "DT_FLOAT"}}, "name": "bn4b17_branch2b/add_1", "op": "Add"}, {"input": ["bn4b17_branch2b/add_1"], "attr": {"T": {"type": "DT_FLOAT"}}, "name": "res4b17_branch2b_relu", "op": "Relu"}, {"input": ["res4b17_branch2b_relu", "res4b17_branch2c/merged_input"], "attr": {"explicit_paddings": {"list": {}}, "data_format": {"s": "TkhXQw=="}, "use_cudnn_on_gpu": {"b": true}, "padding": {"s": "VkFMSUQ="}, "strides": {"list": {"i": ["1", "1", "1", "1"]}}, "T": {"type": "DT_FLOAT"}, "dilations": {"list": {"i": ["1", "1", "1", "1"]}}}, "name": "bn4b17_branch2c/mul_1", "op": "Conv2D"}, {"input": ["bn4b17_branch2c/mul_1", "bn4b17_branch2c/sub"], "attr": {"T": {"type": "DT_FLOAT"}}, "name": "bn4b17_branch2c/add_1", "op": "Add"}, {"input": ["bn4b17_branch2c/add_1", "res4b16_relu"], "attr": {"T": {"type": "DT_FLOAT"}}, "name": "add_28", "op": "Add"}, {"input": ["add_28"], "attr": {"T": {"type": "DT_FLOAT"}}, "name": "res4b17_relu", "op": "Relu"}, {"input": ["res4b17_relu", "res4b18_branch2a/merged_input"], "attr": {"explicit_paddings": {"list": {}}, "data_format": {"s": "TkhXQw=="}, "use_cudnn_on_gpu": {"b": true}, "padding": {"s": "VkFMSUQ="}, "strides": {"list": {"i": ["1", "1", "1", "1"]}}, "T": {"type": "DT_FLOAT"}, "dilations": {"list": {"i": ["1", "1", "1", "1"]}}}, "name": "bn4b18_branch2a/mul_1", "op": "Conv2D"}, {"input": ["bn4b18_branch2a/mul_1", "bn4b18_branch2a/sub"], "attr": {"T": {"type": "DT_FLOAT"}}, "name": "bn4b18_branch2a/add_1", "op": "Add"}, {"input": ["bn4b18_branch2a/add_1"], "attr": {"T": {"type": "DT_FLOAT"}}, "name": "res4b18_branch2a_relu", "op": "Relu"}, {"input": ["res4b18_branch2a_relu", "Pad_1/paddings"], "attr": {"Tpaddings": {"type": "DT_INT32"}, "T": {"type": "DT_FLOAT"}}, "name": "Pad_30", "op": "Pad"}, {"input": ["Pad_30", "res4b18_branch2b/merged_input"], "attr": {"explicit_paddings": {"list": {}}, "data_format": {"s": "TkhXQw=="}, "use_cudnn_on_gpu": {"b": true}, "padding": {"s": "VkFMSUQ="}, "strides": {"list": {"i": ["1", "1", "1", "1"]}}, "T": {"type": "DT_FLOAT"}, "dilations": {"list": {"i": ["1", "1", "1", "1"]}}}, "name": "bn4b18_branch2b/mul_1", "op": "Conv2D"}, {"input": ["bn4b18_branch2b/mul_1", "bn4b18_branch2b/sub"], "attr": {"T": {"type": "DT_FLOAT"}}, "name": "bn4b18_branch2b/add_1", "op": "Add"}, {"input": ["bn4b18_branch2b/add_1"], "attr": {"T": {"type": "DT_FLOAT"}}, "name": "res4b18_branch2b_relu", "op": "Relu"}, {"input": ["res4b18_branch2b_relu", "res4b18_branch2c/merged_input"], "attr": {"explicit_paddings": {"list": {}}, "data_format": {"s": "TkhXQw=="}, "use_cudnn_on_gpu": {"b": true}, "padding": {"s": "VkFMSUQ="}, "strides": {"list": {"i": ["1", "1", "1", "1"]}}, "T": {"type": "DT_FLOAT"}, "dilations": {"list": {"i": ["1", "1", "1", "1"]}}}, "name": "bn4b18_branch2c/mul_1", "op": "Conv2D"}, {"input": ["bn4b18_branch2c/mul_1", "bn4b18_branch2c/sub"], "attr": {"T": {"type": "DT_FLOAT"}}, "name": "bn4b18_branch2c/add_1", "op": "Add"}, {"input": ["bn4b18_branch2c/add_1", "res4b17_relu"], "attr": {"T": {"type": "DT_FLOAT"}}, "name": "add_29", "op": "Add"}, {"input": ["add_29"], "attr": {"T": {"type": "DT_FLOAT"}}, "name": "res4b18_relu", "op": "Relu"}, {"input": ["res4b18_relu", "res4b19_branch2a/merged_input"], "attr": {"explicit_paddings": {"list": {}}, "data_format": {"s": "TkhXQw=="}, "use_cudnn_on_gpu": {"b": true}, "padding": {"s": "VkFMSUQ="}, "strides": {"list": {"i": ["1", "1", "1", "1"]}}, "T": {"type": "DT_FLOAT"}, "dilations": {"list": {"i": ["1", "1", "1", "1"]}}}, "name": "bn4b19_branch2a/mul_1", "op": "Conv2D"}, {"input": ["bn4b19_branch2a/mul_1", "bn4b19_branch2a/sub"], "attr": {"T": {"type": "DT_FLOAT"}}, "name": "bn4b19_branch2a/add_1", "op": "Add"}, {"input": ["bn4b19_branch2a/add_1"], "attr": {"T": {"type": "DT_FLOAT"}}, "name": "res4b19_branch2a_relu", "op": "Relu"}, {"input": ["res4b19_branch2a_relu", "Pad_1/paddings"], "attr": {"Tpaddings": {"type": "DT_INT32"}, "T": {"type": "DT_FLOAT"}}, "name": "Pad_31", "op": "Pad"}, {"input": ["Pad_31", "res4b19_branch2b/merged_input"], "attr": {"explicit_paddings": {"list": {}}, "data_format": {"s": "TkhXQw=="}, "use_cudnn_on_gpu": {"b": true}, "padding": {"s": "VkFMSUQ="}, "strides": {"list": {"i": ["1", "1", "1", "1"]}}, "T": {"type": "DT_FLOAT"}, "dilations": {"list": {"i": ["1", "1", "1", "1"]}}}, "name": "bn4b19_branch2b/mul_1", "op": "Conv2D"}, {"input": ["bn4b19_branch2b/mul_1", "bn4b19_branch2b/sub"], "attr": {"T": {"type": "DT_FLOAT"}}, "name": "bn4b19_branch2b/add_1", "op": "Add"}, {"input": ["bn4b19_branch2b/add_1"], "attr": {"T": {"type": "DT_FLOAT"}}, "name": "res4b19_branch2b_relu", "op": "Relu"}, {"input": ["res4b19_branch2b_relu", "res4b19_branch2c/merged_input"], "attr": {"explicit_paddings": {"list": {}}, "data_format": {"s": "TkhXQw=="}, "use_cudnn_on_gpu": {"b": true}, "padding": {"s": "VkFMSUQ="}, "strides": {"list": {"i": ["1", "1", "1", "1"]}}, "T": {"type": "DT_FLOAT"}, "dilations": {"list": {"i": ["1", "1", "1", "1"]}}}, "name": "bn4b19_branch2c/mul_1", "op": "Conv2D"}, {"input": ["bn4b19_branch2c/mul_1", "bn4b19_branch2c/sub"], "attr": {"T": {"type": "DT_FLOAT"}}, "name": "bn4b19_branch2c/add_1", "op": "Add"}, {"input": ["bn4b19_branch2c/add_1", "res4b18_relu"], "attr": {"T": {"type": "DT_FLOAT"}}, "name": "add_30", "op": "Add"}, {"input": ["add_30"], "attr": {"T": {"type": "DT_FLOAT"}}, "name": "res4b19_relu", "op": "Relu"}, {"input": ["res4b19_relu", "res4b20_branch2a/merged_input"], "attr": {"explicit_paddings": {"list": {}}, "data_format": {"s": "TkhXQw=="}, "use_cudnn_on_gpu": {"b": true}, "padding": {"s": "VkFMSUQ="}, "strides": {"list": {"i": ["1", "1", "1", "1"]}}, "T": {"type": "DT_FLOAT"}, "dilations": {"list": {"i": ["1", "1", "1", "1"]}}}, "name": "bn4b20_branch2a/mul_1", "op": "Conv2D"}, {"input": ["bn4b20_branch2a/mul_1", "bn4b20_branch2a/sub"], "attr": {"T": {"type": "DT_FLOAT"}}, "name": "bn4b20_branch2a/add_1", "op": "Add"}, {"input": ["bn4b20_branch2a/add_1"], "attr": {"T": {"type": "DT_FLOAT"}}, "name": "res4b20_branch2a_relu", "op": "Relu"}, {"input": ["res4b20_branch2a_relu", "Pad_1/paddings"], "attr": {"Tpaddings": {"type": "DT_INT32"}, "T": {"type": "DT_FLOAT"}}, "name": "Pad_32", "op": "Pad"}, {"input": ["Pad_32", "res4b20_branch2b/merged_input"], "attr": {"explicit_paddings": {"list": {}}, "data_format": {"s": "TkhXQw=="}, "use_cudnn_on_gpu": {"b": true}, "padding": {"s": "VkFMSUQ="}, "strides": {"list": {"i": ["1", "1", "1", "1"]}}, "T": {"type": "DT_FLOAT"}, "dilations": {"list": {"i": ["1", "1", "1", "1"]}}}, "name": "bn4b20_branch2b/mul_1", "op": "Conv2D"}, {"input": ["bn4b20_branch2b/mul_1", "bn4b20_branch2b/sub"], "attr": {"T": {"type": "DT_FLOAT"}}, "name": "bn4b20_branch2b/add_1", "op": "Add"}, {"input": ["bn4b20_branch2b/add_1"], "attr": {"T": {"type": "DT_FLOAT"}}, "name": "res4b20_branch2b_relu", "op": "Relu"}, {"input": ["res4b20_branch2b_relu", "res4b20_branch2c/merged_input"], "attr": {"explicit_paddings": {"list": {}}, "data_format": {"s": "TkhXQw=="}, "use_cudnn_on_gpu": {"b": true}, "padding": {"s": "VkFMSUQ="}, "strides": {"list": {"i": ["1", "1", "1", "1"]}}, "T": {"type": "DT_FLOAT"}, "dilations": {"list": {"i": ["1", "1", "1", "1"]}}}, "name": "bn4b20_branch2c/mul_1", "op": "Conv2D"}, {"input": ["bn4b20_branch2c/mul_1", "bn4b20_branch2c/sub"], "attr": {"T": {"type": "DT_FLOAT"}}, "name": "bn4b20_branch2c/add_1", "op": "Add"}, {"input": ["bn4b20_branch2c/add_1", "res4b19_relu"], "attr": {"T": {"type": "DT_FLOAT"}}, "name": "add_31", "op": "Add"}, {"input": ["add_31"], "attr": {"T": {"type": "DT_FLOAT"}}, "name": "res4b20_relu", "op": "Relu"}, {"input": ["res4b20_relu", "res4b21_branch2a/merged_input"], "attr": {"explicit_paddings": {"list": {}}, "data_format": {"s": "TkhXQw=="}, "use_cudnn_on_gpu": {"b": true}, "padding": {"s": "VkFMSUQ="}, "strides": {"list": {"i": ["1", "1", "1", "1"]}}, "T": {"type": "DT_FLOAT"}, "dilations": {"list": {"i": ["1", "1", "1", "1"]}}}, "name": "bn4b21_branch2a/mul_1", "op": "Conv2D"}, {"input": ["bn4b21_branch2a/mul_1", "bn4b21_branch2a/sub"], "attr": {"T": {"type": "DT_FLOAT"}}, "name": "bn4b21_branch2a/add_1", "op": "Add"}, {"input": ["bn4b21_branch2a/add_1"], "attr": {"T": {"type": "DT_FLOAT"}}, "name": "res4b21_branch2a_relu", "op": "Relu"}, {"input": ["res4b21_branch2a_relu", "Pad_1/paddings"], "attr": {"Tpaddings": {"type": "DT_INT32"}, "T": {"type": "DT_FLOAT"}}, "name": "Pad_33", "op": "Pad"}, {"input": ["Pad_33", "res4b21_branch2b/merged_input"], "attr": {"explicit_paddings": {"list": {}}, "data_format": {"s": "TkhXQw=="}, "use_cudnn_on_gpu": {"b": true}, "padding": {"s": "VkFMSUQ="}, "strides": {"list": {"i": ["1", "1", "1", "1"]}}, "T": {"type": "DT_FLOAT"}, "dilations": {"list": {"i": ["1", "1", "1", "1"]}}}, "name": "bn4b21_branch2b/mul_1", "op": "Conv2D"}, {"input": ["bn4b21_branch2b/mul_1", "bn4b21_branch2b/sub"], "attr": {"T": {"type": "DT_FLOAT"}}, "name": "bn4b21_branch2b/add_1", "op": "Add"}, {"input": ["bn4b21_branch2b/add_1"], "attr": {"T": {"type": "DT_FLOAT"}}, "name": "res4b21_branch2b_relu", "op": "Relu"}, {"input": ["res4b21_branch2b_relu", "res4b21_branch2c/merged_input"], "attr": {"explicit_paddings": {"list": {}}, "data_format": {"s": "TkhXQw=="}, "use_cudnn_on_gpu": {"b": true}, "padding": {"s": "VkFMSUQ="}, "strides": {"list": {"i": ["1", "1", "1", "1"]}}, "T": {"type": "DT_FLOAT"}, "dilations": {"list": {"i": ["1", "1", "1", "1"]}}}, "name": "bn4b21_branch2c/mul_1", "op": "Conv2D"}, {"input": ["bn4b21_branch2c/mul_1", "bn4b21_branch2c/sub"], "attr": {"T": {"type": "DT_FLOAT"}}, "name": "bn4b21_branch2c/add_1", "op": "Add"}, {"input": ["bn4b21_branch2c/add_1", "res4b20_relu"], "attr": {"T": {"type": "DT_FLOAT"}}, "name": "add_32", "op": "Add"}, {"input": ["add_32"], "attr": {"T": {"type": "DT_FLOAT"}}, "name": "res4b21_relu", "op": "Relu"}, {"input": ["res4b21_relu", "res4b22_branch2a/merged_input"], "attr": {"explicit_paddings": {"list": {}}, "data_format": {"s": "TkhXQw=="}, "use_cudnn_on_gpu": {"b": true}, "padding": {"s": "VkFMSUQ="}, "strides": {"list": {"i": ["1", "1", "1", "1"]}}, "T": {"type": "DT_FLOAT"}, "dilations": {"list": {"i": ["1", "1", "1", "1"]}}}, "name": "bn4b22_branch2a/mul_1", "op": "Conv2D"}, {"input": ["bn4b22_branch2a/mul_1", "bn4b22_branch2a/sub"], "attr": {"T": {"type": "DT_FLOAT"}}, "name": "bn4b22_branch2a/add_1", "op": "Add"}, {"input": ["bn4b22_branch2a/add_1"], "attr": {"T": {"type": "DT_FLOAT"}}, "name": "res4b22_branch2a_relu", "op": "Relu"}, {"input": ["res4b22_branch2a_relu", "Pad_1/paddings"], "attr": {"Tpaddings": {"type": "DT_INT32"}, "T": {"type": "DT_FLOAT"}}, "name": "Pad_34", "op": "Pad"}, {"input": ["Pad_34", "res4b22_branch2b/merged_input"], "attr": {"explicit_paddings": {"list": {}}, "data_format": {"s": "TkhXQw=="}, "use_cudnn_on_gpu": {"b": true}, "padding": {"s": "VkFMSUQ="}, "strides": {"list": {"i": ["1", "1", "1", "1"]}}, "T": {"type": "DT_FLOAT"}, "dilations": {"list": {"i": ["1", "1", "1", "1"]}}}, "name": "bn4b22_branch2b/mul_1", "op": "Conv2D"}, {"input": ["bn4b22_branch2b/mul_1", "bn4b22_branch2b/sub"], "attr": {"T": {"type": "DT_FLOAT"}}, "name": "bn4b22_branch2b/add_1", "op": "Add"}, {"input": ["bn4b22_branch2b/add_1"], "attr": {"T": {"type": "DT_FLOAT"}}, "name": "res4b22_branch2b_relu", "op": "Relu"}, {"input": ["res4b22_branch2b_relu", "res4b22_branch2c/merged_input"], "attr": {"explicit_paddings": {"list": {}}, "data_format": {"s": "TkhXQw=="}, "use_cudnn_on_gpu": {"b": true}, "padding": {"s": "VkFMSUQ="}, "strides": {"list": {"i": ["1", "1", "1", "1"]}}, "T": {"type": "DT_FLOAT"}, "dilations": {"list": {"i": ["1", "1", "1", "1"]}}}, "name": "bn4b22_branch2c/mul_1", "op": "Conv2D"}, {"input": ["bn4b22_branch2c/mul_1", "bn4b22_branch2c/sub"], "attr": {"T": {"type": "DT_FLOAT"}}, "name": "bn4b22_branch2c/add_1", "op": "Add"}, {"input": ["bn4b22_branch2c/add_1", "res4b21_relu"], "attr": {"T": {"type": "DT_FLOAT"}}, "name": "add_33", "op": "Add"}, {"input": ["add_33"], "attr": {"T": {"type": "DT_FLOAT"}}, "name": "res4b22_relu", "op": "Relu"}, {"input": ["res4b22_relu", "res4b23_branch2a/merged_input"], "attr": {"explicit_paddings": {"list": {}}, "data_format": {"s": "TkhXQw=="}, "use_cudnn_on_gpu": {"b": true}, "padding": {"s": "VkFMSUQ="}, "strides": {"list": {"i": ["1", "1", "1", "1"]}}, "T": {"type": "DT_FLOAT"}, "dilations": {"list": {"i": ["1", "1", "1", "1"]}}}, "name": "bn4b23_branch2a/mul_1", "op": "Conv2D"}, {"input": ["bn4b23_branch2a/mul_1", "bn4b23_branch2a/sub"], "attr": {"T": {"type": "DT_FLOAT"}}, "name": "bn4b23_branch2a/add_1", "op": "Add"}, {"input": ["bn4b23_branch2a/add_1"], "attr": {"T": {"type": "DT_FLOAT"}}, "name": "res4b23_branch2a_relu", "op": "Relu"}, {"input": ["res4b23_branch2a_relu", "Pad_1/paddings"], "attr": {"Tpaddings": {"type": "DT_INT32"}, "T": {"type": "DT_FLOAT"}}, "name": "Pad_35", "op": "Pad"}, {"input": ["Pad_35", "res4b23_branch2b/merged_input"], "attr": {"explicit_paddings": {"list": {}}, "data_format": {"s": "TkhXQw=="}, "use_cudnn_on_gpu": {"b": true}, "padding": {"s": "VkFMSUQ="}, "strides": {"list": {"i": ["1", "1", "1", "1"]}}, "T": {"type": "DT_FLOAT"}, "dilations": {"list": {"i": ["1", "1", "1", "1"]}}}, "name": "bn4b23_branch2b/mul_1", "op": "Conv2D"}, {"input": ["bn4b23_branch2b/mul_1", "bn4b23_branch2b/sub"], "attr": {"T": {"type": "DT_FLOAT"}}, "name": "bn4b23_branch2b/add_1", "op": "Add"}, {"input": ["bn4b23_branch2b/add_1"], "attr": {"T": {"type": "DT_FLOAT"}}, "name": "res4b23_branch2b_relu", "op": "Relu"}, {"input": ["res4b23_branch2b_relu", "res4b23_branch2c/merged_input"], "attr": {"explicit_paddings": {"list": {}}, "data_format": {"s": "TkhXQw=="}, "use_cudnn_on_gpu": {"b": true}, "padding": {"s": "VkFMSUQ="}, "strides": {"list": {"i": ["1", "1", "1", "1"]}}, "T": {"type": "DT_FLOAT"}, "dilations": {"list": {"i": ["1", "1", "1", "1"]}}}, "name": "bn4b23_branch2c/mul_1", "op": "Conv2D"}, {"input": ["bn4b23_branch2c/mul_1", "bn4b23_branch2c/sub"], "attr": {"T": {"type": "DT_FLOAT"}}, "name": "bn4b23_branch2c/add_1", "op": "Add"}, {"input": ["bn4b23_branch2c/add_1", "res4b22_relu"], "attr": {"T": {"type": "DT_FLOAT"}}, "name": "add_34", "op": "Add"}, {"input": ["add_34"], "attr": {"T": {"type": "DT_FLOAT"}}, "name": "res4b23_relu", "op": "Relu"}, {"input": ["res4b23_relu", "res4b24_branch2a/merged_input"], "attr": {"explicit_paddings": {"list": {}}, "data_format": {"s": "TkhXQw=="}, "use_cudnn_on_gpu": {"b": true}, "padding": {"s": "VkFMSUQ="}, "strides": {"list": {"i": ["1", "1", "1", "1"]}}, "T": {"type": "DT_FLOAT"}, "dilations": {"list": {"i": ["1", "1", "1", "1"]}}}, "name": "bn4b24_branch2a/mul_1", "op": "Conv2D"}, {"input": ["bn4b24_branch2a/mul_1", "bn4b24_branch2a/sub"], "attr": {"T": {"type": "DT_FLOAT"}}, "name": "bn4b24_branch2a/add_1", "op": "Add"}, {"input": ["bn4b24_branch2a/add_1"], "attr": {"T": {"type": "DT_FLOAT"}}, "name": "res4b24_branch2a_relu", "op": "Relu"}, {"input": ["res4b24_branch2a_relu", "Pad_1/paddings"], "attr": {"Tpaddings": {"type": "DT_INT32"}, "T": {"type": "DT_FLOAT"}}, "name": "Pad_36", "op": "Pad"}, {"input": ["Pad_36", "res4b24_branch2b/merged_input"], "attr": {"explicit_paddings": {"list": {}}, "data_format": {"s": "TkhXQw=="}, "use_cudnn_on_gpu": {"b": true}, "padding": {"s": "VkFMSUQ="}, "strides": {"list": {"i": ["1", "1", "1", "1"]}}, "T": {"type": "DT_FLOAT"}, "dilations": {"list": {"i": ["1", "1", "1", "1"]}}}, "name": "bn4b24_branch2b/mul_1", "op": "Conv2D"}, {"input": ["bn4b24_branch2b/mul_1", "bn4b24_branch2b/sub"], "attr": {"T": {"type": "DT_FLOAT"}}, "name": "bn4b24_branch2b/add_1", "op": "Add"}, {"input": ["bn4b24_branch2b/add_1"], "attr": {"T": {"type": "DT_FLOAT"}}, "name": "res4b24_branch2b_relu", "op": "Relu"}, {"input": ["res4b24_branch2b_relu", "res4b24_branch2c/merged_input"], "attr": {"explicit_paddings": {"list": {}}, "data_format": {"s": "TkhXQw=="}, "use_cudnn_on_gpu": {"b": true}, "padding": {"s": "VkFMSUQ="}, "strides": {"list": {"i": ["1", "1", "1", "1"]}}, "T": {"type": "DT_FLOAT"}, "dilations": {"list": {"i": ["1", "1", "1", "1"]}}}, "name": "bn4b24_branch2c/mul_1", "op": "Conv2D"}, {"input": ["bn4b24_branch2c/mul_1", "bn4b24_branch2c/sub"], "attr": {"T": {"type": "DT_FLOAT"}}, "name": "bn4b24_branch2c/add_1", "op": "Add"}, {"input": ["bn4b24_branch2c/add_1", "res4b23_relu"], "attr": {"T": {"type": "DT_FLOAT"}}, "name": "add_35", "op": "Add"}, {"input": ["add_35"], "attr": {"T": {"type": "DT_FLOAT"}}, "name": "res4b24_relu", "op": "Relu"}, {"input": ["res4b24_relu", "res4b25_branch2a/merged_input"], "attr": {"explicit_paddings": {"list": {}}, "data_format": {"s": "TkhXQw=="}, "use_cudnn_on_gpu": {"b": true}, "padding": {"s": "VkFMSUQ="}, "strides": {"list": {"i": ["1", "1", "1", "1"]}}, "T": {"type": "DT_FLOAT"}, "dilations": {"list": {"i": ["1", "1", "1", "1"]}}}, "name": "bn4b25_branch2a/mul_1", "op": "Conv2D"}, {"input": ["bn4b25_branch2a/mul_1", "bn4b25_branch2a/sub"], "attr": {"T": {"type": "DT_FLOAT"}}, "name": "bn4b25_branch2a/add_1", "op": "Add"}, {"input": ["bn4b25_branch2a/add_1"], "attr": {"T": {"type": "DT_FLOAT"}}, "name": "res4b25_branch2a_relu", "op": "Relu"}, {"input": ["res4b25_branch2a_relu", "Pad_1/paddings"], "attr": {"Tpaddings": {"type": "DT_INT32"}, "T": {"type": "DT_FLOAT"}}, "name": "Pad_37", "op": "Pad"}, {"input": ["Pad_37", "res4b25_branch2b/merged_input"], "attr": {"explicit_paddings": {"list": {}}, "data_format": {"s": "TkhXQw=="}, "use_cudnn_on_gpu": {"b": true}, "padding": {"s": "VkFMSUQ="}, "strides": {"list": {"i": ["1", "1", "1", "1"]}}, "T": {"type": "DT_FLOAT"}, "dilations": {"list": {"i": ["1", "1", "1", "1"]}}}, "name": "bn4b25_branch2b/mul_1", "op": "Conv2D"}, {"input": ["bn4b25_branch2b/mul_1", "bn4b25_branch2b/sub"], "attr": {"T": {"type": "DT_FLOAT"}}, "name": "bn4b25_branch2b/add_1", "op": "Add"}, {"input": ["bn4b25_branch2b/add_1"], "attr": {"T": {"type": "DT_FLOAT"}}, "name": "res4b25_branch2b_relu", "op": "Relu"}, {"input": ["res4b25_branch2b_relu", "res4b25_branch2c/merged_input"], "attr": {"explicit_paddings": {"list": {}}, "data_format": {"s": "TkhXQw=="}, "use_cudnn_on_gpu": {"b": true}, "padding": {"s": "VkFMSUQ="}, "strides": {"list": {"i": ["1", "1", "1", "1"]}}, "T": {"type": "DT_FLOAT"}, "dilations": {"list": {"i": ["1", "1", "1", "1"]}}}, "name": "bn4b25_branch2c/mul_1", "op": "Conv2D"}, {"input": ["bn4b25_branch2c/mul_1", "bn4b25_branch2c/sub"], "attr": {"T": {"type": "DT_FLOAT"}}, "name": "bn4b25_branch2c/add_1", "op": "Add"}, {"input": ["bn4b25_branch2c/add_1", "res4b24_relu"], "attr": {"T": {"type": "DT_FLOAT"}}, "name": "add_36", "op": "Add"}, {"input": ["add_36"], "attr": {"T": {"type": "DT_FLOAT"}}, "name": "res4b25_relu", "op": "Relu"}, {"input": ["res4b25_relu", "res4b26_branch2a/merged_input"], "attr": {"explicit_paddings": {"list": {}}, "data_format": {"s": "TkhXQw=="}, "use_cudnn_on_gpu": {"b": true}, "padding": {"s": "VkFMSUQ="}, "strides": {"list": {"i": ["1", "1", "1", "1"]}}, "T": {"type": "DT_FLOAT"}, "dilations": {"list": {"i": ["1", "1", "1", "1"]}}}, "name": "bn4b26_branch2a/mul_1", "op": "Conv2D"}, {"input": ["bn4b26_branch2a/mul_1", "bn4b26_branch2a/sub"], "attr": {"T": {"type": "DT_FLOAT"}}, "name": "bn4b26_branch2a/add_1", "op": "Add"}, {"input": ["bn4b26_branch2a/add_1"], "attr": {"T": {"type": "DT_FLOAT"}}, "name": "res4b26_branch2a_relu", "op": "Relu"}, {"input": ["res4b26_branch2a_relu", "Pad_1/paddings"], "attr": {"Tpaddings": {"type": "DT_INT32"}, "T": {"type": "DT_FLOAT"}}, "name": "Pad_38", "op": "Pad"}, {"input": ["Pad_38", "res4b26_branch2b/merged_input"], "attr": {"explicit_paddings": {"list": {}}, "data_format": {"s": "TkhXQw=="}, "use_cudnn_on_gpu": {"b": true}, "padding": {"s": "VkFMSUQ="}, "strides": {"list": {"i": ["1", "1", "1", "1"]}}, "T": {"type": "DT_FLOAT"}, "dilations": {"list": {"i": ["1", "1", "1", "1"]}}}, "name": "bn4b26_branch2b/mul_1", "op": "Conv2D"}, {"input": ["bn4b26_branch2b/mul_1", "bn4b26_branch2b/sub"], "attr": {"T": {"type": "DT_FLOAT"}}, "name": "bn4b26_branch2b/add_1", "op": "Add"}, {"input": ["bn4b26_branch2b/add_1"], "attr": {"T": {"type": "DT_FLOAT"}}, "name": "res4b26_branch2b_relu", "op": "Relu"}, {"input": ["res4b26_branch2b_relu", "res4b26_branch2c/merged_input"], "attr": {"explicit_paddings": {"list": {}}, "data_format": {"s": "TkhXQw=="}, "use_cudnn_on_gpu": {"b": true}, "padding": {"s": "VkFMSUQ="}, "strides": {"list": {"i": ["1", "1", "1", "1"]}}, "T": {"type": "DT_FLOAT"}, "dilations": {"list": {"i": ["1", "1", "1", "1"]}}}, "name": "bn4b26_branch2c/mul_1", "op": "Conv2D"}, {"input": ["bn4b26_branch2c/mul_1", "bn4b26_branch2c/sub"], "attr": {"T": {"type": "DT_FLOAT"}}, "name": "bn4b26_branch2c/add_1", "op": "Add"}, {"input": ["bn4b26_branch2c/add_1", "res4b25_relu"], "attr": {"T": {"type": "DT_FLOAT"}}, "name": "add_37", "op": "Add"}, {"input": ["add_37"], "attr": {"T": {"type": "DT_FLOAT"}}, "name": "res4b26_relu", "op": "Relu"}, {"input": ["res4b26_relu", "res4b27_branch2a/merged_input"], "attr": {"explicit_paddings": {"list": {}}, "data_format": {"s": "TkhXQw=="}, "use_cudnn_on_gpu": {"b": true}, "padding": {"s": "VkFMSUQ="}, "strides": {"list": {"i": ["1", "1", "1", "1"]}}, "T": {"type": "DT_FLOAT"}, "dilations": {"list": {"i": ["1", "1", "1", "1"]}}}, "name": "bn4b27_branch2a/mul_1", "op": "Conv2D"}, {"input": ["bn4b27_branch2a/mul_1", "bn4b27_branch2a/sub"], "attr": {"T": {"type": "DT_FLOAT"}}, "name": "bn4b27_branch2a/add_1", "op": "Add"}, {"input": ["bn4b27_branch2a/add_1"], "attr": {"T": {"type": "DT_FLOAT"}}, "name": "res4b27_branch2a_relu", "op": "Relu"}, {"input": ["res4b27_branch2a_relu", "Pad_1/paddings"], "attr": {"Tpaddings": {"type": "DT_INT32"}, "T": {"type": "DT_FLOAT"}}, "name": "Pad_39", "op": "Pad"}, {"input": ["Pad_39", "res4b27_branch2b/merged_input"], "attr": {"explicit_paddings": {"list": {}}, "data_format": {"s": "TkhXQw=="}, "use_cudnn_on_gpu": {"b": true}, "padding": {"s": "VkFMSUQ="}, "strides": {"list": {"i": ["1", "1", "1", "1"]}}, "T": {"type": "DT_FLOAT"}, "dilations": {"list": {"i": ["1", "1", "1", "1"]}}}, "name": "bn4b27_branch2b/mul_1", "op": "Conv2D"}, {"input": ["bn4b27_branch2b/mul_1", "bn4b27_branch2b/sub"], "attr": {"T": {"type": "DT_FLOAT"}}, "name": "bn4b27_branch2b/add_1", "op": "Add"}, {"input": ["bn4b27_branch2b/add_1"], "attr": {"T": {"type": "DT_FLOAT"}}, "name": "res4b27_branch2b_relu", "op": "Relu"}, {"input": ["res4b27_branch2b_relu", "res4b27_branch2c/merged_input"], "attr": {"explicit_paddings": {"list": {}}, "data_format": {"s": "TkhXQw=="}, "use_cudnn_on_gpu": {"b": true}, "padding": {"s": "VkFMSUQ="}, "strides": {"list": {"i": ["1", "1", "1", "1"]}}, "T": {"type": "DT_FLOAT"}, "dilations": {"list": {"i": ["1", "1", "1", "1"]}}}, "name": "bn4b27_branch2c/mul_1", "op": "Conv2D"}, {"input": ["bn4b27_branch2c/mul_1", "bn4b27_branch2c/sub"], "attr": {"T": {"type": "DT_FLOAT"}}, "name": "bn4b27_branch2c/add_1", "op": "Add"}, {"input": ["bn4b27_branch2c/add_1", "res4b26_relu"], "attr": {"T": {"type": "DT_FLOAT"}}, "name": "add_38", "op": "Add"}, {"input": ["add_38"], "attr": {"T": {"type": "DT_FLOAT"}}, "name": "res4b27_relu", "op": "Relu"}, {"input": ["res4b27_relu", "res4b28_branch2a/merged_input"], "attr": {"explicit_paddings": {"list": {}}, "data_format": {"s": "TkhXQw=="}, "use_cudnn_on_gpu": {"b": true}, "padding": {"s": "VkFMSUQ="}, "strides": {"list": {"i": ["1", "1", "1", "1"]}}, "T": {"type": "DT_FLOAT"}, "dilations": {"list": {"i": ["1", "1", "1", "1"]}}}, "name": "bn4b28_branch2a/mul_1", "op": "Conv2D"}, {"input": ["bn4b28_branch2a/mul_1", "bn4b28_branch2a/sub"], "attr": {"T": {"type": "DT_FLOAT"}}, "name": "bn4b28_branch2a/add_1", "op": "Add"}, {"input": ["bn4b28_branch2a/add_1"], "attr": {"T": {"type": "DT_FLOAT"}}, "name": "res4b28_branch2a_relu", "op": "Relu"}, {"input": ["res4b28_branch2a_relu", "Pad_1/paddings"], "attr": {"Tpaddings": {"type": "DT_INT32"}, "T": {"type": "DT_FLOAT"}}, "name": "Pad_40", "op": "Pad"}, {"input": ["Pad_40", "res4b28_branch2b/merged_input"], "attr": {"explicit_paddings": {"list": {}}, "data_format": {"s": "TkhXQw=="}, "use_cudnn_on_gpu": {"b": true}, "padding": {"s": "VkFMSUQ="}, "strides": {"list": {"i": ["1", "1", "1", "1"]}}, "T": {"type": "DT_FLOAT"}, "dilations": {"list": {"i": ["1", "1", "1", "1"]}}}, "name": "bn4b28_branch2b/mul_1", "op": "Conv2D"}, {"input": ["bn4b28_branch2b/mul_1", "bn4b28_branch2b/sub"], "attr": {"T": {"type": "DT_FLOAT"}}, "name": "bn4b28_branch2b/add_1", "op": "Add"}, {"input": ["bn4b28_branch2b/add_1"], "attr": {"T": {"type": "DT_FLOAT"}}, "name": "res4b28_branch2b_relu", "op": "Relu"}, {"input": ["res4b28_branch2b_relu", "res4b28_branch2c/merged_input"], "attr": {"explicit_paddings": {"list": {}}, "data_format": {"s": "TkhXQw=="}, "use_cudnn_on_gpu": {"b": true}, "padding": {"s": "VkFMSUQ="}, "strides": {"list": {"i": ["1", "1", "1", "1"]}}, "T": {"type": "DT_FLOAT"}, "dilations": {"list": {"i": ["1", "1", "1", "1"]}}}, "name": "bn4b28_branch2c/mul_1", "op": "Conv2D"}, {"input": ["bn4b28_branch2c/mul_1", "bn4b28_branch2c/sub"], "attr": {"T": {"type": "DT_FLOAT"}}, "name": "bn4b28_branch2c/add_1", "op": "Add"}, {"input": ["bn4b28_branch2c/add_1", "res4b27_relu"], "attr": {"T": {"type": "DT_FLOAT"}}, "name": "add_39", "op": "Add"}, {"input": ["add_39"], "attr": {"T": {"type": "DT_FLOAT"}}, "name": "res4b28_relu", "op": "Relu"}, {"input": ["res4b28_relu", "res4b29_branch2a/merged_input"], "attr": {"explicit_paddings": {"list": {}}, "data_format": {"s": "TkhXQw=="}, "use_cudnn_on_gpu": {"b": true}, "padding": {"s": "VkFMSUQ="}, "strides": {"list": {"i": ["1", "1", "1", "1"]}}, "T": {"type": "DT_FLOAT"}, "dilations": {"list": {"i": ["1", "1", "1", "1"]}}}, "name": "bn4b29_branch2a/mul_1", "op": "Conv2D"}, {"input": ["bn4b29_branch2a/mul_1", "bn4b29_branch2a/sub"], "attr": {"T": {"type": "DT_FLOAT"}}, "name": "bn4b29_branch2a/add_1", "op": "Add"}, {"input": ["bn4b29_branch2a/add_1"], "attr": {"T": {"type": "DT_FLOAT"}}, "name": "res4b29_branch2a_relu", "op": "Relu"}, {"input": ["res4b29_branch2a_relu", "Pad_1/paddings"], "attr": {"Tpaddings": {"type": "DT_INT32"}, "T": {"type": "DT_FLOAT"}}, "name": "Pad_41", "op": "Pad"}, {"input": ["Pad_41", "res4b29_branch2b/merged_input"], "attr": {"explicit_paddings": {"list": {}}, "data_format": {"s": "TkhXQw=="}, "use_cudnn_on_gpu": {"b": true}, "padding": {"s": "VkFMSUQ="}, "strides": {"list": {"i": ["1", "1", "1", "1"]}}, "T": {"type": "DT_FLOAT"}, "dilations": {"list": {"i": ["1", "1", "1", "1"]}}}, "name": "bn4b29_branch2b/mul_1", "op": "Conv2D"}, {"input": ["bn4b29_branch2b/mul_1", "bn4b29_branch2b/sub"], "attr": {"T": {"type": "DT_FLOAT"}}, "name": "bn4b29_branch2b/add_1", "op": "Add"}, {"input": ["bn4b29_branch2b/add_1"], "attr": {"T": {"type": "DT_FLOAT"}}, "name": "res4b29_branch2b_relu", "op": "Relu"}, {"input": ["res4b29_branch2b_relu", "res4b29_branch2c/merged_input"], "attr": {"explicit_paddings": {"list": {}}, "data_format": {"s": "TkhXQw=="}, "use_cudnn_on_gpu": {"b": true}, "padding": {"s": "VkFMSUQ="}, "strides": {"list": {"i": ["1", "1", "1", "1"]}}, "T": {"type": "DT_FLOAT"}, "dilations": {"list": {"i": ["1", "1", "1", "1"]}}}, "name": "bn4b29_branch2c/mul_1", "op": "Conv2D"}, {"input": ["bn4b29_branch2c/mul_1", "bn4b29_branch2c/sub"], "attr": {"T": {"type": "DT_FLOAT"}}, "name": "bn4b29_branch2c/add_1", "op": "Add"}, {"input": ["bn4b29_branch2c/add_1", "res4b28_relu"], "attr": {"T": {"type": "DT_FLOAT"}}, "name": "add_40", "op": "Add"}, {"input": ["add_40"], "attr": {"T": {"type": "DT_FLOAT"}}, "name": "res4b29_relu", "op": "Relu"}, {"input": ["res4b29_relu", "res4b30_branch2a/merged_input"], "attr": {"explicit_paddings": {"list": {}}, "data_format": {"s": "TkhXQw=="}, "use_cudnn_on_gpu": {"b": true}, "padding": {"s": "VkFMSUQ="}, "strides": {"list": {"i": ["1", "1", "1", "1"]}}, "T": {"type": "DT_FLOAT"}, "dilations": {"list": {"i": ["1", "1", "1", "1"]}}}, "name": "bn4b30_branch2a/mul_1", "op": "Conv2D"}, {"input": ["bn4b30_branch2a/mul_1", "bn4b30_branch2a/sub"], "attr": {"T": {"type": "DT_FLOAT"}}, "name": "bn4b30_branch2a/add_1", "op": "Add"}, {"input": ["bn4b30_branch2a/add_1"], "attr": {"T": {"type": "DT_FLOAT"}}, "name": "res4b30_branch2a_relu", "op": "Relu"}, {"input": ["res4b30_branch2a_relu", "Pad_1/paddings"], "attr": {"Tpaddings": {"type": "DT_INT32"}, "T": {"type": "DT_FLOAT"}}, "name": "Pad_42", "op": "Pad"}, {"input": ["Pad_42", "res4b30_branch2b/merged_input"], "attr": {"explicit_paddings": {"list": {}}, "data_format": {"s": "TkhXQw=="}, "use_cudnn_on_gpu": {"b": true}, "padding": {"s": "VkFMSUQ="}, "strides": {"list": {"i": ["1", "1", "1", "1"]}}, "T": {"type": "DT_FLOAT"}, "dilations": {"list": {"i": ["1", "1", "1", "1"]}}}, "name": "bn4b30_branch2b/mul_1", "op": "Conv2D"}, {"input": ["bn4b30_branch2b/mul_1", "bn4b30_branch2b/sub"], "attr": {"T": {"type": "DT_FLOAT"}}, "name": "bn4b30_branch2b/add_1", "op": "Add"}, {"input": ["bn4b30_branch2b/add_1"], "attr": {"T": {"type": "DT_FLOAT"}}, "name": "res4b30_branch2b_relu", "op": "Relu"}, {"input": ["res4b30_branch2b_relu", "res4b30_branch2c/merged_input"], "attr": {"explicit_paddings": {"list": {}}, "data_format": {"s": "TkhXQw=="}, "use_cudnn_on_gpu": {"b": true}, "padding": {"s": "VkFMSUQ="}, "strides": {"list": {"i": ["1", "1", "1", "1"]}}, "T": {"type": "DT_FLOAT"}, "dilations": {"list": {"i": ["1", "1", "1", "1"]}}}, "name": "bn4b30_branch2c/mul_1", "op": "Conv2D"}, {"input": ["bn4b30_branch2c/mul_1", "bn4b30_branch2c/sub"], "attr": {"T": {"type": "DT_FLOAT"}}, "name": "bn4b30_branch2c/add_1", "op": "Add"}, {"input": ["bn4b30_branch2c/add_1", "res4b29_relu"], "attr": {"T": {"type": "DT_FLOAT"}}, "name": "add_41", "op": "Add"}, {"input": ["add_41"], "attr": {"T": {"type": "DT_FLOAT"}}, "name": "res4b30_relu", "op": "Relu"}, {"input": ["res4b30_relu", "res4b31_branch2a/merged_input"], "attr": {"explicit_paddings": {"list": {}}, "data_format": {"s": "TkhXQw=="}, "use_cudnn_on_gpu": {"b": true}, "padding": {"s": "VkFMSUQ="}, "strides": {"list": {"i": ["1", "1", "1", "1"]}}, "T": {"type": "DT_FLOAT"}, "dilations": {"list": {"i": ["1", "1", "1", "1"]}}}, "name": "bn4b31_branch2a/mul_1", "op": "Conv2D"}, {"input": ["bn4b31_branch2a/mul_1", "bn4b31_branch2a/sub"], "attr": {"T": {"type": "DT_FLOAT"}}, "name": "bn4b31_branch2a/add_1", "op": "Add"}, {"input": ["bn4b31_branch2a/add_1"], "attr": {"T": {"type": "DT_FLOAT"}}, "name": "res4b31_branch2a_relu", "op": "Relu"}, {"input": ["res4b31_branch2a_relu", "Pad_1/paddings"], "attr": {"Tpaddings": {"type": "DT_INT32"}, "T": {"type": "DT_FLOAT"}}, "name": "Pad_43", "op": "Pad"}, {"input": ["Pad_43", "res4b31_branch2b/merged_input"], "attr": {"explicit_paddings": {"list": {}}, "data_format": {"s": "TkhXQw=="}, "use_cudnn_on_gpu": {"b": true}, "padding": {"s": "VkFMSUQ="}, "strides": {"list": {"i": ["1", "1", "1", "1"]}}, "T": {"type": "DT_FLOAT"}, "dilations": {"list": {"i": ["1", "1", "1", "1"]}}}, "name": "bn4b31_branch2b/mul_1", "op": "Conv2D"}, {"input": ["bn4b31_branch2b/mul_1", "bn4b31_branch2b/sub"], "attr": {"T": {"type": "DT_FLOAT"}}, "name": "bn4b31_branch2b/add_1", "op": "Add"}, {"input": ["bn4b31_branch2b/add_1"], "attr": {"T": {"type": "DT_FLOAT"}}, "name": "res4b31_branch2b_relu", "op": "Relu"}, {"input": ["res4b31_branch2b_relu", "res4b31_branch2c/merged_input"], "attr": {"explicit_paddings": {"list": {}}, "data_format": {"s": "TkhXQw=="}, "use_cudnn_on_gpu": {"b": true}, "padding": {"s": "VkFMSUQ="}, "strides": {"list": {"i": ["1", "1", "1", "1"]}}, "T": {"type": "DT_FLOAT"}, "dilations": {"list": {"i": ["1", "1", "1", "1"]}}}, "name": "bn4b31_branch2c/mul_1", "op": "Conv2D"}, {"input": ["bn4b31_branch2c/mul_1", "bn4b31_branch2c/sub"], "attr": {"T": {"type": "DT_FLOAT"}}, "name": "bn4b31_branch2c/add_1", "op": "Add"}, {"input": ["bn4b31_branch2c/add_1", "res4b30_relu"], "attr": {"T": {"type": "DT_FLOAT"}}, "name": "add_42", "op": "Add"}, {"input": ["add_42"], "attr": {"T": {"type": "DT_FLOAT"}}, "name": "res4b31_relu", "op": "Relu"}, {"input": ["res4b31_relu", "res4b32_branch2a/merged_input"], "attr": {"explicit_paddings": {"list": {}}, "data_format": {"s": "TkhXQw=="}, "use_cudnn_on_gpu": {"b": true}, "padding": {"s": "VkFMSUQ="}, "strides": {"list": {"i": ["1", "1", "1", "1"]}}, "T": {"type": "DT_FLOAT"}, "dilations": {"list": {"i": ["1", "1", "1", "1"]}}}, "name": "bn4b32_branch2a/mul_1", "op": "Conv2D"}, {"input": ["bn4b32_branch2a/mul_1", "bn4b32_branch2a/sub"], "attr": {"T": {"type": "DT_FLOAT"}}, "name": "bn4b32_branch2a/add_1", "op": "Add"}, {"input": ["bn4b32_branch2a/add_1"], "attr": {"T": {"type": "DT_FLOAT"}}, "name": "res4b32_branch2a_relu", "op": "Relu"}, {"input": ["res4b32_branch2a_relu", "Pad_1/paddings"], "attr": {"Tpaddings": {"type": "DT_INT32"}, "T": {"type": "DT_FLOAT"}}, "name": "Pad_44", "op": "Pad"}, {"input": ["Pad_44", "res4b32_branch2b/merged_input"], "attr": {"explicit_paddings": {"list": {}}, "data_format": {"s": "TkhXQw=="}, "use_cudnn_on_gpu": {"b": true}, "padding": {"s": "VkFMSUQ="}, "strides": {"list": {"i": ["1", "1", "1", "1"]}}, "T": {"type": "DT_FLOAT"}, "dilations": {"list": {"i": ["1", "1", "1", "1"]}}}, "name": "bn4b32_branch2b/mul_1", "op": "Conv2D"}, {"input": ["bn4b32_branch2b/mul_1", "bn4b32_branch2b/sub"], "attr": {"T": {"type": "DT_FLOAT"}}, "name": "bn4b32_branch2b/add_1", "op": "Add"}, {"input": ["bn4b32_branch2b/add_1"], "attr": {"T": {"type": "DT_FLOAT"}}, "name": "res4b32_branch2b_relu", "op": "Relu"}, {"input": ["res4b32_branch2b_relu", "res4b32_branch2c/merged_input"], "attr": {"explicit_paddings": {"list": {}}, "data_format": {"s": "TkhXQw=="}, "use_cudnn_on_gpu": {"b": true}, "padding": {"s": "VkFMSUQ="}, "strides": {"list": {"i": ["1", "1", "1", "1"]}}, "T": {"type": "DT_FLOAT"}, "dilations": {"list": {"i": ["1", "1", "1", "1"]}}}, "name": "bn4b32_branch2c/mul_1", "op": "Conv2D"}, {"input": ["bn4b32_branch2c/mul_1", "bn4b32_branch2c/sub"], "attr": {"T": {"type": "DT_FLOAT"}}, "name": "bn4b32_branch2c/add_1", "op": "Add"}, {"input": ["bn4b32_branch2c/add_1", "res4b31_relu"], "attr": {"T": {"type": "DT_FLOAT"}}, "name": "add_43", "op": "Add"}, {"input": ["add_43"], "attr": {"T": {"type": "DT_FLOAT"}}, "name": "res4b32_relu", "op": "Relu"}, {"input": ["res4b32_relu", "res4b33_branch2a/merged_input"], "attr": {"explicit_paddings": {"list": {}}, "data_format": {"s": "TkhXQw=="}, "use_cudnn_on_gpu": {"b": true}, "padding": {"s": "VkFMSUQ="}, "strides": {"list": {"i": ["1", "1", "1", "1"]}}, "T": {"type": "DT_FLOAT"}, "dilations": {"list": {"i": ["1", "1", "1", "1"]}}}, "name": "bn4b33_branch2a/mul_1", "op": "Conv2D"}, {"input": ["bn4b33_branch2a/mul_1", "bn4b33_branch2a/sub"], "attr": {"T": {"type": "DT_FLOAT"}}, "name": "bn4b33_branch2a/add_1", "op": "Add"}, {"input": ["bn4b33_branch2a/add_1"], "attr": {"T": {"type": "DT_FLOAT"}}, "name": "res4b33_branch2a_relu", "op": "Relu"}, {"input": ["res4b33_branch2a_relu", "Pad_1/paddings"], "attr": {"Tpaddings": {"type": "DT_INT32"}, "T": {"type": "DT_FLOAT"}}, "name": "Pad_45", "op": "Pad"}, {"input": ["Pad_45", "res4b33_branch2b/merged_input"], "attr": {"explicit_paddings": {"list": {}}, "data_format": {"s": "TkhXQw=="}, "use_cudnn_on_gpu": {"b": true}, "padding": {"s": "VkFMSUQ="}, "strides": {"list": {"i": ["1", "1", "1", "1"]}}, "T": {"type": "DT_FLOAT"}, "dilations": {"list": {"i": ["1", "1", "1", "1"]}}}, "name": "bn4b33_branch2b/mul_1", "op": "Conv2D"}, {"input": ["bn4b33_branch2b/mul_1", "bn4b33_branch2b/sub"], "attr": {"T": {"type": "DT_FLOAT"}}, "name": "bn4b33_branch2b/add_1", "op": "Add"}, {"input": ["bn4b33_branch2b/add_1"], "attr": {"T": {"type": "DT_FLOAT"}}, "name": "res4b33_branch2b_relu", "op": "Relu"}, {"input": ["res4b33_branch2b_relu", "res4b33_branch2c/merged_input"], "attr": {"explicit_paddings": {"list": {}}, "data_format": {"s": "TkhXQw=="}, "use_cudnn_on_gpu": {"b": true}, "padding": {"s": "VkFMSUQ="}, "strides": {"list": {"i": ["1", "1", "1", "1"]}}, "T": {"type": "DT_FLOAT"}, "dilations": {"list": {"i": ["1", "1", "1", "1"]}}}, "name": "bn4b33_branch2c/mul_1", "op": "Conv2D"}, {"input": ["bn4b33_branch2c/mul_1", "bn4b33_branch2c/sub"], "attr": {"T": {"type": "DT_FLOAT"}}, "name": "bn4b33_branch2c/add_1", "op": "Add"}, {"input": ["bn4b33_branch2c/add_1", "res4b32_relu"], "attr": {"T": {"type": "DT_FLOAT"}}, "name": "add_44", "op": "Add"}, {"input": ["add_44"], "attr": {"T": {"type": "DT_FLOAT"}}, "name": "res4b33_relu", "op": "Relu"}, {"input": ["res4b33_relu", "res4b34_branch2a/merged_input"], "attr": {"explicit_paddings": {"list": {}}, "data_format": {"s": "TkhXQw=="}, "use_cudnn_on_gpu": {"b": true}, "padding": {"s": "VkFMSUQ="}, "strides": {"list": {"i": ["1", "1", "1", "1"]}}, "T": {"type": "DT_FLOAT"}, "dilations": {"list": {"i": ["1", "1", "1", "1"]}}}, "name": "bn4b34_branch2a/mul_1", "op": "Conv2D"}, {"input": ["bn4b34_branch2a/mul_1", "bn4b34_branch2a/sub"], "attr": {"T": {"type": "DT_FLOAT"}}, "name": "bn4b34_branch2a/add_1", "op": "Add"}, {"input": ["bn4b34_branch2a/add_1"], "attr": {"T": {"type": "DT_FLOAT"}}, "name": "res4b34_branch2a_relu", "op": "Relu"}, {"input": ["res4b34_branch2a_relu", "Pad_1/paddings"], "attr": {"Tpaddings": {"type": "DT_INT32"}, "T": {"type": "DT_FLOAT"}}, "name": "Pad_46", "op": "Pad"}, {"input": ["Pad_46", "res4b34_branch2b/merged_input"], "attr": {"explicit_paddings": {"list": {}}, "data_format": {"s": "TkhXQw=="}, "use_cudnn_on_gpu": {"b": true}, "padding": {"s": "VkFMSUQ="}, "strides": {"list": {"i": ["1", "1", "1", "1"]}}, "T": {"type": "DT_FLOAT"}, "dilations": {"list": {"i": ["1", "1", "1", "1"]}}}, "name": "bn4b34_branch2b/mul_1", "op": "Conv2D"}, {"input": ["bn4b34_branch2b/mul_1", "bn4b34_branch2b/sub"], "attr": {"T": {"type": "DT_FLOAT"}}, "name": "bn4b34_branch2b/add_1", "op": "Add"}, {"input": ["bn4b34_branch2b/add_1"], "attr": {"T": {"type": "DT_FLOAT"}}, "name": "res4b34_branch2b_relu", "op": "Relu"}, {"input": ["res4b34_branch2b_relu", "res4b34_branch2c/merged_input"], "attr": {"explicit_paddings": {"list": {}}, "data_format": {"s": "TkhXQw=="}, "use_cudnn_on_gpu": {"b": true}, "padding": {"s": "VkFMSUQ="}, "strides": {"list": {"i": ["1", "1", "1", "1"]}}, "T": {"type": "DT_FLOAT"}, "dilations": {"list": {"i": ["1", "1", "1", "1"]}}}, "name": "bn4b34_branch2c/mul_1", "op": "Conv2D"}, {"input": ["bn4b34_branch2c/mul_1", "bn4b34_branch2c/sub"], "attr": {"T": {"type": "DT_FLOAT"}}, "name": "bn4b34_branch2c/add_1", "op": "Add"}, {"input": ["bn4b34_branch2c/add_1", "res4b33_relu"], "attr": {"T": {"type": "DT_FLOAT"}}, "name": "add_45", "op": "Add"}, {"input": ["add_45"], "attr": {"T": {"type": "DT_FLOAT"}}, "name": "res4b34_relu", "op": "Relu"}, {"input": ["res4b34_relu", "res4b35_branch2a/merged_input"], "attr": {"explicit_paddings": {"list": {}}, "data_format": {"s": "TkhXQw=="}, "use_cudnn_on_gpu": {"b": true}, "padding": {"s": "VkFMSUQ="}, "strides": {"list": {"i": ["1", "1", "1", "1"]}}, "T": {"type": "DT_FLOAT"}, "dilations": {"list": {"i": ["1", "1", "1", "1"]}}}, "name": "bn4b35_branch2a/mul_1", "op": "Conv2D"}, {"input": ["bn4b35_branch2a/mul_1", "bn4b35_branch2a/sub"], "attr": {"T": {"type": "DT_FLOAT"}}, "name": "bn4b35_branch2a/add_1", "op": "Add"}, {"input": ["bn4b35_branch2a/add_1"], "attr": {"T": {"type": "DT_FLOAT"}}, "name": "res4b35_branch2a_relu", "op": "Relu"}, {"input": ["res4b35_branch2a_relu", "Pad_1/paddings"], "attr": {"Tpaddings": {"type": "DT_INT32"}, "T": {"type": "DT_FLOAT"}}, "name": "Pad_47", "op": "Pad"}, {"input": ["Pad_47", "res4b35_branch2b/merged_input"], "attr": {"explicit_paddings": {"list": {}}, "data_format": {"s": "TkhXQw=="}, "use_cudnn_on_gpu": {"b": true}, "padding": {"s": "VkFMSUQ="}, "strides": {"list": {"i": ["1", "1", "1", "1"]}}, "T": {"type": "DT_FLOAT"}, "dilations": {"list": {"i": ["1", "1", "1", "1"]}}}, "name": "bn4b35_branch2b/mul_1", "op": "Conv2D"}, {"input": ["bn4b35_branch2b/mul_1", "bn4b35_branch2b/sub"], "attr": {"T": {"type": "DT_FLOAT"}}, "name": "bn4b35_branch2b/add_1", "op": "Add"}, {"input": ["bn4b35_branch2b/add_1"], "attr": {"T": {"type": "DT_FLOAT"}}, "name": "res4b35_branch2b_relu", "op": "Relu"}, {"input": ["res4b35_branch2b_relu", "res4b35_branch2c/merged_input"], "attr": {"explicit_paddings": {"list": {}}, "data_format": {"s": "TkhXQw=="}, "use_cudnn_on_gpu": {"b": true}, "padding": {"s": "VkFMSUQ="}, "strides": {"list": {"i": ["1", "1", "1", "1"]}}, "T": {"type": "DT_FLOAT"}, "dilations": {"list": {"i": ["1", "1", "1", "1"]}}}, "name": "bn4b35_branch2c/mul_1", "op": "Conv2D"}, {"input": ["bn4b35_branch2c/mul_1", "bn4b35_branch2c/sub"], "attr": {"T": {"type": "DT_FLOAT"}}, "name": "bn4b35_branch2c/add_1", "op": "Add"}, {"input": ["bn4b35_branch2c/add_1", "res4b34_relu"], "attr": {"T": {"type": "DT_FLOAT"}}, "name": "add_46", "op": "Add"}, {"input": ["add_46"], "attr": {"T": {"type": "DT_FLOAT"}}, "name": "res4b35_relu", "op": "Relu"}, {"input": ["res4b35_relu", "res5a_branch2a/merged_input"], "attr": {"explicit_paddings": {"list": {}}, "data_format": {"s": "TkhXQw=="}, "use_cudnn_on_gpu": {"b": true}, "padding": {"s": "VkFMSUQ="}, "strides": {"list": {"i": ["1", "2", "2", "1"]}}, "T": {"type": "DT_FLOAT"}, "dilations": {"list": {"i": ["1", "1", "1", "1"]}}}, "name": "bn5a_branch2a/mul_1", "op": "Conv2D"}, {"input": ["res4b35_relu", "res5a_branch1/merged_input"], "attr": {"explicit_paddings": {"list": {}}, "data_format": {"s": "TkhXQw=="}, "use_cudnn_on_gpu": {"b": true}, "padding": {"s": "VkFMSUQ="}, "strides": {"list": {"i": ["1", "2", "2", "1"]}}, "T": {"type": "DT_FLOAT"}, "dilations": {"list": {"i": ["1", "1", "1", "1"]}}}, "name": "bn5a_branch1/mul_1", "op": "Conv2D"}, {"input": ["bn5a_branch2a/mul_1", "bn5a_branch2a/sub"], "attr": {"T": {"type": "DT_FLOAT"}}, "name": "bn5a_branch2a/add_1", "op": "Add"}, {"input": ["bn5a_branch1/mul_1", "bn5a_branch1/sub"], "attr": {"T": {"type": "DT_FLOAT"}}, "name": "bn5a_branch1/add_1", "op": "Add"}, {"input": ["bn5a_branch2a/add_1"], "attr": {"T": {"type": "DT_FLOAT"}}, "name": "res5a_branch2a_relu", "op": "Relu"}, {"input": ["res5a_branch2a_relu", "Pad_1/paddings"], "attr": {"Tpaddings": {"type": "DT_INT32"}, "T": {"type": "DT_FLOAT"}}, "name": "Pad_48", "op": "Pad"}, {"input": ["Pad_48", "res5a_branch2b/merged_input"], "attr": {"explicit_paddings": {"list": {}}, "data_format": {"s": "TkhXQw=="}, "use_cudnn_on_gpu": {"b": true}, "padding": {"s": "VkFMSUQ="}, "strides": {"list": {"i": ["1", "1", "1", "1"]}}, "T": {"type": "DT_FLOAT"}, "dilations": {"list": {"i": ["1", "1", "1", "1"]}}}, "name": "bn5a_branch2b/mul_1", "op": "Conv2D"}, {"input": ["bn5a_branch2b/mul_1", "bn5a_branch2b/sub"], "attr": {"T": {"type": "DT_FLOAT"}}, "name": "bn5a_branch2b/add_1", "op": "Add"}, {"input": ["bn5a_branch2b/add_1"], "attr": {"T": {"type": "DT_FLOAT"}}, "name": "res5a_branch2b_relu", "op": "Relu"}, {"input": ["res5a_branch2b_relu", "res5a_branch2c/merged_input"], "attr": {"explicit_paddings": {"list": {}}, "data_format": {"s": "TkhXQw=="}, "use_cudnn_on_gpu": {"b": true}, "padding": {"s": "VkFMSUQ="}, "strides": {"list": {"i": ["1", "1", "1", "1"]}}, "T": {"type": "DT_FLOAT"}, "dilations": {"list": {"i": ["1", "1", "1", "1"]}}}, "name": "bn5a_branch2c/mul_1", "op": "Conv2D"}, {"input": ["bn5a_branch2c/mul_1", "bn5a_branch2c/sub"], "attr": {"T": {"type": "DT_FLOAT"}}, "name": "bn5a_branch2c/add_1", "op": "Add"}, {"input": ["bn5a_branch1/add_1", "bn5a_branch2c/add_1"], "attr": {"T": {"type": "DT_FLOAT"}}, "name": "add_47", "op": "Add"}, {"input": ["add_47"], "attr": {"T": {"type": "DT_FLOAT"}}, "name": "res5a_relu", "op": "Relu"}, {"input": ["res5a_relu", "res5b_branch2a/merged_input"], "attr": {"explicit_paddings": {"list": {}}, "data_format": {"s": "TkhXQw=="}, "use_cudnn_on_gpu": {"b": true}, "padding": {"s": "VkFMSUQ="}, "strides": {"list": {"i": ["1", "1", "1", "1"]}}, "T": {"type": "DT_FLOAT"}, "dilations": {"list": {"i": ["1", "1", "1", "1"]}}}, "name": "bn5b_branch2a/mul_1", "op": "Conv2D"}, {"input": ["bn5b_branch2a/mul_1", "bn5b_branch2a/sub"], "attr": {"T": {"type": "DT_FLOAT"}}, "name": "bn5b_branch2a/add_1", "op": "Add"}, {"input": ["bn5b_branch2a/add_1"], "attr": {"T": {"type": "DT_FLOAT"}}, "name": "res5b_branch2a_relu", "op": "Relu"}, {"input": ["res5b_branch2a_relu", "Pad_1/paddings"], "attr": {"Tpaddings": {"type": "DT_INT32"}, "T": {"type": "DT_FLOAT"}}, "name": "Pad_49", "op": "Pad"}, {"input": ["Pad_49", "res5b_branch2b/merged_input"], "attr": {"explicit_paddings": {"list": {}}, "data_format": {"s": "TkhXQw=="}, "use_cudnn_on_gpu": {"b": true}, "padding": {"s": "VkFMSUQ="}, "strides": {"list": {"i": ["1", "1", "1", "1"]}}, "T": {"type": "DT_FLOAT"}, "dilations": {"list": {"i": ["1", "1", "1", "1"]}}}, "name": "bn5b_branch2b/mul_1", "op": "Conv2D"}, {"input": ["bn5b_branch2b/mul_1", "bn5b_branch2b/sub"], "attr": {"T": {"type": "DT_FLOAT"}}, "name": "bn5b_branch2b/add_1", "op": "Add"}, {"input": ["bn5b_branch2b/add_1"], "attr": {"T": {"type": "DT_FLOAT"}}, "name": "res5b_branch2b_relu", "op": "Relu"}, {"input": ["res5b_branch2b_relu", "res5b_branch2c/merged_input"], "attr": {"explicit_paddings": {"list": {}}, "data_format": {"s": "TkhXQw=="}, "use_cudnn_on_gpu": {"b": true}, "padding": {"s": "VkFMSUQ="}, "strides": {"list": {"i": ["1", "1", "1", "1"]}}, "T": {"type": "DT_FLOAT"}, "dilations": {"list": {"i": ["1", "1", "1", "1"]}}}, "name": "bn5b_branch2c/mul_1", "op": "Conv2D"}, {"input": ["bn5b_branch2c/mul_1", "bn5b_branch2c/sub"], "attr": {"T": {"type": "DT_FLOAT"}}, "name": "bn5b_branch2c/add_1", "op": "Add"}, {"input": ["bn5b_branch2c/add_1", "res5a_relu"], "attr": {"T": {"type": "DT_FLOAT"}}, "name": "add_48", "op": "Add"}, {"input": ["add_48"], "attr": {"T": {"type": "DT_FLOAT"}}, "name": "res5b_relu", "op": "Relu"}, {"input": ["res5b_relu", "res5c_branch2a/merged_input"], "attr": {"explicit_paddings": {"list": {}}, "data_format": {"s": "TkhXQw=="}, "use_cudnn_on_gpu": {"b": true}, "padding": {"s": "VkFMSUQ="}, "strides": {"list": {"i": ["1", "1", "1", "1"]}}, "T": {"type": "DT_FLOAT"}, "dilations": {"list": {"i": ["1", "1", "1", "1"]}}}, "name": "bn5c_branch2a/mul_1", "op": "Conv2D"}, {"input": ["bn5c_branch2a/mul_1", "bn5c_branch2a/sub"], "attr": {"T": {"type": "DT_FLOAT"}}, "name": "bn5c_branch2a/add_1", "op": "Add"}, {"input": ["bn5c_branch2a/add_1"], "attr": {"T": {"type": "DT_FLOAT"}}, "name": "res5c_branch2a_relu", "op": "Relu"}, {"input": ["res5c_branch2a_relu", "Pad_1/paddings"], "attr": {"Tpaddings": {"type": "DT_INT32"}, "T": {"type": "DT_FLOAT"}}, "name": "Pad_50", "op": "Pad"}, {"input": ["Pad_50", "res5c_branch2b/merged_input"], "attr": {"explicit_paddings": {"list": {}}, "data_format": {"s": "TkhXQw=="}, "use_cudnn_on_gpu": {"b": true}, "padding": {"s": "VkFMSUQ="}, "strides": {"list": {"i": ["1", "1", "1", "1"]}}, "T": {"type": "DT_FLOAT"}, "dilations": {"list": {"i": ["1", "1", "1", "1"]}}}, "name": "bn5c_branch2b/mul_1", "op": "Conv2D"}, {"input": ["bn5c_branch2b/mul_1", "bn5c_branch2b/sub"], "attr": {"T": {"type": "DT_FLOAT"}}, "name": "bn5c_branch2b/add_1", "op": "Add"}, {"input": ["bn5c_branch2b/add_1"], "attr": {"T": {"type": "DT_FLOAT"}}, "name": "res5c_branch2b_relu", "op": "Relu"}, {"input": ["res5c_branch2b_relu", "res5c_branch2c/merged_input"], "attr": {"explicit_paddings": {"list": {}}, "data_format": {"s": "TkhXQw=="}, "use_cudnn_on_gpu": {"b": true}, "padding": {"s": "VkFMSUQ="}, "strides": {"list": {"i": ["1", "1", "1", "1"]}}, "T": {"type": "DT_FLOAT"}, "dilations": {"list": {"i": ["1", "1", "1", "1"]}}}, "name": "bn5c_branch2c/mul_1", "op": "Conv2D"}, {"input": ["bn5c_branch2c/mul_1", "bn5c_branch2c/sub"], "attr": {"T": {"type": "DT_FLOAT"}}, "name": "bn5c_branch2c/add_1", "op": "Add"}, {"input": ["bn5c_branch2c/add_1", "res5b_relu"], "attr": {"T": {"type": "DT_FLOAT"}}, "name": "add_49", "op": "Add"}, {"input": ["add_49"], "attr": {"T": {"type": "DT_FLOAT"}}, "name": "res5c_relu", "op": "Relu"}, {"input": ["res5c_relu"], "attr": {"padding": {"s": "VkFMSUQ="}, "strides": {"list": {"i": ["1", "1", "1", "1"]}}, "data_format": {"s": "TkhXQw=="}, "ksize": {"list": {"i": ["1", "7", "7", "1"]}}, "T": {"type": "DT_FLOAT"}}, "name": "pool5", "op": "AvgPool"}, {"input": ["pool5"], "attr": {"out_type": {"type": "DT_INT32"}, "T": {"type": "DT_FLOAT"}}, "name": "Flatten/flatten/Shape", "op": "Shape"}, {"input": ["Flatten/flatten/Shape", "Flatten/flatten/strided_slice/stack", "Flatten/flatten/strided_slice/stack_1", "Flatten/flatten/strided_slice/stack_1"], "attr": {"new_axis_mask": {"i": "0"}, "Index": {"type": "DT_INT32"}, "begin_mask": {"i": "0"}, "ellipsis_mask": {"i": "0"}, "end_mask": {"i": "0"}, "T": {"type": "DT_INT32"}, "shrink_axis_mask": {"i": "1"}}, "name": "Flatten/flatten/strided_slice", "op": "StridedSlice"}, {"input": ["Flatten/flatten/strided_slice", "Flatten/flatten/Reshape/shape/1"], "attr": {"N": {"i": "2"}, "T": {"type": "DT_INT32"}, "axis": {"i": "0"}}, "name": "Flatten/flatten/Reshape/shape", "op": "Pack"}, {"input": ["pool5", "Flatten/flatten/Reshape/shape"], "attr": {"T": {"type": "DT_FLOAT"}, "Tshape": {"type": "DT_INT32"}}, "name": "Flatten/flatten/Reshape", "op": "Reshape"}, {"input": ["Flatten/flatten/Reshape", "dense/kernel"], "attr": {"transpose_b": {"b": false}, "transpose_a": {"b": false}, "T": {"type": "DT_FLOAT"}}, "name": "dense/MatMul", "op": "MatMul"}, {"input": ["dense/MatMul", "dense/bias"], "attr": {"data_format": {"s": "TkhXQw=="}, "T": {"type": "DT_FLOAT"}}, "name": "dense/BiasAdd", "op": "BiasAdd"}, {"input": ["dense/BiasAdd"], "attr": {"T": {"type": "DT_FLOAT"}}, "name": "prob", "op": "Softmax"}], "library": {}, "versions": {"producer": 38}}, "generatedBy": "1.14.0", "convertedBy": "TensorFlow.js Converter v1.2.2.1", "format": "graph-model"}
